models/FINAL/rnn/rnn___13/9/non_strategic/model.pt (torch, 9103 bytes, 4 tensors)

W_hh f8 [10, 10]
-0.2553993834653434 -0.10403030013383606 0.06325102677249092 -0.23546997200932307 -0.06024783126650503 -0.14162981684371662 0.22547946707469557 0.1277748152427716
-0.014255013011074298 0.17642585611098346 0.008802384239592904 0.202964134950204 0.07442783511122696 -0.08333923273576285 0.005484707096088106 0.014994872166856086
0.05971375477955352 0.17525184481035255 -0.12085909257339517 -0.20239481667669815 0.21947723938936176 -0.09196337338160956 0.27819493865997136 0.008539102892842255
0.19763334590456097 -0.00012671279289217332 -0.04131461800464507 -0.08886640030483929 -0.12413259955607206 0.20897628116159395 -0.20369639011675253 -0.03924888676499902
0.2117285376695014 0.25758201113163426 0.044271983636241935 -0.2635055803674904 0.027630369155824345 0.0675811944561625 -0.1694356975547688 0.08683668124194337
0.09732510638787038 0.25833084733039124 -0.19926487467959422 0.06506360106310276 -0.06004313247325803 -0.025768594011342738 -0.2561656544217315 0.25290445666338957
-0.35615028538172483 -0.2870822911027101 -0.14821919232251504 0.1509053498729035 0.2088434681565945 -0.3070401121464884 -0.17521372932127702 0.1061242669115943
-0.05061623887062178 -0.14864784442729617 0.3256397366500893 -0.034571780831937474 -0.08846158197145318 0.25858511019159547 0.17415273812617355 -0.34644819293540635
-0.09545544700429057 0.1774144965812541 0.046023839382542564 -0.2629487253592265 0.20725297315365754 -0.24021781995700814 -0.23892378021637406 -0.23005594911164534
0.00745393992141374 -0.18641703942730833 0.2631370926280979 0.09767499871356433 0.16023992913509857 0.16653985839502683 -0.04817652662681938 0.16242601690303715
0.20235161428280746 0.0702430235895509 0.10591011215720998 0.21829213719529134 0.08177873899453196 0.02058721201786922 -0.06283079883647813 0.08994563563408571
0.001648919572612433 0.22237791551822542 0.07893353259286218 -0.20703227593346368 -0.2371212853362004 0.31407147587004425 -0.1060914722958389 0.23994526692726997
0.21681212422414142 0.22756172461411797 -0.07761339895603937 -0.038693332165996276
00000000: dcbd d9a7 7658 d0bf 0f2e ded0 baa1 babf
00000010: f61f 6d23 3831 b03f 842b 7c4a e123 cebf
00000020: 129e e3c1 cdd8 aebf ceb9 bd03 ed20 c2bf
00000030: 88ae 80dc 82dc cc3f c12d 5cd6 ec5a c03f
00000040: e431 7e75 bb31 8dbf 4f2e 1559 1f95 c63f
00000050: 44ad 7c03 fc06 823f 8e9f ef90 bafa c93f
00000060: 27fd b6dd b30d b33f cae6 124f b855 b5bf
00000070: b682 b1d9 2177 763f a5c8 83ac a1b5 8e3f
00000080: 4d91 cc1f cd92 ae3f be16 0307 a76e c63f
00000090: 6ce7 061a 9ff0 bebf 8dcf 40c7 12e8 c9bf
000000a0: d663 b286 d417 cc3f ea95 1a61 e98a b7bf
000000b0: 7444 dd24 f2cd d13f 5aa5 4bfd f27c 813f
000000c0: a92b a1aa 0c4c c93f 8888 589a c69b 20bf
000000d0: 3e76 5a8a 3027 a5bf 79c4 05cb f2bf b6bf
000000e0: 92f6 756f 27c7 bfbf 9447 9d1a bcbf ca3f
000000f0: cfae ee2a b912 cabf 8cc2 1e1a 6e18 a4bf
00000100: 14d0 75b4 eb19 cb3f 2c4a 7642 397c d03f
00000110: 7c83 b143 d1aa a63f d07a 7f82 46dd d0bf
00000120: f149 9aaf 224b 9c3f a78a 034c 004d b13f
00000130: 27e7 e2a5 11b0 c5bf abfe 06c2 ed3a b63f
00000140: efff 0355 4cea b83f 7a3f 351b 7e88 d03f
00000150: 49c5 feeb 8281 c9bf 43dc b916 02a8 b03f
00000160: 46e2 a434 f9bd aebf 30a4 2b12 1563 9abf
00000170: b562 06a1 0465 d0bf 2c71 982c 962f d03f
00000180: 9f3c 0b91 2acb d6bf 4600 e366 8e5f d2bf
00000190: 1516 d5b3 d8f8 c2bf 746e 3fd3 dd50 c33f
000001a0: 089f dbfc 61bb ca3f 82ad 0e92 8ba6 d3bf
000001b0: d15e 9f4a 676d c6bf 7280 b2bf f52a bb3f
000001c0: 8812 3125 5fea a9bf 34d3 377f e406 c3bf
000001d0: 022c cc0c 48d7 d43f 0247 1378 64b3 a1bf
000001e0: 9212 8511 6ba5 b6bf 7059 e08f a88c d03f
000001f0: d660 610d a34a c63f 979d 9a0a 352c d6bf
00000200: f2c5 1ba7 c46f b8bf a18e 53aa 84b5 c63f
00000210: 4800 f8c9 6f90 a73f 3d56 fce3 26d4 d0bf
00000220: fccb d8f2 4387 ca3f b6dd 5020 75bf cebf
00000230: e40c 22ef 0d95 cebf 1ea6 d72c 7972 cdbf
00000240: fc68 05c3 0588 7e3f 87f3 e077 83dc c7bf
00000250: e6f0 ccf5 3cd7 d03f e091 1c8d 3a01 b93f
00000260: 8505 93f3 bd82 c43f 10c0 a496 2d51 c53f
00000270: 9118 98fc 97aa a8bf 801d 4f2f 60ca c43f
00000280: 7098 d15e a8e6 c93f e6da 1661 72fb b13f
00000290: a5e9 07d4 ec1c bb3f fa25 1d2b fff0 cb3f
000002a0: b358 7d91 73ef b43f 4e8c 5469 d014 953f
000002b0: 9829 2fe2 ad15 b0bf 6d61 775b ad06 b73f
000002c0: 15b5 d6e8 1104 5b3f 5d70 4029 e176 cc3f
000002d0: b049 0bed fc34 b43f e6e2 2c9b 0880 cabf
000002e0: e92b da82 fd59 cebf 84f8 5d3f bf19 d43f
000002f0: 7626 e58b cf28 bbbf ba2c 24c9 86b6 ce3f
00000300: 08a1 75eb 7fc0 cb3f c9fd 841a be20 cd3f
00000310: 0962 3fc2 78de b3bf f5d2 73c8 9ccf a3bf

W_xh f8 [10, 82]
0.18610752208756567 0.037812502839260145 -0.20670241524376143 0.07892757431654725 0.14350704767904013 0.01828376348886352 0.11585472925615352 -0.14022145802120203
0.0532504604371177 0.24603454399625327 -0.10984377772672568 0.04698166302905935 0.16011929155389426 -0.09590361818408642 -0.0004932934132767877 0.13922319581803316
0.03619135155972043 0.02811418290956928 -0.102737376072795 0.08296928565311933 0.14435904445258121 -0.10908614748240895 0.17893105436156165 -0.2504702762013942
0.22787976961424866 0.0818696568158245 0.08852845633565694 -0.022774621805165856 0.04437135173836625 0.13481168509611616 -0.06466051695414328 0.04696716462690283
0.025061036539693018 -0.04991662243290484 0.00911908380107403 0.20345717793628332 -0.07520152619438378 -0.09359549385282549 -0.04089650780198175 0.02904466853551593
0.012811437060012847 0.003013524507044444 -0.025438539704156386 0.03952763290102051 0.19723466254593125 0.1039493643744259 0.006650508443691902 0.2074782872760536
-0.22950641753036738 -0.11221929348705761 0.2596861857937611 -0.05455007438060265 0.05527574437499056 0.0902870335726512 0.05626019339850573 -0.14759632793832844
-0.05765676860440105 0.09954815574481536 -0.05262063587204562 0.11929121909560354 -0.11574183841058709 -0.23098660688522166 0.0788478041802742 -0.1222694809637986
-0.20513333750313253 0.05636883194344984 -0.26004501652859385 0.2142874477150593 -0.052143965833716 -0.12467009147172707 -0.0423953064705853 -0.08901866067889731
-0.1480414199649863 0.039685136726834 0.15550179137113024 0.13315382150356725 0.20469440668314914 0.1055851370579615 0.10964396719892422 0.21166189070636873
0.10858073828598329 -0.004329512381072533 -0.06565016437791746 -0.13932932458807312 0.23895092075938112 -0.08736524608757236 -0.30167119666711506 -0.08009265204270066
-0.06909633949986954 -0.06297282141697008 -0.1953117691365424 -0.2652262370075374 0.10196456002031569 0.07508002485212667 -0.2103066151938912 0.20060782342143013
-0.1252048511096516 -0.11334961387591685 -0.1021252999385963 -0.11981841959629978 0.006567848639407393 -0.005940784350546074 -0.1531786999493281 0.005774837743180038
-0.13688384763684824 0.1341713295286191 -0.14009267644142107 -0.12679336696691984 -0.108243705421683 -0.02552013761913148 0.12028902364334579 0.06798530951559054
-0.09086933510281447 0.06646933036445955 0.047538646370056906 0.049168023013390835 0.0424444189654451 -0.1585844235399795 0.06641178499006864 -0.08901241594009922
0.08913577608250373 0.02441325140307183 0.10544131390924269 -0.05801853581921223 0.08162782404698203 -0.05302667802287826 -0.23733334883794716 -0.15389867118453535
0.1134795887415047 -0.2259315217400993 0.28225776218757315 0.04744190895920631 -0.1436320945988098 -0.03307186803823215 -0.2648549317555892 -0.1941249119349895
-0.07270237535277152 0.08099691593966885 0.06687796296844846 -0.17997435968634182 0.05172234528127096 -0.15916619751663688 0.17113379957146924 0.20267903442470098
-0.08333251230498398 0.28387367641376393 0.015392529788050422 0.05431884209557884 0.13494748582387867 -0.1969716205070387 0.22211317070645345 0.12778859778355703
0.1295004620492674 0.20894213877252002 0.034593955367783376 -0.23808810151669862 -0.27439429569236423 -0.07825648510160363 -0.08185531324706863 -0.14104560682818648
-0.09429296918174314 -0.15351527332134077 -0.1030609448895212 -0.10610769543197751 0.013047382114177105 0.03731399290503125 -0.2840580430984215 -0.00464864785060273
0.02997985337146076 0.11654604302462995 0.03301485123717136 0.06500676966698198 0.1305347205485973 0.227979127619801 -0.07487491789311729 0.11275945426870314
0.07980535293834067 -0.24105875052190304 0.11478941971988328 0.020820909755118334 0.09285641512285588 -0.00997762879619817 -0.00971290806505908 0.13115125680879203
0.19142262716787833 -0.040028262536931696 0.024416088340347315 -0.21607297995219443 0.09701130258568005 0.14846271592963706 -0.03334619538611473 0.04382201143152147
-0.10541300443434709 -0.024542692443999627 0.04859112335262008 -0.006906583732399249 0.04059543336357256 -0.05451955434975162 -0.037764336412466556 0.05639336493967846
-0.17281734431792423 0.0267774408944813 0.019652529969444124 0.1342165039949421 0.016923960266926993 0.04301255558330791 0.045179205823904646 0.09526915566025697
0.22143083646438855 0.14362810716240498 0.03185202117346409 0.035910041652043395 -0.25904320672136094 -0.08925938126352133 0.20837428205149963 0.02764957675323427
0.17477157258427334 0.1428362740440738 0.10089595109384915 -0.2149984689980406 -0.11248104488992665 0.15288735095428038 0.05032019812443767 0.12250085808540825
-0.2321267467969488 -0.08963049738851377 0.17363911959141587 -0.1961999248515728 -0.12320133708247674 0.2237014844844207 -0.2690481362523773 0.06693841769484037
-0.14829547452968625 -0.11522871238923219 -0.19833213537682012 -0.05978264381510477 -0.08713420212233815 0.11932180685891325 0.18342818987799067 0.11027893977768391
0.16225311329269024 0.14354930495848425 0.081524788302758 0.19088646877329946 -0.040124397444534096 0.03752001654974084 -0.030217318987524007 -0.032748635441402545
0.1334779763242541 -0.05595520375247189 0.02514220880817581 -0.04772394911454655 -0.14326410045409374 -0.0750932131991278 -0.022339222423908355 -0.10140762171905934
00000000: b9ed 730c 5fd2 c73f ba28 260e 295c a33f
00000010: 0cf3 bc88 3975 cabf b532 71f6 9834 b43f
00000020: 6974 435e 705e c23f 020c ee98 fab8 923f
00000030: 2bfb 3dd1 a7a8 bd3f 0902 33d8 c6f2 c1bf
00000040: d412 26f4 a443 ab3f 2139 1358 0f7e cf3f
00000050: 9660 01c9 b81e bcbf bd68 7104 fb0d a83f
00000060: 9061 57f8 c97e c43f 5f31 abb7 238d b8bf
00000070: 4acd e689 0b2a 40bf fe07 71d0 10d2 c13f
00000080: f2ae b13e ac87 a23f 8bf8 99e0 f6c9 9c3f
00000090: e13b 4f26 ff4c babf 87df 73a0 793d b53f
000000a0: 6d1f 676f 5b7a c23f 3f32 e2db 11ed bbbf
000000b0: d860 5c79 36e7 c63f c1ec 397b b407 d0bf
000000c0: 26e4 f40e 2a2b cd3f 9a07 8fea 68f5 b43f
000000d0: 5d1d ba08 cda9 b63f 3bec 53ff 3a52 97bf
000000e0: eff1 3081 d7b7 a63f cba0 4d61 8241 c13f
000000f0: 7516 a975 978d b0bf 0ae6 1d88 140c a83f
00000100: f70b 5eb1 99a9 993f ff90 c0e9 ab8e a9bf
00000110: aa8e 8fb5 06ad 823f 92b7 af82 e20a ca3f
00000120: f639 9d3f 6840 b3bf 679e 26d1 dff5 b7bf
00000130: f36b 0f17 63f0 a4bf 47cc eeb5 e2bd 9d3f
00000140: 3609 80f9 e13c 8a3f 6eaa 82a6 d1af 683f
00000150: 1172 5980 8f0c 9abf 3744 3245 f73c a43f
00000160: 0cdd a244 fc3e c93f 069b 6df0 6c9c ba3f
00000170: 3063 4744 903d 7b3f fe88 3d05 a68e ca3f
00000180: 20ed c15e 7760 cdbf d0d3 8153 67ba bcbf
00000190: 8042 cdce b29e d03f 5e09 ebc2 fced abbf
000001a0: 498d b434 1a4d ac3f 3788 7210 0d1d b73f
000001b0: ce2a 6dd5 22ce ac3f ac9d c0bc 6fe4 c2bf
000001c0: ef0e 191f 3085 adbf a914 4de9 fc7b b93f
000001d0: e78f 548c 17f1 aabf c530 b78c de89 be3f
000001e0: 839c c0d2 41a1 bdbf 9c69 3119 f890 cdbf
000001f0: 0cd1 50a4 5e2f b43f 35d5 097e 0d4d bfbf
00000200: af98 f227 cf41 cabf daf2 6b23 60dc ac3f
00000210: 0799 5eda 93a4 d0bf 1e93 f065 c56d cb3f
00000220: e80c e127 9db2 aabf bb0f a90d 61ea bfbf
00000230: 3e12 976d d6b4 a5bf 697e 594c edc9 b6bf
00000240: 7bfc 9970 05f3 c2bf 9911 c238 9c51 a43f
00000250: 1647 3492 7be7 c33f b8fd 5836 2f0b c13f
00000260: 7a6a 3023 6d33 ca3f 238d 9ba6 a007 bb3f
00000270: 20b5 5285 a011 bc3f 475a 32a1 bc17 cb3f
00000280: fbf0 e97f f2cb bb3f 356e 59a1 d2bb 71bf
00000290: 0eed fafc 72ce b0bf a861 3d16 8bd5 c1bf
000002a0: 4e5c 019b f195 ce3f 29cc c09a 915d b6bf
000002b0: fc25 f5b4 944e d3bf d85d 2cb9 f380 b4bf
000002c0: 5cdd 6c36 4cb0 b1bf f4d1 85a0 fc1e b0bf
000002d0: a690 7bde f9ff c8bf e143 7f77 77f9 d0bf
000002e0: a566 a372 591a ba3f d49f 52cb 7138 b33f
000002f0: b6f2 31c1 53eb cabf 3859 7564 84ad c93f
00000300: 2b83 686a b606 c0bf 8c7d 9cf4 7a04 bdbf
00000310: 2799 5437 e224 babf 17e0 9f81 6bac bebf
00000320: f404 c871 e3e6 7a3f c68f f827 5d55 78bf
00000330: d8f2 5c11 5c9b c3bf b256 f233 5ba7 773f
00000340: 6cb7 79f0 6885 c1bf e870 31b0 862c c13f
00000350: 3bcd dc8b 8eee c1bf b67f 3cda c33a c0bf
00000360: 55b3 c806 dcb5 bbbf 14b7 da71 f321 9abf
00000370: 4eae 9dee 42cb be3f 9657 fa38 7c67 b13f
00000380: 80d1 7976 3643 b7bf 2735 1a50 2204 b13f
00000390: c237 e946 fc56 a83f 5ef6 b315 8d2c a93f
000003a0: f967 b55e 46bb a53f 452e 6190 7e4c c4bf
000003b0: aaf0 99dc 5c00 b13f a792 6687 84c9 b6bf
000003c0: fc8c 2d2b 9ad1 b63f 22fc 7591 c9ff 983f
000003d0: 0e31 e3b2 33fe ba3f 3f86 cf03 9bb4 adbf
000003e0: cbb5 b9a2 8fe5 b43f 3afa d80f 5026 abbf
000003f0: 962b c16d f060 cebf ff55 d19f f3b2 c3bf
00000400: db85 6892 ff0c bd3f c32e 81f8 52eb ccbf
00000410: 42d1 68dc 8210 d23f 5113 e14e 4e4a a83f
00000420: 5d9b 7a56 8962 c2bf 919e 48bf cbee a0bf
00000430: b7c5 8419 62f3 d0bf a9c1 0cca 15d9 c8bf
00000440: bc4e 7b74 9f9c b2bf 40a9 09c1 36bc b43f
00000450: 25c8 c507 ea1e b13f 2556 7c5a 6609 c7bf
00000460: 8134 e9ea 597b aa3f 8537 7bd6 8e5f c4bf
00000470: b028 335c b6e7 c53f 7a2f 38f8 62f1 c93f
00000480: d21d 0b8f 4755 b5bf 201d 197f fc2a d23f
00000490: 92cc 5660 1e86 8f3f b6d5 b6e4 adcf ab3f
000004a0: ea3e 258f f545 c13f 72af 28b6 5d36 c9bf
000004b0: 79f8 1852 346e cc3f 0d1b 2474 605b c03f
000004c0: 5ec4 a89c 7893 c03f dd62 64b2 9dbe ca3f
000004d0: 9948 e385 4cb6 a13f 865c cac0 ab79 cebf
000004e0: 454a 8d17 ad8f d1bf ae17 36f4 9d08 b4bf
000004f0: 1866 6645 78f4 b4bf 1128 494e c80d c2bf
00000500: c1d9 e082 9523 b8bf 3103 2d73 63a6 c3bf
00000510: 2e9c cbbb 3362 babf 40f9 bbb9 df29 bbbf
00000520: 3e98 d4fb 95b8 8a3f 82aa 6bd6 d11a a33f
00000530: ad80 51c9 012e d2bf 1dc7 d2e7 750a 73bf
00000540: 32c3 13e7 09b3 9e3f d4dc 4423 f6d5 bd3f
00000550: 2921 b194 52e7 a03f bb00 bd9d 48a4 b03f
00000560: 35d6 df99 5cb5 c03f 9419 a688 6b2e cd3f
00000570: 7841 a4ab 002b b3bf 7f1d 66b8 cddd bc3f
00000580: 1f79 eaa4 1f6e b43f 3ffe f35c 03db cebf
00000590: ddab 9fe3 d662 bd3f 6a82 e299 1352 953f
000005a0: dd2c 2d22 70c5 b73f 9b6b f8aa 266f 84bf
000005b0: fb69 e873 5ce4 83bf 005a 697b 90c9 c03f
000005c0: 9241 b361 8980 c83f bf0d 069d 957e a4bf
000005d0: 5212 acf3 8700 993f fcd2 3887 47a8 cbbf
000005e0: b2a6 f293 bbd5 b83f aaeb cb86 d300 c33f
000005f0: 423f 42a5 c012 a1bf 37fb e2b3 d66f a63f
00000600: 205e 9ebe 58fc babf 5a6e 9c35 b821 99bf
00000610: b3ce 598b efe0 a83f 63b4 1ff4 134a 7cbf
00000620: 26b5 53b5 ecc8 a43f 5d6f d9ad fce9 abbf
00000630: ce80 b1db d855 a3bf 0a2f 4154 97df ac3f
00000640: 9276 03f5 e01e c6bf 5e44 a6a3 8b6b 9b3f
00000650: 047b 02f6 ca1f 943f fff0 9ea3 012e c13f
00000660: 5f05 76bf 8354 913f c86a 18df bd05 a63f
00000670: fd22 f296 ba21 a73f b1da e033 8f63 b83f
00000680: 6c61 787c d857 cc3f c642 86e3 6762 c23f
00000690: 41c8 807a e84e a03f 34af fc0c cd62 a23f
000006a0: 2ea1 47f5 2994 d0bf 3b55 63eb b3d9 b6bf
000006b0: c38c 5e2b 02ac ca3f 7210 9daf 2b50 9c3f
000006c0: 888d 4236 ea5e c63f 47d4 d982 7548 c23f
000006d0: ad34 3f2a 51d4 b93f 16b1 84e0 1185 cbbf
000006e0: 5bde 38c9 8ecb bcbf fb0c 290e d091 c33f
000006f0: 619f 8baa 91c3 a93f aa71 355b 375c bf3f
00000700: c187 0249 54b6 cdbf 6d04 0237 06f2 b6bf
00000710: 4cc6 f981 ce39 c63f 758a 5b42 141d c9bf
00000720: d2bb 9771 1f8a bfbf bfaf f60f 40a2 cc3f
00000730: d33c 90ac 1538 d1bf 5b67 d84a e022 b13f
00000740: 8ff9 9f9a 58fb c2bf 029e 45ff a07f bdbf
00000750: 8f3a 9889 f262 c9bf 1ecc 1ba8 d49b aebf
00000760: b97e 7a54 6d4e b6bf 009e 28ba df8b be3f
00000770: 9b60 582e 937a c73f 6a5f c897 3d3b bc3f
00000780: b515 a2c3 b5c4 c43f 1b82 14d9 d25f c23f
00000790: f8db 92fb cede b43f eaab 50c2 f76e c83f
000007a0: ae8a 975d 2f8b a4bf 7693 0dd8 d235 a33f
000007b0: 22ff 4bf3 49f1 9ebf 173d 6bdc 6dc4 a0bf
000007c0: 7543 866b ce15 c13f 13d6 5014 29a6 acbf
000007d0: f23e 5212 e1be 993f 0bab 5d01 466f a8bf
000007e0: 8f12 1261 7a56 c2bf d380 d70e 4f39 b3bf
000007f0: 133f ead6 17e0 96bf 3e37 d992 d9f5 b9bf

W_hy f8 [10]
0.24420759720232504 -0.10326450509225647 0.26478241036315153 -0.13213042438828632 -0.3240299559555432 0.17836170557512554 -0.4408121377842181 -0.2913183617085507
0.1814835965026227 0.33454115056299194
00000000: da98 b5cd 3142 cf3f 4f78 35e8 8a6f babf
00000010: dc35 44ec 31f2 d03f fef2 c655 a6e9 c0bf
00000020: 5a37 f023 e8bc d4bf ace7 266e 8ed4 c63f
00000030: d2a2 dd1c 4436 dcbf 31cd 10c5 f5a4 d2bf
00000040: e89e debf da3a c73f 8e64 3549 1f69 d53f

b f8 [10]
-0.06076787412227135 -0.2709214784795588 0.26081429945886814 0.18928075978391734 0.27345748031190914 0.0668387265027225 -0.15381209184983083 0.19535329416621472
0.09386223477429645 -0.18022592319669445
00000000: cf54 0180 f71c afbf 93a2 760a c756 d1bf
00000010: be51 a075 2eb1 d03f b458 8418 5a3a c83f
00000020: 5351 b2cd 5380 d13f b97b 6fc0 571c b13f
00000030: 35b8 1c58 1db0 c3bf 9c0c ce34 5601 c93f
00000040: 3861 affc 5a07 b83f 06b7 029f a411 c7bf
