models/FINAL/rnn/rnn___8/12/strategic/model.pt (torch, 9103 bytes, 4 tensors)

W_hh f8 [10, 10]
00000000: 433b b3a5 b391 d9bf 8033 5b1b f19c d23f
00000010: f9dc 9504 778a abbf 8d3f eb12 fe74 a13f
00000020: 5101 05f6 d671 d03f 6493 dbcc 46a8 d3bf
00000030: 6021 03ef 71cf e13f b117 5171 9eb5 d83f
00000040: bf1d 9b9c e566 bfbf 54d9 81de c04b 903f
00000050: b1f5 db77 9ca2 ba3f 1225 41c1 a89a e03f
00000060: 28be bd8e c9d3 b33f 8042 a511 c4d2 a0bf
00000070: be0d 6dcc 4428 cf3f 1c45 1a64 4f4a a23f
00000080: 1bc1 2f32 1362 d73f 1c09 43d7 de9a d63f
00000090: 1a64 3b6a 8cab b6bf 1fbe b273 e0e1 ccbf
000000a0: bb7e 705c efef 9d3f fe00 37c8 9a41 dfbf
000000b0: d378 fc81 05df c43f 1579 8684 be0c c7bf
000000c0: fe1e 37e7 3b85 a0bf 7d18 9a2e a441 aebf
000000d0: b22a ad17 d408 dabf d5f6 876d e80f d2bf
000000e0: 358c 3159 ccf5 cebf e26f d1bf 0d40 c13f
000000f0: fe29 3270 be8c aabf 8282 bcf3 a8ed e2bf
00000100: 8d0e 828c b795 d53f ca5f 753e b75a d8bf
00000110: 9bb3 3085 b678 e0bf c475 ae51 b04c b83f
00000120: 4696 7de1 9d4e ddbf afcf 090c 84a4 dcbf
00000130: a73f 5e7f a776 71bf e6cb ff9d 4e05 d33f
00000140: e694 f41b ae2c b53f 5a69 191d 3ccb 9a3f
00000150: b0b4 c228 07a7 d0bf de6c 7e7e 82bc c4bf
00000160: da5f 5c9c 3f2b d2bf 288c 5397 dd26 b0bf
00000170: 1bcf bec6 2f39 ddbf 51fe 0294 35e1 a73f
00000180: 604a 8e5b b1ba dabf 9361 db4f a34d d5bf
00000190: 03c5 8e50 cc67 e4bf 1656 463d ef53 c8bf
000001a0: d9e7 f035 368a c9bf c508 62c2 f059 dfbf
000001b0: a008 4d25 8d59 ddbf 1acf 93af 1955 d6bf
000001c0: a07d aeba dd1b dcbf 200b 4c14 4aa0 dcbf
000001d0: 6ac6 4a35 0cd5 babf ee17 bd48 ecc1 dcbf
000001e0: 14e4 7659 82cd aebf 7577 2edb ea8f e23f
000001f0: abf4 c0bb c708 c03f c05b 249d f592 cebf
00000200: 92ec 6185 dac1 b23f ba3c 281e a5d7 b03f
00000210: 9e48 703a 7a72 d53f 5080 eedf 0553 c2bf
00000220: b88b 93f3 0414 c53f e3ed 4b5e 8ab3 d5bf
00000230: 9a9b 88f4 c2fe d4bf 07f1 5c4f 6e3e dfbf
00000240: e2e5 5c3b 360b bdbf 9882 e45c d56c dbbf
00000250: 3ad9 3700 a67a 923f 01e0 9fd6 8e8f 7bbf
00000260: 8d90 6754 545a b3bf 29c4 988a 29a5 b0bf
00000270: b8dd b7d7 a1e1 c5bf b64d a5bc b3d8 ab3f
00000280: ffa5 838e 5483 b4bf e73f d6f0 6e2b d1bf
00000290: 1e14 04d8 8cce bbbf fb31 9055 b72c ab3f
000002a0: 58ae 785b e27c bebf 80e6 69b7 72f9 c5bf
000002b0: 922d 4c4c a313 d9bf c93d af22 a929 b9bf
000002c0: a2db 0137 d6c0 cbbf c1e1 157e 2324 a03f
000002d0: 1d91 4e65 131c b7bf a90d 7ba7 16f0 debf
000002e0: 9b0c f281 d3ac d5bf 9aa4 6b62 e703 ca3f
000002f0: a801 2498 8f94 cfbf ee60 1e36 40cf c63f
00000300: 81a7 f47c d783 a4bf d238 c332 c883 bc3f
00000310: 97d0 eae4 5326 c7bf 55ef 20bc 614b bcbf
-0.39951792890217436 0.2908289687300609 -0.053790778455487805 0.034095706757965784 0.2569482233557397 -0.30714578633915424 0.5565728824813441 0.38608513895121194
-0.12266383241068633 0.015913976269496047 0.10404375005960877 0.5188792967320828 0.07745036826030882 -0.0328580161609624 0.24341640454995955 0.035723191232259505
0.36536102200536086 0.3532025434652881 -0.0885551223140201 -0.22564321183516342 0.02923559190469292 -0.4883791880820495 0.16305607649787265 -0.1800764224144095
-0.032266494726682624 -0.05909455365058223 -0.4067888480391658 -0.28222094246289703 -0.24187616686967464 0.1347672640430338 -0.05185504073695667 -0.5915112266994387
0.33726299973953006 -0.38053685283148 -0.5147354699489485 0.09492017740418307 -0.4579233839088811 -0.4475412480890055 -0.00426354817126643 0.2971989195786463
0.082713014435814 0.026165904308393585 -0.2601945779850423 -0.16200286079843002 -0.2838896777116112 -0.06309304184428355 -0.45661539467549667 0.04664008552344668
-0.4176448244190052 -0.3328636436322309 -0.6376706670181708 -0.1900614785378571 -0.1995303882011388 -0.4898645303984604 -0.4585907806650855 -0.34894411226490407
-0.4392008135855239 -0.4472832868779495 -0.10481334973408143 -0.4493361196840614 -0.06016166059584563 0.5800680428398964 0.12526795070326577 -0.2388598458571476
0.0732704711571606 0.06579048143634028 0.3351121493043453 -0.14315865930712102 0.16467344182373522 -0.339083282553217 -0.32804941063153026 -0.4881854796438038
-0.11345232915200357 -0.4285176665453405 0.018045991671862917 -0.006728704416666177 -0.0755970674577517 -0.06502017625531721 -0.17094824822536991 0.054387680795709256
-0.08012894133903357 -0.26827596205930465 -0.10862045549227203 0.053075532145246705 -0.11909308179081657 -0.17167505222078105 -0.3918236012547932 -0.0982919416121525
-0.21682241140271424 0.03152571596268983 -0.09027215216935187 -0.4834038386872757 -0.33867347421637256 0.20324413591086882 -0.24672121933691682 0.17819979326737417
-0.04006837272966291 0.1113858341152281 -0.18085716893768186 -0.11052523463234583

W_xh f8 [10, 82]
00000000: 1bef 82b7 5638 dfbf a217 f103 49b0 e1bf
00000010: e7b1 f6a9 f478 b4bf 6657 db59 8fe7 d83f
00000020: 0c59 563e 7869 d7bf 3732 ce3f acd8 e7bf
00000030: 2a2f 8f38 3dae e4bf 4f8c 6b69 001c dfbf
00000040: 11d5 0468 73ae e1bf 4d75 629d 30ca c63f
00000050: 4623 9827 453a e3bf 9b5e 5a71 5a28 d83f
00000060: 44fd e674 0b90 d6bf 3be5 a339 2cc8 8f3f
00000070: fc11 ff81 942b 96bf 8d68 1dd4 fb8b d3bf
00000080: 6252 0966 f9a7 d33f 85e2 73d6 026f c43f
00000090: be67 f193 eca2 c5bf e48a 32bb 8035 bf3f
000000a0: 73e8 6f41 6d0f e33f 222d 0288 8e8d d9bf
000000b0: 83c2 e1ff de14 d0bf b98c ea6f 6b7f c4bf
000000c0: b0ee 3503 1c69 d53f 15c9 5824 ebd2 b83f
000000d0: 2676 0e40 0d3c dd3f 50c1 73b5 45b9 93bf
000000e0: 97c6 54a2 b7d3 c03f 7a26 b23d 58b8 babf
000000f0: 40b7 8e21 841d dc3f dfcd c697 a72b dd3f
00000100: f5af b49c 9324 d43f b3b0 1dbd ff4a e0bf
00000110: e209 5701 131f bd3f bcdd da7d 8153 c3bf
00000120: 1171 4868 29db abbf 0371 fd3c a690 c93f
00000130: 6eab 2a3e f03c d8bf c8c5 61e4 2a21 e23f
00000140: 170d ab12 23b8 933f 5077 4a87 1869 ab3f
00000150: 31e5 8fb8 ec65 d23f 0a9f 5a4c 9738 dabf
00000160: c8d0 c787 6ca2 d1bf 8dde a342 df84 ddbf
00000170: 34b1 8657 297d d53f b84a 5529 e263 d43f
00000180: f5bc a810 13d8 b8bf fcd5 661f 90e8 d23f
00000190: f6f7 1034 2db8 cf3f 5b48 b7d5 5943 d13f
000001a0: 6d30 0c28 c1e1 b2bf 662e e854 c763 b4bf
000001b0: b417 4d7d 938b ddbf 37a5 8aff ba1e d3bf
000001c0: b109 d115 01b8 a73f a513 410d a714 cfbf
000001d0: de3b 96e3 260b d33f 386e 3dff e597 dbbf
000001e0: 46a2 6930 4dd1 a53f 58a1 1d9e 4a66 c2bf
000001f0: 8b41 c0a6 b54a a93f dc7f e4c1 e21b c03f
00000200: 82cf a418 f6f4 c33f 0928 e250 d051 ac3f
00000210: ba1d 3dd2 2046 d4bf 4f0f d812 335b b33f
00000220: 425e ee25 ee53 da3f e9d7 8896 3596 7a3f
00000230: 324f 056d 0132 c8bf a540 cc94 3c51 c4bf
00000240: 88d2 8034 26ab a7bf 0a7e 0fe4 dc79 c53f
00000250: 13a1 f35d 2bce 953f 3cda e918 d43e 92bf
00000260: cf2e 11c9 1277 aa3f 391f 0106 cc68 aebf
00000270: 2e29 4764 b09a aebf 70fa 78e3 7d1c d43f
00000280: acb6 1ee9 a5c4 b1bf dd59 fb97 9614 cebf
00000290: 2c9e aa9b 67eb e0bf 237e 8c70 a55b edbf
000002a0: 6605 2bbc 3d0c d83f b07d abcf 1fbb c3bf
000002b0: 4719 a1ca 61f1 e8bf 770f f90a b01b b3bf
000002c0: 895f b529 7347 e2bf e9a4 25f9 5be0 e1bf
000002d0: 4f78 44d0 da11 ecbf d173 3ceb 57db e0bf
000002e0: cce1 fcad 4a0d b0bf ca5e 2fb3 7ecd e53f
000002f0: 2d12 d4e0 2e5f e2bf deef 7d53 8a32 b53f
00000300: dcd6 6650 554e cc3f 2a35 7e66 0a6f c2bf
00000310: 3370 e1bd 6010 d43f 0c20 61d3 a98a d63f
00000320: 9d74 a298 9b7a ccbf 6c8a e947 d8c4 c43f
00000330: 4117 af13 36a4 d1bf 32e7 58e3 63ac cbbf
00000340: 77bd d15f 3cb6 cdbf 48eb 0ad4 8b56 a6bf
00000350: 640e 5ece 5bcc c53f 286c 6d29 dacc dfbf
00000360: dc2c 4685 0b29 e63f 490a 15e2 991d e2bf
00000370: b4af 6767 b31c e53f d463 d1f3 6ab5 a6bf
00000380: 9a1d 7a5b 2f2f 88bf 3f5b cc21 ad5b e03f
00000390: a141 43cf f905 b9bf 90f7 9e0d 1dcc f1bf
000003a0: a311 c123 9687 bf3f 9e43 026f 0c26 e8bf
000003b0: 5829 b3ea 8d9a a63f 28ea 3e29 645b 7b3f
000003c0: 546b fd71 dedc e1bf ed9e 7e99 1eed d03f
000003d0: 0cfb 63cb b41f d3bf d3f9 f168 08c1 dcbf
000003e0: d416 f000 3713 e53f 5df9 5287 64cb a4bf
000003f0: 33e1 a34a 25d2 c73f 4a5f 59be 9e91 e3bf
00000400: ada6 5b77 6596 d63f a84b 7ff1 0994 e63f
00000410: 1808 ad71 eedb cc3f 0b0e 4bca 8d12 c53f
00000420: a73f 4a9b e564 ddbf 5e47 e6ab 6166 883f
00000430: 6f6f 88e5 3686 dbbf 45ec aee7 e997 e8bf
00000440: 9c0d 8d7c 407b bcbf 3471 cf97 f974 c23f
00000450: 376d c5b9 4e25 c3bf a788 74a9 cac1 d5bf
00000460: 955c 8315 e7fb c43f ca55 6eee e9f7 d0bf
00000470: cf8d f032 17e6 b8bf 78b2 b6ce ac55 c73f
00000480: e509 6d50 0795 dcbf 333c 0810 aac3 dc3f
00000490: 82ad 3ab1 e7b1 e53f 854b 1374 d8e2 d83f
000004a0: 1e0b e7ca c8a1 d33f cdad 566a 0a1d e2bf
000004b0: 7fcd cd5a f19d dc3f 3b49 5a63 d39a d23f
000004c0: 96ed 29c4 a177 e1bf f1c6 e1a7 7c8b d2bf
000004d0: 0e29 10a6 6352 d6bf 3181 9616 ed4c 9cbf
000004e0: d8e5 6adf 493c e5bf d00f 055d 6389 dfbf
000004f0: 456e bacf a20b dabf 8454 3167 ca3f e5bf
00000500: d8ec 1811 1dcf e4bf c891 79c4 3acb d63f
00000510: ed3b 771d 85b1 dd3f ad6f 9b83 1799 b33f
00000520: e7fb 495c 4b7c b83f 0c19 b9d4 580d dd3f
00000530: 3a42 73d9 9465 e8bf 16e6 c7b5 3c41 97bf
00000540: 030c 8e94 0441 dc3f c6c5 dcd3 3c49 d63f
00000550: 746c 46af 3ece cb3f 785e 35bb ba58 c03f
00000560: e8c6 ced8 f6d6 e13f 9b19 9594 2f3b e83f
00000570: 65c3 1bfe 7c03 92bf bbd6 6e0c c1f3 ba3f
00000580: 961a 25ed 179f e03f 5a4d 3bbd 52ea e0bf
00000590: 5497 e1aa c3ea d33f 5c88 e113 4c6d ba3f
000005a0: eb39 dd50 92ac b43f 4145 fc42 a262 ae3f
000005b0: 6412 d552 fab3 a8bf 3082 60ad fe15 d13f
000005c0: 8ede db4b 9699 c23f 4c66 2a62 11c5 b3bf
000005d0: 4db8 8ef9 5ee1 d13f bc45 f631 d7fd dfbf
000005e0: 4edc ea9d b9ee d13f 2fd4 cd7f 7455 da3f
000005f0: 9ef0 5cd5 a72a dfbf 5aae 107e e5c9 e23f
00000600: 9687 3b46 b82f d8bf d3f4 3503 619f cd3f
00000610: 7a34 4c5c ce7a b5bf ef68 816c 7fe3 9e3f
00000620: d94f b74c 2256 cd3f 861c 98b2 39a5 9cbf
00000630: 060f d906 6c34 74bf c1d7 e2b5 75e4 e33f
00000640: 0b6a 8d17 6f13 e0bf ee56 54a1 14b4 81bf
00000650: ca56 f78d 1888 b03f b3f6 6f48 abcb b5bf
00000660: 6af1 ae07 4556 b5bf 951e b088 f4d7 d03f
00000670: 1b22 dfb1 71b9 a23f 08bd 2a25 8e7c cb3f
00000680: 8c6c c929 ddcc d83f 7e30 25ea 8b80 d53f
00000690: 6e2f 90a3 bdf3 833f e4bf 2497 ea68 b03f
000006a0: a34e 45fb 60b5 e0bf 1b32 8248 21df d6bf
000006b0: dd85 0edf 83e9 df3f 0690 e4d3 5c2a c0bf
000006c0: ad2d 5c7a 0c37 d83f 3ff1 2f1a 97b9 c33f
000006d0: 6314 0f73 0a67 d23f f0ef 06e8 db29 d6bf
000006e0: bcd6 68e0 8262 99bf 2d0b 710f 8cd1 d33f
000006f0: 8af2 06c3 8e50 b8bf 53b1 dccc 1cea a83f
00000700: b316 d2fe 7286 e0bf 20dd f4d4 4490 d8bf
00000710: ad2b 9fb5 dca1 dd3f a2d5 02fd 97c4 e4bf
00000720: 4481 8e20 6fe4 bbbf e596 431e da06 e43f
00000730: 02a4 6053 eee2 d0bf 72be d587 42b5 db3f
00000740: 32ac c2e2 e273 b23f 39f7 fa11 a6ad d8bf
00000750: 2296 c970 61e2 b3bf a81f bae4 b8e9 b43f
00000760: da6b bd7f dbdf b1bf 2160 b2ee dd5d a6bf
00000770: 6673 a33f 08e1 e13f 965d dc04 a766 e03f
00000780: 9b16 01f0 6516 dd3f 011d 2478 ca1e e13f
00000790: 9121 7ba9 9e46 dc3f a6e5 9e26 533b d33f
000007a0: bf83 0236 bc0d d3bf ea0b 4ac3 6ab1 b8bf
000007b0: 0e6a 1259 86d0 e23f afff cdba 8b61 df3f
000007c0: e5eb f0d9 702d d0bf 35ac 787d cc1c c7bf
000007d0: 068e ad9c 05f0 e13f 6380 5c55 d56b e13f
000007e0: 34e1 0ca1 c2bb e43f b9b5 29c4 01ae cc3f
000007f0: b2d5 6584 a145 e13f be88 f3ab f86c c53f
-0.487813643656169 -0.5527691914546617 -0.0799706377935717 0.38913329863623003 -0.3658123596918734 -0.7451993223381298 -0.6462694267915812 -0.48608408255512797
-0.5525452643984484 0.17804534611506498 -0.6008630536390249 0.3774629694903326 -0.352541793978123 0.015518517979659854 -0.021650619921063083 -0.30541892732947745
0.30712733234876144 0.15963778945276288 -0.1690345499399068 0.12191013880014229 0.5956331518239167 -0.3992649391372699 -0.2512738703581265 -0.16013853993090324
0.3345403701166374 0.09696836125730031 0.4567902684737838 -0.019261445236169294 0.1314610998756975 -0.10437537676093625 0.4393015220365335 0.45578946897441414
0.31473245909978625 -0.5091551488562999 0.11375540526118003 -0.15098589558850317 -0.05440644643769777 0.19972684839274998 -0.3787193877312153 0.5665487728676277
0.019257114424147206 0.05353619243145025 0.2874709894527597 -0.4097040410656382 -0.2755385709745153 -0.46123487003158276 0.3357642512080645 0.31859640156214253
-0.09704703480450745 0.2954445177705052 0.24780812303828242 0.2697357737607768 -0.07375724055981588 -0.07964750121043948 -0.46164405094566097 -0.29875063853485834
0.04632571593585356 -0.2428177656858256 0.2975556585815279 -0.4311461441591038 0.04261246887182728 -0.14374668808455726 0.049398113828036015 0.12585100619708
0.15591312602338908 0.055311689256157655 -0.31678028613211107 0.07561034402902787 0.4113726969166899 0.006490907028412687 -0.18902604888227753 -0.15872914567490173
-0.04622764006527286 0.16778145919578008 0.021294286355357416 -0.017817796726797605 0.05168970779831527 -0.05939328740401923 -0.05977393364044513 0.3142389985477285
-0.06940686170011173 -0.23500330372799186 -0.5287359276162014 -0.9174372862070793 0.37574714065347903 -0.1541480793011778 -0.7794655759433134 -0.07464123027699353
-0.5712219061488081 -0.5586376062539361 -0.8771795337413638 -0.5267753214317229 -0.06270281551122209 0.6813348293025794 -0.5741190329723104 0.08280243433358644
0.2211405413233284 -0.14401369099179223 0.31349962752370003 0.35221334116477077 -0.2224916930471509 0.16225722800580245 -0.27564765856037715 -0.21619843102399156
-0.23212389639546036 -0.043629045137513034 0.17029903008016156 -0.4968781857075464 0.6925103762636371 -0.5661134162585962 0.6597535152081861 -0.044352857840472076
-0.011808748225361754 0.5111909542200478 -0.09774743375897411 -1.1123323947972246 0.12316263554482147 -0.7546446006909837 0.04414790620792769 0.006678954367027624
-0.5582115389218907 0.26447262754162076 -0.2988101946101984 -0.4492817902427337 0.6585955637280798 -0.04061426307588321 0.18610063690699405 -0.611525890136343
0.3529294648748003 0.7055711476081017 0.22546177435475623 0.16462871911618068 -0.4592832581047283 0.01191402726979945 -0.43006679930998976 -0.7685441517891226
-0.11125567475124004 0.1441947928677877 -0.14957603522166504 -0.3399531035266911 0.1639374594730937 -0.2651314571788502 -0.09726090425151955 0.1823020943969771
-0.44659598211379 0.4494424015583178 0.6779669248111733 0.3888455518291994 0.3067495328397615 -0.5660450055051399 0.4471400629765511 0.2906998129120841
-0.5458535033534868 -0.2897636069748009 -0.3487786409101695 -0.02763719988217978 -0.6636094440102012 -0.4927605064769951 -0.4069602039905685 -0.6640369430048314
-0.6502824148114099 0.3561541479778296 0.46395995976939625 0.07655474627557508 0.09564658167981542 0.4539396359799788 -0.7624000784945288 -0.0227097974729756
0.44146837718307114 0.3482200688332252 0.2172315936885273 0.12770780697859485 0.5574907526517707 0.7572248365402631 -0.01759143162684342 0.10528189233340417
0.5194205886590051 -0.5286039062433858 0.3112038773309582 0.10323024258971841 0.0807582328245428 0.0593462664384199 -0.04824812184464092 0.26696745807024325
0.1453121061710942 -0.07722576758023897 0.2793805539212187 -0.49986820105649676 0.28019562169669576 0.4114657638631937 -0.4869784911750318 0.587145563336388
-0.37791258677145245 0.2314263597180913 -0.08390512231217598 0.030164710042620276 0.22919110055829497 -0.02797403481056595 -0.004932805995455208 0.6216381599867803
-0.5023723087318229 -0.008644257710823191 0.06457665887804889 -0.0851389934395808 -0.08334762036878876 0.2631808600276398 0.036571076357692266 0.21473862471382454
0.3875039012979833 0.3359708582472719 0.009742242387822588 0.06410089674022817 -0.522140970957896 -0.357368775185735 0.49862763197788046 -0.12629280420617323
0.37835990857339646 0.1541012647502473 0.2875391124364965 -0.34630487116714814 -0.02478985304534008 0.30966474063841326 -0.09497921239285226 0.048661136634424416
-0.5164122559514993 -0.38380547329457393 0.46300428139209765 -0.6489982549307352 -0.10895437760200816 0.6258364287466206 -0.2638507665856765 0.43293822541361415
0.07208078418868594 -0.3855986762608726 -0.07767304423904212 0.0816913183608664 -0.06982204311991272 -0.04368489779261631 0.5587197535456709 0.5125308127343711
0.4544920772353664 0.5350086542611338 0.44181028891446156 0.3004958989291374 -0.2977133300246883 -0.09645716922572914 0.587954687088599 0.49032872431416313
-0.25277348788557524 -0.1805663693097316 0.5605495510212115 0.544413248750072 0.6479199548257726 0.22406026914852165 0.5397498689550757 0.16738804241237476

W_hy f8 [10]
00000000: 0cb5 6fe7 48cf a23f 5fc9 527d 9a1f cabf
00000010: bd39 9097 2826 cc3f a836 b5e2 e641 c3bf
00000020: cd4e f3ca 94e0 b9bf ae8a a385 d9e0 ce3f
00000030: d459 5e02 88b7 d2bf 78b4 d9b2 2121 a7bf
00000040: 0b11 9a13 19f5 c33f 82ef ff69 c31a ca3f
0.036737707377918566 -0.2040894615107147 0.21991450691753114 -0.15044866628379805 -0.10108308749050395 0.24123686814626438 -0.2924518607263995 -0.04517464931709808
0.1559172960006737 0.20394175220269167

b f8 [10]
00000000: ab4e cbb5 e3f9 983f 29c9 2cc3 a29c c1bf
00000010: 669a 70a7 f05c a33f 8aad 19e5 3ba2 82bf
00000020: 704d c40e 5abe c23f a3b3 9ef2 e0cc d5bf
00000030: fbd7 b3a9 0886 a9bf 428d 97ae 68aa 953f
00000040: 9726 5aab 8c24 c5bf a99b 36d2 e632 d6bf
0.02439075276454498 -0.13759264497782311 0.03781845134681276 -0.009098499230467256 0.14643407555613974 -0.34062980359413525 -0.049850722041739425 0.021157870918512296
-0.16517790190510048 -0.34685678986209695
