models/FINAL/vanilla_II/vanilla_quad1/distress/Quad/1/non_strategic/model.pt (torch, 1727 bytes, 2 tensors)

w f8 [82]
0	0x3fa0486fbfb116c9	0.03180264677989226
1	0x3fe893874a18d0cb	0.7680088469701557
2	0xbfe82d818ae53f22	-0.7555549347689274
3	0xbfa05b755c76316a	-0.03194777253802068
4	0x3fe66037d3e97b98	0.6992453707606385
5	0x3fdc296ab93a889b	0.4400278862832551
6	0x3fe1eea025b63ca2	0.5603790985641306
7	0xbfe9eef99681d9b7	-0.8104217471689513
8	0x3fe8dcad21a08f5d	0.7769380242138869
9	0x3febda8d37a4855b	0.8704286658068371
10	0xbfd5cf30e8bc35d7	-0.3407709381870893
11	0xbfe8d74f8045ea37	-0.776283026250275
12	0x3fe97cdc40a7fa2b	0.7964917433562894
13	0xbfeae564a8604b66	-0.8405020989033403
14	0xbfaa7513077f1995	-0.051674456276987225
15	0x3feb6824ddad1459	0.8564628915415923
16	0x3fca5b9a9f906cca	0.20592053214281797
17	0x3fd1a3f8073099b4	0.27563286497243245
18	0xbfec285f4132e8e0	-0.8799282334723806
19	0xbf72ef7a9fdaafdc	-0.004622916223222941
20	0xbfb29f8ff641baa4	-0.07274722826125896
21	0xbfaf32940d9d4fda	-0.06093275705521224
22	0x3fe9241c38c58e39	0.7856579884359639
23	0xbfe891a5e60212c5	-0.7677793018670732
24	0x3fe5f624a56f4cee	0.6862967711589627
25	0x3fe59f42577b51e0	0.6756908138873392
26	0x3fea5f38de97ffdf	0.8241237971815244
27	0xbfc88eeac0b7e146	-0.19186148080894777
28	0xbfe42f52a9e5a3a0	-0.6307767217923477
29	0x3fd72055a0900b37	0.3613485401148639
30	0xbfed88b8e037ff4a	-0.9229397181770562
31	0xbfebe495a77850ee	-0.8716533919237273
32	0x3fe1bf2354d378f9	0.554582276988895
33	0x3fd01310b143df27	0.2511636477570271
34	0xbfd11d1a551951ce	-0.26740129766883747
35	0x3fe8a7ac2c36ac44	0.7704678405328953
36	0xbfe5ae65402d35e3	-0.6775385144662177
37	0xbfeadbfee6eaae43	-0.8393549451915948
38	0xbfed21976876940c	-0.9103505173012549
39	0xbfd43a5ae9decd01	-0.3160617145433236
40	0xbfe4f054b446e809	-0.6543372651133278
41	0x3fe9541d810cc829	0.7915179749018125
42	0x3fc6b62393e5278c	0.17743344041292308
43	0x3fd08e2ec1b01264	0.2586781398279412
44	0x3fc821020164b397	0.1885073191455404
45	0x3fe7fcdff896f223	0.7496185164705519
46	0xbfda267c67a286fe	-0.4085989963588047
47	0x3fe77530c9b068b9	0.7330554904213137
48	0xbfeebd63e7d96e45	-0.9606189277942084
49	0xbfe910e6e846ca3a	-0.783313230195126
50	0x3fe21b9f4b677404	0.5658718559967615
51	0x3fecb8367c955576	0.8974869187610881
52	0x3fe74d57369c48a6	0.7281910006152159
53	0x3fd4ca036f0f9856	0.3248299202517776
54	0x3fd28aab4ac33b97	0.2897136907676496
55	0xbfe2332430bf2011	-0.5687428428727818
56	0x3fb797fe72d97033	0.09216299346866279
57	0x3fc66c659fe0d158	0.17518301302483041
58	0x3fee8117c6bf5de3	0.9532584077632545
59	0x3fdbe7ed5aa4dc99	0.4360307107157922
60	0xbfea434396bacc03	-0.8207109397829985
61	0xbfe7b4523b33c0da	-0.7407618671695915
62	0x3ff01f58654f1073	1.0076526601197002
63	0xbfefb8f2ca495290	-0.9913267088800968
64	0xbfeb1f9edef48f2f	-0.8476099352451224
65	0x3ff087fd957391fa	1.0332008207270733
66	0xbfea7ac0d6922d24	-0.8274845305290097
67	0x3fea052ec18f9e60	0.8131326466072544
68	0xbfe88b04da4191ca	-0.7669700873198562
69	0xbff0902b3357e2cc	-1.0351974492643192
70	0xbfede15a78261e41	-0.9337589594515024
71	0xbfe2ee29c81886a3	-0.5915726574059658
72	0xbfe8fca11098db9c	-0.7808385204469803
73	0xbfc089cbf7a434f7	-0.12920522300593237
74	0x3ff0181bd2180021	1.005885906866759
75	0x3fee6774aa03e340	0.9501288719758136
76	0x3fee3b7811cbc1fb	0.9447594020439846
77	0x3fefd1094c063e6b	0.9942671284533849
78	0x3feeb74159edbb30	0.9598700291079236
79	0x3fe800ec00d85b9e	0.7501125351435467
80	0x3f93d47976951a6c	0.01936521326322309
81	0xbfbde61cb9e0ea33	-0.11679248369265664

b f8 [1]
0	0x3febe17780677fec	0.8712728031059647
