models/FINAL/rnn/rnn___14/14/non_strategic/model.pt (torch, 9103 bytes, 4 tensors)

W_hh f8 [10, 10]
0	0xbfce6b8dad42ccc8	-0.23765727005011272
1	0xbfbda7acaf817b22	-0.11583976063546378
2	0x3fb3ac73d0fcb705	0.07685016491151593
3	0xbfce5915419c3cf2	-0.23709359840038463
4	0xbfb1dd463c733e68	-0.069782628782599
5	0xbfbfd5f8cd984635	-0.12435870189099137
6	0x3fcacd1645318cbc	0.2093837583407544
7	0x3fbfbbb9ecc6c67c	0.12395822554278796
8	0xbf6173c53b380ce4	-0.002130398957662304
9	0x3fc90698c45d794f	0.195513816720402
10	0xbf934b6fe9b2d515	-0.018842457426861154
11	0x3fc96646967c7fd1	0.19843370769467453
12	0x3fa980bd3a8cf221	0.04981032695511468
13	0xbfb8e2b8638bf5f2	-0.09720947676029093
14	0x3f4d5d7262f22ac8	0.0008961494949216381
15	0xbf88c8484aa3a7a5	-0.012100758340654336
16	0x3fadbb23a5fb122f	0.058068384181329306
17	0x3fc4ec81563ebbf6	0.16346756659683565
18	0xbfc27961f7175be9	-0.1443293053150392
19	0xbfcd9039027088e4	-0.23096382731552645
20	0x3fce0ca8237ebd67	0.23476125462682804
21	0xbfb9ae7ba1cbd3fe	-0.10031864833929657
22	0x3fd2921b3451debd	0.2901676188407512
23	0x3f7d7e51fb63bf78	0.007200546495582098
24	0x3fc86ccaaeb35f98	0.1908200600653316
25	0x3f8e61aee4f8a7cc	0.014834753382348874
26	0xbfab6789e0badb07	-0.05352431171689003
27	0xbfb758c12acb9ec0	-0.0911980370980201
28	0xbfbd147cce94450a	-0.11359386485516523
29	0x3fccdce807126288	0.2254915270357467
30	0xbfc3aa815fb80589	-0.15364091085215772
31	0x3fa31d1994015bc6	0.03733138972955134
32	0x3fd1023df09cd93d	0.26576183793385494
33	0x3fd43bd731d643bd	0.3161523806275531
34	0x3fbceecfabfe73f6	0.1130189700038072
35	0xbfcb3bd3b95283c9	-0.2127632765669019
36	0x3fbc6684b9bc817f	0.1109393075425995
37	0x3fc19bd024782084	0.13756753712391767
38	0xbfbc782a7d792666	-0.1112085872965963
39	0x3fc0a3297f263828	0.12997931202375068
40	0x3fb3bd6c9f839a42	0.07710913557421242
41	0x3fd131e1801a4124	0.26866948614135056
42	0xbfcb8ec1f5d3b346	-0.21529411795872927
43	0x3fb08ee1b18cf854	0.06468020043118489
44	0xbfaac6ac810a841a	-0.05229701113899683
45	0xbfa73e57e06dc2a8	-0.04539751638993056
46	0xbfceec4cf03df17f	-0.2415863202148891
47	0x3fd052632784778b	0.2550285230553235
48	0xbfd7b89472f1ab37	-0.37064086174966654
49	0xbfd3c32d39bbdaa7	-0.3087876380736056
50	0xbfc03b14b650e814	-0.12680300619268847
51	0x3fc2f40ebe79266f	0.1480730466885691
52	0x3fccfbccf89ce056	0.22643434657379896
53	0xbfd339f39b7509eb	-0.3004120844017552
54	0xbfc6867eeb7aa3ad	-0.1759794854927156
55	0x3fc03d38c4f4b2c3	0.12686833970055575
56	0xbfadd1b24d54ba9c	-0.0582404822729263
57	0xbfc2a248c077abfe	-0.14557752034974664
58	0x3fd5e0786876d0c6	0.3418255825192883
59	0xbf87f563a5886a96	-0.011698511590158927
60	0xbfbc63822e7fc34a	-0.11089337954741754
61	0x3fd0ee667493050d	0.2645507944508417
62	0x3fc3ea79f1ca450a	0.1555931501975823
63	0xbfd66b00888cadb1	-0.3502808888904055
64	0xbfb7850c605136c6	-0.09187390662665526
65	0x3fc3ed18eeef7894	0.15567313830155582
66	0x3facac0f6d9600b3	0.05600021565169424
67	0xbfd0e7b7d8100259	-0.2641429529176427
68	0x3fc85a79a8c0f148	0.19026108493734228
69	0xbfd0e6b8fb758c30	-0.2640821891456566
70	0xbfd0c3b5c7c1aae9	-0.2619451952693184
71	0xbfcc98e00a372f30	-0.22341537951285195
72	0xbf87924245ab77a7	-0.011509435416367909
73	0xbfc85ee6bc89f8b3	-0.19039615827563736
74	0x3fd115e36c110cb7	0.26696095994357044
75	0x3fb345c27f8cd177	0.0752831994439641
76	0x3fc5fa339c20f804	0.17169804690814783
77	0x3fc525e9335b4d2e	0.16521945006989242
78	0xbfb0c9d8cbbca150	-0.06557993864101275
79	0x3fc1a30430a2953f	0.13778736471901173
80	0x3fcbc7fdbcf7e8e4	0.21704074599239853
81	0x3fafed2af4e24277	0.062356321709676026
82	0x3fbe116f5398202f	0.11745353499293353
83	0x3fcbd124a44a6e6b	0.21732004186638973
84	0x3fb33eeb5742349c	0.07517882232987677
85	0x3fa1f3d7d4823dbc	0.03506350010968215
86	0xbfb3150f8924d13f	-0.07454011057126751
87	0x3fb6863769cb82e6	0.0879854806221477
88	0x3f882447e97d422d	0.01178795033743637
89	0x3fce81587b284fd3	0.23832231534527057
90	0x3fb92418dc72e8b6	0.09820704824497536
91	0xbfcb255c099bbb85	-0.21207762211949102
92	0xbfcc4fecf40e14db	-0.22118913571117713
93	0x3fd449d61acfeaae	0.3170066129529613
94	0xbfbc1ced6c114925	-0.10981639755599255
95	0x3fd09037f146ce67	0.25880240022818274
96	0x3fca9b9815b2bb37	0.2078733545253841
97	0x3fcd5045f2c5d1c0	0.2290122447408418
98	0xbfb0229a119b0f9f	-0.06302798204256853
99	0xbf92ae98c5092550	-0.018244158769708918

W_xh f8 [10, 82]
0	0x3fc7560ebe9a2ebc	0.18231376940490474
1	0x3fbc3d57a2dd23e8	0.11031100965659812
2	0xbfcd268244312881	-0.22773769693077742
3	0x3fb70bb19e5b0aca	0.09002218357185679
4	0x3fc774944398638d	0.1832452135138535
5	0xbf84fe2015c4fb67	-0.010250330604888181
6	0x3fbded2efeecd11c	0.11690038417583931
7	0xbfc21a770cb95bd4	-0.1414326488618075
8	0x3fc3426aacc53290	0.15046437679338398
9	0x3fd1e61aabed9441	0.2796694449410247
10	0xbfc6c414677962c1	-0.17785887768220301
11	0x3fa11f6c9d1b862b	0.03344287317100866
12	0x3fc730117cb991fb	0.18115442838747228
13	0xbfbd1899fffb1b70	-0.11365664004834541
14	0x3fa8406fd50f9031	0.04736661411132593
15	0x3fc25cf14452f101	0.14346137844211884
16	0x3faeb30cc61e07c5	0.059959792312852346
17	0x3fb39803d3688b67	0.07653831397378284
18	0xbfbb07c1cf61ad6b	-0.10558711350465948
19	0x3fc2e81378e7cf7b	0.14770739940251673
20	0x3fc5019b78d1452c	0.16411155127802013
21	0xbfc07c26195cd6d6	-0.12878872145090864
22	0x3fcfb37b0d184051	0.24766481532469922
23	0xbfd0dca2f57e5ef5	-0.26346658681858
24	0x3fd1dd0129f63e57	0.27911404702988335
25	0x3fc2feeaafd3fe97	0.1484044416938459
26	0x3fa7727f37823da2	0.045795417333575075
27	0x3fb9ae4e2c6f3d6a	0.1003159388048879
28	0xbfa4313fa6b4c093	-0.0394382372854817
29	0x3fba73d99a90f80b	0.10333023093787135
30	0xbfa91902114a6575	-0.049018921480818024
31	0x3fa6e1471526d963	0.04468748219680909
32	0x3fbe16e4eed3c903	0.1175368388246945
33	0xbf9e54652db03bf6	-0.029618817247008843
34	0x3f7a7ff73db033ca	0.006469693932570084
35	0x3fd3a4d435f09864	0.3069353605991465
36	0xbfbafa3cbe454940	-0.10538081784514919
37	0xbfb8731039eb637e	-0.09550572790193532
38	0xbfa6c4c9b03e4258	-0.044470122112333754
39	0xbfa27c93c70cc5c2	-0.03610669903572329
40	0xbfa6f6895f69aaec	-0.04484967508036228
41	0x3fb0c200638c1e92	0.06546022825579659
42	0x3fa6ce1b438bbbc3	0.044541217799511944
43	0x3fafb07d9fcd3aa4	0.061893392331162006
44	0x3fc51d5f46e5a5ea	0.1649588676621499
45	0x3fc385b1fbf33d22	0.1525175552583074
46	0xbf9220562f68c769	-0.017701479571946708
47	0x3fcfbfbf2cdd7aa7	0.248039147288144
48	0xbfcf49d411365e0c	-0.24444056358764532
49	0xbfc7297bbe82dbcb	-0.18095347215941468
50	0x3fd3031a719a3c3e	0.2970644101523624
51	0xbfa9a0ee9f76345a	-0.050055939641517624
52	0x3fa938c3693d03a4	0.04926119479797045
53	0x3fc4beae71d9f989	0.16206913527635106
54	0x3f98952a2b795154	0.024006518271862134
55	0xbfc7d8323dc771cf	-0.18628528610760361
56	0x3f9c2c3e6a31395b	0.027512526732885827
57	0x3fc5c554c75a87b4	0.17008456930221671
58	0xbfa8fbfdbf9b40d2	-0.04879754032083529
59	0x3fc30aab302f035d	0.14876308300702137
60	0xbfc541a72a7c1485	-0.16606607031295453
61	0xbfd268e07ae4d6e0	-0.2876511764655856
62	0x3fc260b563e42b7c	0.1435763108969147
63	0xbfc747b7a4b64edf	-0.1818761400469304
64	0xbfd1b4165927d83f	-0.2766166563664036
65	0x3fc13ce6f0df0736	0.1346710849884915
66	0xbfd3fdc516fe86c1	-0.31236388440639123
67	0x3fd209840352f997	0.2818307907545203
68	0xbfb45af3a0793ff6	-0.0795128123074845
69	0xbfca11970a890835	-0.2036618043367199
70	0xbfb0fff26c4a474f	-0.0664054407482386
71	0xbfb37775e85c2f7f	-0.0760415737424278
72	0xbfc460d5a276ee19	-0.1592051547321354
73	0xbf9a747daf83176c	-0.025835002744109145
74	0x3fcc76f203645f42	0.22237992444638094
75	0x3fc994d5a9455691	0.19985457196405723
76	0x3fd104d0c5553b19	0.26591891547006835
77	0x3fc6f00af2fcff5f	0.1792005239931269
78	0x3fc823076bf722d5	0.18856899997469748
79	0x3fcffdeee6f17f61	0.2499369266179157
80	0x3f952757e4b3a5a3	0.02065789540657693
81	0x3f3345d57ca43f7c	0.0002940794189649693
82	0xbfa0675ecfc9cf0a	-0.032038653244766804
83	0xbfc6cb4f2383ae04	-0.17807950243091863
84	0x3fd05b8761f729d0	0.2555864769643934
85	0xbfbbc56b1a11286c	-0.10848111521150522
86	0xbfd456efc1855f1c	-0.31780618570836494
87	0xbf8f750374b5e710	-0.015359904288505116
88	0xbfb023a03ec40eeb	-0.06304360897416543
89	0xbfa7f384e7dd31db	-0.04677977877017599
90	0xbfd13f3781e3e97e	-0.269483448835352
91	0xbfd43d793dbe2738	-0.31625205068177165
92	0x3fc42ed3dd43eefd	0.1576790647885601
93	0x3fb601fd5820f71a	0.08596785928326903
94	0xbfcd0c6f8e74c19a	-0.22694200950492133
95	0x3fcb8d61cd515a45	0.21525213742525487
96	0xbfc6be26b1d4bce1	-0.1776779526057686
97	0xbfc0d0349de4286f	-0.13135392865689563
98	0xbfbfdebfc47275c5	-0.12449263139793405
99	0xbfc2bf8ac06588ae	-0.14647039789548927
100	0x3f983774635ed6ba	0.023649042668430133
101	0xbfa5e101e57059ae	-0.04273229528205334
102	0xbfc4f152836b987d	-0.16361457268721216
103	0x3f967f27b352d896	0.021969433136029247
104	0xbfc79a16ded18c57	-0.18438993339359186
105	0x3fc124d0277c0485	0.13393594673110357
106	0xbfc7bed30bcecfb1	-0.18551099850230693
107	0xbfc97ffd6da0202d	-0.1992184434204786
108	0xbfc078b581f3e432	-0.1286837467703506
109	0xbfc24b53621cd019	-0.1429237584176242
110	0x3fccaf00348494e0	0.22409060062742636
111	0x3fae9f8e311542d0	0.05981106137426695
112	0xbfba533821ce4663	-0.10283232522331213
113	0x3fb54acd06fbcde0	0.0831726209688024
114	0xbfaaaa349bd57563	-0.05207981493252125
115	0x3f9f0e6275585ad5	0.030328310405901632
116	0x3fae673ffb592d50	0.05938148444382796
117	0xbfcbe9ceeeda2ced	-0.21807276404101775
118	0x3fbecd0938528767	0.12031610131319113
119	0xbfb29da3aa5c2c43	-0.07271788510495107
120	0x3fbbeb774bb39cd0	0.10906167600807071
121	0x3fb91ebe591dfaed	0.09812535930357642
122	0x3fc333e4135e4a6f	0.15002108522147092
123	0xbfc35f43553f08dd	-0.15134469664014363
124	0x3f9de29bb2799252	0.029184754150622112
125	0xbfa5afdca4a70f7b	-0.04235734472197713
126	0xbfc6652323cfb206	-0.17496146439170007
127	0xbfc11ffb75a3863d	-0.13378852123337195
128	0x3fc1fcf743c512d6	0.14053240593980004
129	0xbfd1da6069d5fa0a	-0.27895365081340684
130	0x3fd2a5e087d25b62	0.2913743330367905
131	0x3fb84e7cdd68e6e9	0.0949476280738072
132	0xbfc7f8e86e4cfd36	-0.18728356729295975
133	0xbfaa403d97189c73	-0.05127136678157109
134	0xbfce0dc258e5eb1f	-0.23479489651421034
135	0xbfd06f1329d49c20	-0.25677947125444867
136	0xbfc187125d500db2	-0.1369345622662031
137	0x3fc47dbf4813cfdf	0.1600874998035797
138	0xbf91574d0cf49fb7	-0.016934589305634264
139	0xbfcf294c07e4e74d	-0.24344778428513295
140	0x3fa164c40b767df9	0.03397190704276549
141	0xbfcf1adc35678150	-0.24300720794327413
142	0x3fc86c27382c63ec	0.1908005737575701
143	0x3fd03d680ae52b77	0.25374795021041713
144	0xbfc47449cebbaddf	-0.15979883760824884
145	0x3fd5de483090b38b	0.3416920160550993
146	0x3fc3143eb3a30ab2	0.14905532618839384
147	0xbfa062f6246c9ae9	-0.03200501627570935
148	0x3fca022bf715fa16	0.2031912762140144
149	0xbfd14e917138a546	-0.27042041832699615
150	0x3fd0e4f1141327fa	0.26397349319870467
151	0x3fcae6d3493e03c5	0.21016923023492332
152	0x3fb908c3fe01f383	0.09779000235898931
153	0x3fb79515ca3f2b4c	0.09211860835709479
154	0xbf87e707880a5c12	-0.011671122397542564
155	0xbfc72187ad87a066	-0.18071075413832033
156	0xbfd63a15e379adc4	-0.34729525770555036
157	0xbfc35ab2167faf3b	-0.1512053117615951
158	0xbfc36c13753fb2b7	-0.15173571801223826
159	0xbfcd16ba0fb9ff9f	-0.2272560669698551
160	0xbfc7ccb23cd7ebbd	-0.18593433352347502
161	0xbfca25be08a0c4c7	-0.20427680417336644
162	0x3f92ecbd13888d74	0.01848121101114715
163	0xbfbbe64ecafba7fc	-0.10898296790733747
164	0x3f8567ee1a3f7979	0.010452137161277563
165	0x3fbb6007c261d59d	0.10693405624063819
166	0xbfd36db0ba4a9b91	-0.3035699671985919
167	0xbf76460ad7eb8a3d	-0.005437891347102095
168	0x3fb1d38e79153c49	0.06963434654356705
169	0x3fb736fb03b05023	0.09068268623406132
170	0x3fa44dcaecfa5261	0.03965601103587769
171	0x3fb0068132dad1d3	0.0625992535740985
172	0x3fc993c65a4c64b9	0.19982222947218078
173	0x3fd1308a303a6d01	0.2685876341799514
174	0xbfc122d7ac39a29d	-0.13387580785208267
175	0x3fb96549694fa2f1	0.09920176335402765
176	0x3fb96cd8d1a53fe7	0.09931712263391966
177	0xbfd057f60f2e4c01	-0.2553687237024747
178	0x3fc3745feaca1b6f	0.15198897327737934
179	0x3f9a2667c88744b6	0.025537129987985373
180	0x3fc43103d2a70137	0.15774581704864385
181	0x3fa2f8426571e53e	0.03705031860676876
182	0xbf8b0c46225b5b04	-0.013207004474151691
183	0x3fc8c766716dc3a6	0.19358521021379466
184	0x3fc9c1b51213794e	0.20122397787685958
185	0xbfa93b1866850d79	-0.04927898646794921
186	0x3fb74b6e1f35217f	0.09099472295668497
187	0xbfcd06b7ca8c4ccc	-0.22676751508752202
188	0x3fc2b5061e296e58	0.14614941094156353
189	0x3fc8ad24ee410cdd	0.19278394349576092
190	0xbfb654fa091b88f2	-0.08723414156296252
191	0x3fc2ab6c4214396d	0.14585641123307927
192	0xbfc8cf593bf32da8	-0.1938277762149998
193	0xbfa8ec58ba687b51	-0.048678181414507755
194	0x3fb0cb8c37c864c3	0.06560589181789837
195	0xbf84857c387c5eb9	-0.01002022788411182
196	0x3fc134bc2f966694	0.13442184756859332
197	0x3f88115641307c9c	0.011751817573950434
198	0xbfa508a53d7405b9	-0.04108158469353946
199	0x3fc367a7677bba37	0.1516007666864014
200	0xbfca73fb59b313ad	-0.20666448478564572
201	0x3f98a332101d6dce	0.024060041650370505
202	0x3f9303f0e411e7d8	0.018569721145901358
203	0x3fb1b1ab7edc13ed	0.06911727759513982
204	0xbfa6a5b9b39d50f5	-0.04423313443717972
205	0x3fb66badaa7a6553	0.0875805417257614
206	0x3fbecad4bf3eba6e	0.12028245610302132
207	0x3fc3aba2601817ee	0.15367536251159158
208	0x3fc86dd16bbd9133	0.19085138092771955
209	0x3fca00f8bc27ae24	0.20315465152030854
210	0x3f846acd38ff5d90	0.009969332982946694
211	0x3fb1ce86d8635729	0.06955759795104356
212	0xbfd13d2c05d7b08b	-0.2693586403900176
213	0xbfc3f281ff82b747	-0.1558382508860012
214	0x3fccc97bd116d39c	0.22489879331047014
215	0x3fa0aafa1f02dfaf	0.03255445126109124
216	0x3fc5cbd93471265b	0.1702834611954128
217	0x3fc8a5ec0962bbee	0.19256353815350685
218	0x3fab3c1930f1aaf7	0.053192889427767946
219	0xbfcfdd3b0e8fa9b7	-0.2489389248942879
220	0xbf9c251d53a22e16	-0.02748533080061407
221	0x3fca8ee5ced448dd	0.2074858913334258
222	0x3fabfee4d211e9b8	0.05467906059580535
223	0x3fc194304d52b052	0.13733485961472752
224	0xbfd10d5b780ad900	-0.26644026492012074
225	0xbfc074f270c439c0	-0.12856894022156773
226	0x3fcbf252039bcd12	0.2183325307483775
227	0xbfce5fcc72c7acee	-0.23729854206553774
228	0xbfca014d324af3dd	-0.20316472011282274
229	0x3fd1a90fe105d6ac	0.2759437272537564
230	0xbfd38d60115fbc19	-0.30550386139560853
231	0x3fbdafc3626904ee	0.11596318390458624
232	0xbfc4213bf9bc48f1	-0.15726422971835732
233	0xbfc71e24d4c80d0d	-0.18060741796225735
234	0xbfcbe0330cf30034	-0.2177795232037184
235	0xbfa64fdbfb496046	-0.043578028130185006
236	0xbfb8c011919963f7	-0.09668073467891235
237	0x3fa9a6921c2577a2	0.05009895890792328
238	0x3fcdb0e58cb3722c	0.2319609581962977
239	0x3fc4534b8573018b	0.15879196182323727
240	0x3fca5cdf682df755	0.20595924937145563
241	0x3fc97c81122c4d60	0.19911206614834054
242	0x3fc25d7812529bd7	0.1434774484125387
243	0x3fcc37dd0eaf3fb4	0.22045481888789953
244	0xbfc022b18b3c8186	-0.1260587625374791
245	0x3fa05a88e14dc0d9	0.03194072485246275
246	0x3f9885096053b223	0.02394499445374455
247	0xbfaa64301c19478e	-0.05154562323572441
248	0x3fc2e080b60ffa5d	0.14747628106848057
249	0xbfb1aab21467fe8d	-0.06901085851859019
250	0x3f9164c31593efaa	0.016985939208992974
251	0xbf7e5ccb595438cb	-0.007412714320947876
252	0x3f9a0115d25772e3	0.025394764865143037
253	0xbfba5f92dd9a1949	-0.10302083883479897
254	0xbfa63ccc487ef51e	-0.04343260178527884
255	0xbfc711c83793b0df	-0.18023016656605415

W_hy f8 [10]
0	0x3fd7b606513321bd	0.3704849045721195
1	0xbfc40041a18a1a6e	-0.1562578238264964
2	0x3fd3c9e83369bb82	0.3091984273987053
3	0xbfcd5e2b07d622f3	-0.22943628199234176
4	0xbfdeb2085bb9d2fd	-0.4796162505875115
5	0x3fd000d25c654293	0.25005015395167013
6	0xbfdf8daf358d53f6	-0.4930227301568374
7	0xbfd774b43419924d	-0.3664980419910407
8	0x3fcb487a52326313	0.2131493474342042
9	0x3fdd2e252cdffe4a	0.455941480468003

b f8 [10]
0	0xbfad0d11210952ec	-0.056740317614332486
1	0xbfd26dc1769b2f4f	-0.2879489572776394
2	0x3fd0f61b28c974a2	0.2650211237249299
3	0x3fd041641372942d	0.25399114512612436
4	0x3fd11adbbe703af2	0.2672643050909037
5	0x3fb38cebdfc88de0	0.07636903966390873
6	0xbfc4e15c19d75a45	-0.16312743436601998
7	0x3fc7cb406e304b13	0.18589024906449278
8	0x3fb910e73417b88f	0.09791417142671065
9	0xbfc60bd1009f9b41	-0.17223560839121357
