models/FINAL/rnn/rnn_final/rnn___3/14/strategic/model.pt (torch, 9103 bytes, 4 tensors)

W_hh f8 [10, 10]
00000000: 767e fc7b fa5b e6bf 09cf 98b5 239f c53f
00000010: 4741 ce21 7f13 d7bf 1605 ca10 fe7a e0bf
00000020: 2c8c dc88 0e1b c13f 36a6 771c 8b72 dbbf
00000030: 9da4 6000 5d21 e23f 4d0b 5bd6 19f1 d23f
00000040: 670b 8b30 d23d d7bf e662 88a5 25a1 d3bf
00000050: c646 295d 7b14 8c3f 7ceb 96c8 2969 d53f
00000060: 21d0 58a9 68c3 c13f 199c 2853 2343 bb3f
00000070: a71f 9374 d53b cd3f 6d20 d447 656b b73f
00000080: 218b 6481 c015 d23f 1c76 72fe 13cf d83f
00000090: 06c7 9d96 c154 aabf 8ce6 06d5 6f33 c6bf
000000a0: 98de f216 0eeb d43f be08 a0c1 aa7e e8bf
000000b0: e520 f953 1eea db3f 88f5 99aa d44b ac3f
000000c0: 2435 af71 82ec d2bf 27b8 f9b4 0078 b93f
000000d0: 2cb7 ee08 228d e9bf 96a7 3788 d0e6 e0bf
000000e0: a7dd e39e 33c4 8dbf 61d3 def3 9ea7 dd3f
000000f0: eac5 c998 b6be cabf 28ff 3251 c123 d9bf
00000100: bb94 2291 80f5 af3f 20cc 2949 d0db d1bf
00000110: af99 3478 a6e8 d3bf f9e9 c198 47af c3bf
00000120: b166 4274 41a2 c1bf 32d3 bfda 36be c8bf
00000130: e764 b2cd 9a7b d0bf 7442 a860 846c a3bf
00000140: 4327 91e8 c25f 7dbf 5321 c856 abcb d63f
00000150: 4df5 b546 d1e7 d6bf 24a4 1aeb 7638 bdbf
00000160: 6479 25ac 372c b1bf f4ba 1b23 fe78 c3bf
00000170: 70d5 1125 6862 bebf 0682 3bc9 bf57 ce3f
00000180: 1996 3d3d c1c4 dfbf 5c38 8461 0401 dfbf
00000190: 81e6 4286 13a7 d7bf e9cb eecc d720 d6bf
000001a0: c20c 0788 9067 863f 59d9 bc49 c306 e3bf
000001b0: 1b5e 5dfb 47be e4bf 8ac8 81c6 05c5 bebf
000001c0: 52cd f70b abf1 e3bf 4423 a808 4df1 e2bf
000001d0: 65fe 1c5b d71a bc3f 4dc4 941b f725 c9bf
000001e0: 0086 43e1 7189 d7bf 71ed 243d 248c e93f
000001f0: 98ac ddde 17ae c5bf c22c 9cc7 7dad e1bf
00000200: 5186 4318 9a57 d33f 031d c8e2 24bc b6bf
00000210: 7424 f196 58f1 e63f 3107 54f2 0de8 b53f
00000220: 01bf 0d40 e59a b4bf c65e 4d4d cde8 e5bf
00000230: 92e0 d1f4 d3bc d6bf 384c bad2 c2d3 c0bf
00000240: d3e4 001e c55d c2bf 8de7 e85e a3a7 d3bf
00000250: 56df 073a d58d d03f 32ee 68cc 15db a9bf
00000260: 0f30 cedb 9993 d13f 9508 22b2 45fa c23f
00000270: a457 120a 5a6e c8bf 4028 dab4 ae86 9abf
00000280: 6a96 d0c6 8f55 c23f 9a1e 55b9 de4c e3bf
00000290: c749 d084 17a7 b43f 6cc3 6b9c 1d74 b63f
000002a0: fdf1 f957 4cda dabf 0569 ed5f f1bd 9abf
000002b0: e4f6 c395 5702 e9bf 2faf ddf6 cf37 d7bf
000002c0: ce46 93ed c612 abbf 9c47 67c7 aeac d13f
000002d0: 3e54 8960 4600 bd3f ce43 5fa6 9f02 e4bf
000002e0: 673e 8e18 3c2a c7bf b6cb aebe f97d d23f
000002f0: 6b38 705c fe42 dabf 17cc e5bd d47e d13f
00000300: ea9f 70cc 4f47 d0bf 8695 5b93 cbbf a4bf
00000310: 00af 50d7 5394 a7bf 528f df6a 7ce9 b43f
-0.6987278386695397 0.16891905180965974 -0.36056497861229214 -0.515013726035394 0.13363820727053743 -0.4288661745073087 0.5665726668713834 0.29596563275497517
-0.363148257642186 -0.3067106358080721 0.013710941105418494 0.33454365338155134 0.13877590435879575 0.10649319439163242 0.228388482972375 0.09148247722271359
0.28257763515482465 0.3876390442690949 -0.05142788852289297 -0.1734447279139214 0.3268466209515082 -0.76546228234681 0.4361644573259709 0.05526604254280715
-0.2956853971671356 0.09948734682413428 -0.7984781431639241 -0.5281756077285873 -0.01453438118595225 0.46335576835126885 -0.20894510708198705 -0.3928073208771701
0.06241990825336915 -0.279041358421809 -0.3110748456841987 -0.1537866111646762 -0.1377641503975631 -0.19330487900847398 -0.2575442322500536 -0.03793729476831667
-0.007171403275671842 0.3561809871175871 -0.35789901643132255 -0.11414283027501476 -0.06708095505516593 -0.15212990488313205 -0.11868906884213515 0.2370528919773422
-0.4963839624454934 -0.48443707964987026 -0.3695725260873602 -0.34575457585304875 0.01093972125170806 -0.5945755424680029 -0.6482276830165036 -0.1201938256870411
-0.6232505067586465 -0.591955677898206 0.10978456472820992 -0.19647110792860403 -0.3677639674989166 0.7983571237777324 -0.16937540418743846 -0.5524281405099816
0.30222179765232676 -0.08880835091268939 0.7169611881337361 0.08557212034432095 -0.08048851789294177 -0.6846682081040505 -0.35527514370142754 -0.13146243371429178
-0.14348663296713102 -0.3071068217137672 0.2586567942339476 -0.05049961204755639 0.27463385072110297 0.14826270292184476 -0.19086766711978698 -0.025904397762623654
0.1432361336493842 -0.6031335468077998 0.0806746196033493 0.08770928448553911 -0.4195738658088713 -0.026115199546759466 -0.7815359044177197 -0.3627815161514602
-0.05287763261880017 0.27616471741668547 0.11328544480177613 -0.6253202676253922 -0.18097640227323383 0.2889389383446387 -0.41033896472152404 0.27336615128223357
-0.2543525215610304 -0.04052578138161338 -0.04605352404936802 0.08168771371088937

W_xh f8 [10, 82]
00000000: 2a8d a87b d15e bfbf 325f 005f f1c2 b63f
00000010: 368a 82e5 49bb e2bf 28c5 56bf 2696 e43f
00000020: 4bfe 79af 6da8 e33f 0490 eb43 3b52 973f
00000030: 8b58 5102 ec1e bfbf 6d0a fafc 42a7 d8bf
00000040: b99a ab27 8fea ad3f c777 e1e6 c96c e53f
00000050: 9e95 e4fb 5711 e1bf 8856 711c 71dd cf3f
00000060: 9ce7 b640 1478 cc3f f027 685c cbbe dfbf
00000070: cd1a 79d7 7845 cf3f 64d0 7a98 ab0c df3f
00000080: 5880 ff43 fef7 d13f c2a3 72b1 c36e c13f
00000090: 446e 6ff5 f2bd e7bf 6d94 017d 902f b33f
000000a0: 6f85 48fd aa83 e63f eedb 569b 07e5 d53f
000000b0: 744e a08f 88f1 e83f 8795 3b06 63a5 e2bf
000000c0: 6f42 b279 d4cd e33f f216 27e8 bdd2 db3f
000000d0: 14c3 c609 73ca 633f 2e9a e775 b5fe d13f
000000e0: b1df 3d5d 2751 c9bf e65a a256 2e18 c03f
000000f0: b96d 53cd 89cf 9f3f b061 4f6d e344 9d3f
00000100: fbff dc25 8781 d53f 5cae f553 7ddf d1bf
00000110: b245 5e82 5d36 c63f e41a 2dc1 896b e13f
00000120: f798 b34c 4f5a d6bf 5123 f25d c707 c9bf
00000130: 10b6 274e 234d cdbf 9cb7 db60 98e6 c33f
00000140: 8f32 228e 3c21 bcbf 1162 ecb4 1f99 d1bf
00000150: 20fa e40f aeb5 d53f 9bd8 fbe4 169c e33f
00000160: c793 d8c3 aea6 a73f b10a 086d b286 bb3f
00000170: 5665 0927 1a3b d83f 0e21 5b27 04c7 e13f
00000180: 0c3b aab8 b307 e3bf 7de1 fee6 0c9d e8bf
00000190: 904a c5a8 744d e63f e2e3 4f6c d883 da3f
000001a0: f114 c222 dedf df3f e826 989e 7d37 d63f
000001b0: c936 dc74 33bd 98bf ab09 ecd0 5ea7 debf
000001c0: 8ad9 b9d7 5036 d3bf 5f28 f14b 7966 cb3f
000001d0: d06b 45f0 c027 d53f a83d f088 75d4 c9bf
000001e0: 2ad6 601c bdfe a4bf 2215 b90f 5bc5 cbbf
000001f0: f37e 9166 8778 ce3f 1030 f690 dd76 b23f
00000200: bec4 ef31 ddda dbbf 488d 9dfb fa37 9bbf
00000210: e5b5 54cd 0203 e0bf 0fcd 393d 21e7 ca3f
00000220: 6664 a677 b2b5 b0bf c8ff 3d38 7c7a d0bf
00000230: 82e2 ed2d 7b96 c6bf 01d5 f200 0704 cbbf
00000240: e43a 6e73 d353 c13f b809 262e f879 d03f
00000250: 3d08 3239 51c2 c03f b652 5f30 68ad c03f
00000260: d476 e0eb 426c d13f 5715 c5ac a70d c63f
00000270: 04b1 db4c 4bda ca3f 3756 9cf6 06fb e03f
00000280: aa46 1116 e8b0 e0bf a527 6c62 c61e ab3f
00000290: 712c 8d13 44db debf f8ed 627e 5cd6 edbf
000002a0: 530d 64a9 ee8c e23f d050 7b7b 3dc9 72bf
000002b0: 893b 79cd 6007 eebf 9ccf 8a84 abd9 c23f
000002c0: 907c 041b 7f1d e0bf da42 4a2a a692 d2bf
000002d0: 74cf 90ae 782a ebbf 3e5d ce3d 2bfb f2bf
000002e0: 23a2 1b64 ee39 b5bf dce1 28ec 2189 c63f
000002f0: 07a2 b4e5 3869 ebbf bea7 a4d1 99dd c63f
00000300: eaa9 b5b7 5b48 abbf 60ba b518 c848 e8bf
00000310: a5d2 e3ab 8878 d33f d356 66e4 aaf4 e93f
00000320: deaf be44 2537 bcbf da01 fe6c 19bb e13f
00000330: ea5f 7694 f972 e0bf 1f80 cb14 2ae9 dbbf
00000340: 8954 1537 a416 cabf 8eeb eaa1 3ccf c63f
00000350: eed8 a8f5 c949 b43f d2fc a816 066a e1bf
00000360: dcc4 3536 2373 a2bf dcd8 786e 94b0 f1bf
00000370: 6738 220d 6fc5 d03f ea8c 4028 9556 d53f
00000380: 6fc0 3b85 b0a2 993f ebd2 91dc 3adc e93f
00000390: 7b58 81f8 c13c b13f 0a28 e78b 4621 dfbf
000003a0: f1cf dc4e 6785 c23f 5c42 9d0e a949 e7bf
000003b0: b235 76b9 fe84 cb3f db7e c480 76a7 c9bf
000003c0: c2ed ec59 811f dabf 9cbf b71e 0a00 cabf
000003d0: 7d20 3ccb 1f9c b2bf 4b03 5331 c654 e0bf
000003e0: a35a 6d53 9f0e 9cbf 40a9 f58d 689d c1bf
000003f0: 89f5 bb7f 0e79 d23f 4545 64d8 c0d4 e3bf
00000400: 3eca 1c12 87a8 df3f 5eb4 c606 4f3e dcbf
00000410: b243 f3bc c5d9 ce3f e836 0178 15f7 c43f
00000420: ae81 4246 75dc e3bf d6c9 3e94 2b8e b63f
00000430: 4711 6716 e12d debf 027d bb36 6798 d9bf
00000440: 0856 3bce 6762 ddbf ae7e 08f0 7940 b43f
00000450: 0fa3 c7f9 133d c6bf 857a 5e1d 9fc8 eabf
00000460: 9301 fa16 3ef9 cb3f 5a12 1f53 4075 e3bf
00000470: 07d8 bec0 f512 c9bf 60f9 0290 406a b33f
00000480: 647b d9af 25b6 c8bf e919 0482 360a de3f
00000490: d8ef cad5 4600 b93f 8b2f 94fd 92e4 d63f
000004a0: 384d 000c c1e4 e23f 1d62 212b 4410 e6bf
000004b0: 0e4f b2cd 0e5a e83f 27d0 d167 223d d1bf
000004c0: e2d0 bbfe 8339 d7bf c4ba 838e ffcf d5bf
000004d0: 0759 5ad9 5fc3 d7bf f56c c481 c118 cfbf
000004e0: b41e 9fc1 8d93 e7bf 7842 e293 e373 e3bf
000004f0: f87c 4aad ed38 e3bf 816f ca45 9b9d e5bf
00000500: b100 482b 6f01 d1bf 2f28 73aa 5d4e d2bf
00000510: 84c6 620c 3212 c93f d909 a4e3 4814 c23f
00000520: 9ea9 e10f e80b c23f ef13 928b ad80 cb3f
00000530: 5d7c 26c0 f470 debf 5339 29f3 37a7 d4bf
00000540: dd42 51e7 13d3 c03f da07 c62d beb0 d53f
00000550: f008 55ff 24ea c33f 9cd4 da51 7146 a63f
00000560: cdc0 b8d2 1ecc d23f 0daf f31e 0a42 db3f
00000570: 83e0 e615 f89f b33f e059 bd2f 4132 a13f
00000580: c78f d267 03b1 d33f bc2c 1382 c4c7 d7bf
00000590: 895d e8c1 cf57 b13f 63a8 61bb c6c2 84bf
000005a0: a84e 77d7 dc7d 88bf b1ee 1623 5497 b43f
000005b0: 9f1d 183d bd89 b3bf 75b1 cc56 d4d1 dd3f
000005c0: 0759 c6de 43c1 bbbf 68dc 3bf3 d959 bc3f
000005d0: 6480 6135 ee1b d33f ccd5 ddd4 663f d1bf
000005e0: bfa7 e0da 979d d13f 3517 4bca 3da0 c73f
000005f0: e1a1 9ba7 7c43 c4bf 529a 49e9 c3b3 d83f
00000600: bb3b 43be edc0 cbbf 19fc 185d 8825 d13f
00000610: bac3 e4cd f68f 90bf 135a ba95 ee6d c33f
00000620: 60e8 56e8 73d8 ba3f 4d6e ea26 7850 a3bf
00000630: 4362 cdd2 8fb9 c23f bece 6b6e e3d6 cc3f
00000640: 556e a911 5d76 cabf 98a4 0ec8 8408 9c3f
00000650: dcb0 f257 237c b83f bf29 dc01 74ac a0bf
00000660: d0cd 06dd b0cb cebf 938d bb79 f2af d43f
00000670: ccc3 2dbe 5864 a63f 7608 8f5f dc55 a7bf
00000680: 6883 7b6b 008d e13f 1da9 d2c2 187b c93f
00000690: 4da1 1146 3714 c2bf 7175 bca3 6454 b03f
000006a0: 7544 f086 9eaa d9bf 8329 615a 30c3 d3bf
000006b0: 458a 43c1 00e7 d03f 4d0f 9868 e378 bebf
000006c0: 3975 da99 2902 b43f d6db f5bd 5ab7 b73f
000006d0: d154 d615 e95e c43f b528 01d2 a614 ccbf
000006e0: 22d4 bc08 2b82 c83f d7d4 cc26 d52a ca3f
000006f0: fc7d ee8e 1f86 abbf 5a2b 175b 8c55 c63f
00000700: 8ac1 0474 7165 d7bf 5482 85f3 4401 d7bf
00000710: 3c64 a993 c060 d43f e0e8 5b7f 64f0 e1bf
00000720: 075c 70e3 e995 dcbf d9e5 fcd3 eacd b03f
00000730: 47f9 0639 3ed1 cdbf 7c24 d609 4bda db3f
00000740: dc64 277d e7d5 c1bf 68c2 a149 a699 d1bf
00000750: 8aa7 4202 3c5d c0bf c25e e9d5 0c55 a83f
00000760: 4f5e 6652 2e13 bfbf 8a0e bd32 9a52 b6bf
00000770: 44ae c643 e4c9 e23f 8d74 7507 bda9 e03f
00000780: 817d 961e 89fe dd3f 24ac e60f 8bb6 e13f
00000790: c01d fcea 51cc d93f b470 5df9 48e5 c43f
000007a0: b3a9 ad66 4017 c3bf fb87 20a7 26ff b9bf
000007b0: 5610 43d2 8695 bb3f 6735 dad6 8618 d73f
000007c0: 3a3c 70b7 8039 e0bf 61d0 bea4 ec05 d53f
000007d0: f819 94c5 811b d63f 992a 430c 0d01 e93f
000007e0: 942c 2987 4451 cd3f e0d7 006b 4cfa 9ebf
000007f0: 036a 8366 ef21 d53f bed7 d61a 1c95 d53f
-0.12254056233409885 0.08891209191676522 -0.5853623850455907 0.6433290230835711 0.6143101146007636 0.022774625797765694 -0.12156558090768692 -0.38520884232290237
0.05843016967064813 0.6695298680676779 -0.5333671493323668 0.24894536866002093 0.22241452369581516 -0.4960201647196518 0.244307618342836 0.48514833345985253
0.28076130524096277 0.13619276203578862 -0.741937140813612 0.07494452526005242 0.7035727450312786 0.34210386438229434 0.779484062690655 -0.5826888200505643
0.6188757302171107 0.43473766013299475 0.002415871318781968 0.28117119325762274 -0.19778911640946498 0.1257379458445122 0.031065133244607888 0.028583100840337827
0.336030756927357 -0.279265720359694 0.1735340963901258 0.54437720994687 -0.34926207056413666 -0.1955498894424417 -0.2289165622345739 0.1554747078839086
-0.10988214941080286 -0.2749709383802222 0.33921386291686595 0.6128038856829962 0.04619356289575865 0.10752406274699912 0.37860730945756893 0.5555439728423452
-0.5946901900041168 -0.7691711913712848 0.6969550415327195 0.41429720475531273 0.49803880113934357 0.34713688361863015 -0.024159244544583545 -0.47896547701398146
-0.30019017283429916 0.2140647526560455 0.33055137123090805 -0.20179623781630807 -0.04100600215353396 -0.21696031825755663 0.23805325039119615 0.0721262434873895
-0.4352334010755604 -0.026580735785853876 -0.5003675470704222 0.21017852296390813 -0.06527247830526192 -0.25747590534592435 -0.1764673208488326 -0.21106040521923577
0.13537066589602553 0.2574444246930869 0.130930092742405 0.13029196130687176 0.27223275217862164 0.17229171691921394 0.2097868085178406 0.5306429688086557
-0.5215950423245961 0.05296916915365494 -0.4821329298908444 -0.9324171513066508 0.579703646508657 -0.00458644882720112 -0.938400651279026 0.1472677609614238
-0.5036006477056549 -0.29020074968233944 -0.8489344987378744 -1.1863205351163084 -0.08291521019021579 0.17605995208010838 -0.856594513553376 0.17863772140964146
-0.05328642480420227 -0.7588844759573696 0.3042318037617327 0.8111166439946039 -0.11021645477620676 0.554089272380277 -0.5140350246101637 -0.43610622435335417
-0.20381596269240657 0.17819936662803254 0.07925092933223585 -0.544192356355689 -0.036034679763256 -1.1056103053393178 0.26205040247521655 0.33340958529352227
0.02503467381660623 0.8081335361481171 0.06733333889983044 -0.4864059797515671 0.14469615317068432 -0.7277417455134798 0.21499618583440633 -0.20042306220511005
-0.408172929590105 -0.20312620639697065 -0.0726947661570438 -0.5103484118809346 -0.02739952990244866 -0.1376162236368348 0.2886387107281157 -0.6197208620452918
0.4946611096267225 -0.44130302106606745 0.24102088666998395 0.16379040107351917 -0.6206613895665691 0.08810684556264134 -0.47155024707560184 -0.399926951837145
-0.45913119449446116 0.07910883054909831 -0.1737389535549245 -0.8369899343122859 0.218543778628384 -0.6080628989662487 -0.19589111243630006 0.07584002986820826
-0.1930586918487861 0.4693733472526263 0.0976604721026314 0.3577010609012567 0.5904240831754697 -0.6894856302633944 0.7609933869848378 -0.26935634745246023
-0.3628854739793167 -0.3408202068084558 -0.3712997076594466 -0.24294298969548547 -0.7367619306250703 -0.6078966034275046 -0.6006992706860776 -0.6754890788174494
-0.2657125399273453 -0.28603307385913274 0.1958677826383345 0.1412440406348441 0.1409883573099479 0.2148644381997253 -0.4756442905872456 -0.322706210576958
0.13144158167644707 0.33891252965997654 0.1555830237139797 0.04350618480877097 0.2937085206822417 0.4259057333244847 0.07665968451226672 0.033586537435144725
0.30767903460423124 -0.3715678472769459 0.0677461479575553 -0.010137131303242513 -0.011958813977720098 0.08043409210852805 -0.07632048360402742 0.46593197323343044
-0.10841774166906158 0.1107460230667684 0.2985797425553811 -0.26949473178623573 0.27524372458230667 0.18457767846683173 -0.15830953773480785 0.38597200185760017
-0.21682521619956482 0.26791581241190127 -0.016174179379223587 0.15179235754904194 0.1048653070674006 -0.037723307371575567 0.14628789704399212 0.2253078736463205
-0.20673716890711327 0.02737624617626419 0.09564419648330919 -0.03256571314530587 -0.24059115211785675 0.32323896301223803 0.0437343341972177 -0.04557694117058102
0.5484621142642085 0.19906911385380335 -0.14124194070178434 0.0637877368685247 -0.4010387723693108 -0.30878838373305245 0.2640993010847164 -0.11903210929454851
0.07815799719033557 0.09264151704506615 0.15914643827696875 -0.219380238095544 0.19147241522446828 0.2044321479276394 -0.05375765437861088 0.17448572585848404
-0.3655666001314094 -0.3594524744167178 0.3184052888878488 -0.5605947959404851 -0.4466500016291665 0.065642048601965 -0.23294809135945568 0.4351985546168817
-0.13934033976582938 -0.2750030249654061 -0.12784528837556436 0.04752388106561291 -0.12138642799106346 -0.08719791163189874 0.5871449779273878 0.520720018928516
0.4686606215199945 0.5535331068580303 0.4030957026265831 0.16324722457910001 -0.1491470815047485 -0.10154954509974339 0.10775034554814175 0.36087199193646885
-0.5070193846494313 0.3284865959969974 0.3454288892247912 0.7813782920359983 0.22904259299898355 -0.030251688033068436 0.3301962376696396 0.33722593899744513

W_hy f8 [10]
00000000: b3d8 df91 9f44 c9bf 382d 1ca6 5762 b7bf
00000010: 8b52 7beb b4ca d03f a488 3628 57f8 be3f
00000020: 565e a99c 1a71 c0bf 5fec 59d2 b936 aa3f
00000030: a7ba 88da a703 d6bf c0cf 99ea 1ea0 b8bf
00000040: 1d2a 86e9 be93 c53f 3f5b 7aa9 bde4 bc3f
-0.1974067175175996 -0.0913443356077338 0.2623722362161877 0.12097687465441936 -0.12845165872089365 0.0511987752224392 -0.34397312489719883 -0.09619324901160464
0.1685713424925134 0.11286530864377385

b f8 [10]
00000000: 5a31 9dac 18e8 c8bf 2ec0 b632 8bb7 c2bf
00000010: c76d e191 ab98 b03f 7ad9 1cd3 08df 8dbf
00000020: d6b3 8f5d 8ab1 cf3f 824c e057 b581 d1bf
00000030: cb3e 25db e50b bcbf dc1e 29e1 5bab c53f
00000040: 095c 6696 64b5 cabf ab6f 5103 def1 d4bf
-0.19458301952762264 -0.14622631050360851 0.06482956229722624 -0.01458556074395 0.24760560577797602 -0.27354177076012587 -0.10955654716712641 0.1692919587533116
-0.20866067260496404 -0.32726240467104145
