models/FINAL/rnn/rnn___1/5/non_strategic/model.pt (torch, 9103 bytes, 4 tensors)

W_hh f8 [10, 10]
00000000: dd84 f9ba 16ca cdbf ee5b 0039 7b6c c0bf
00000010: 3d7a 8728 aebd b43f 0620 5e71 a627 cebf
00000020: 6063 46dd 862e b2bf 18b0 60c9 98d5 bebf
00000030: 3a03 3f49 0c8f cb3f 9ab0 d70c 7a45 c03f
00000040: 7945 96bb d0ab 703f 1326 1116 3a41 c93f
00000050: 6f21 6285 e61e 97bf 7ffa 0018 f920 cc3f
00000060: 3c21 0418 9292 a83f a8bd c5bd 4c31 b8bf
00000070: 4025 fce8 0512 803f e0c2 728f 0d8a 8dbf
00000080: 2adc b6f1 e64c b03f 3c5f b2d1 6c43 c53f
00000090: 1f94 2074 9ef5 c2bf 89df 1070 95c8 cdbf
000000a0: d37f 5c3b 2017 ce3f 93e4 6924 ac03 bdbf
000000b0: a0d0 05af a497 d23f 84db 5c66 c9b6 773f
000000c0: c600 cab2 a5db c73f 2274 c55a d508 8e3f
000000d0: c1ce 405e e80f aabf 2d49 6958 7e77 b7bf
000000e0: 44c2 34b3 50a1 bcbf d234 23cf 7489 cc3f
000000f0: 3225 d528 6b40 ccbf 8b98 bde2 034b a43f
00000100: 9a0a 81d7 d475 ca3f d5c0 b936 ff41 d23f
00000110: 7d6d a56f c8b5 b93f b54e cf1d 6734 d2bf
00000120: f680 0fcb d570 b43f 7965 e078 8228 bc3f
00000130: 1852 1aa1 6a72 c6bf b476 39ef 4691 b23f
00000140: a5be 93f1 dcb1 b23f 3cd0 c97c 8bd2 d13f
00000150: 20c4 c8c5 3908 ccbf e3fe 1247 45f5 af3f
00000160: b0ef 1ec1 94ec aabf 68fa ac87 fded a8bf
00000170: facb b1b3 d1f4 cfbf 99f4 cb01 7e11 d03f
00000180: 2dba eeca a217 d8bf 3916 793f 48cd d3bf
00000190: 46fa 2683 633f c0bf feb5 5f90 04b3 bf3f
000001a0: 316b 9486 65d5 cc3f 2dff c053 e9a7 d3bf
000001b0: 48c1 c302 9919 c8bf 05a3 5808 c226 c03f
000001c0: bfcf a73d 926e afbf 4af8 f837 5e48 c3bf
000001d0: 1107 8f64 d0ed d53f 81c4 9243 4c3a 8fbf
000001e0: b602 0ece 7578 bcbf c0b1 7aeb 29c2 d13f
000001f0: 6303 ece5 15e5 c33f a0ab 24eb c54e d6bf
00000200: 6af1 ca7a 4486 b6bf e5e7 67a1 3cf4 c33f
00000210: 8b0d b575 5a89 aa3f 6dfb c647 73e4 d0bf
00000220: 458f deef cc1a c83f cb21 772b 16b2 d0bf
00000230: 0968 4a41 28e7 d0bf 1c46 5343 8184 cbbf
00000240: bb8b f10c e108 8cbf 3516 cbbd dd89 c8bf
00000250: a92b 81fe 0b13 d13f 5011 d7c9 35e5 b23f
00000260: f5b5 41f9 50de c43f 88f8 76fe 2cc2 c43f
00000270: 467e 5fef 0bdc b1bf b2f5 d8f7 8fcf c13f
00000280: 45f3 3fb7 21e9 cb3f 117f 6032 6139 a83f
00000290: 2cec e84a 5c43 be3f 3158 912c 209f cb3f
000002a0: 6f1f 1233 bdd5 b13f e14c b44a bd0b a23f
000002b0: 3d67 ee9b 19de b2bf 4ba8 b310 7c44 b63f
000002c0: f0e7 8235 3396 8c3f f18e f42f 034d ce3f
000002d0: 51a0 520e d579 b93f 4a25 7854 151f cdbf
000002e0: 698f 6136 ae36 ccbf 3e60 4fd6 6e2c d43f
000002f0: b02a b5de 456c bdbf 2d28 a2a4 fe98 d03f
00000300: 3bb0 e79a 83b1 ca3f 5c08 371a c336 cd3f
00000310: 3394 635d 470e afbf 9008 f96f 5a01 94bf
-0.23272976045249197 -0.12831058772346132 0.08101929177744523 -0.23558502707987844 -0.07102244283886483 -0.12044672886321484 0.21530297829124284 0.1271202624042232
0.004070105898237635 0.19730306699266062 -0.02257881344897455 0.21975625679074892 0.04799324553647685 -0.09450225480190133 0.007846876309047901 -0.014423471393770482
0.06367343331554368 0.16612014998531233 -0.14812069578434348 -0.2326838299938994 0.23508074663641185 -0.11333728684430104 0.29050557224332785 0.005789553373509618
0.18639060239730137 0.014665285904522266 -0.050902616029274046 -0.09166707666853276 -0.11183647513531364 0.2229448329366393 -0.22071589940814246 0.039634820392891866
0.2067209293619115 0.2852781328611063 0.10043003774392463 -0.28444841300118223 0.0798467274430584 0.10999312831008536 -0.17536671511028668 0.07252925243798353
0.07302647493247123 0.2784756392131873 -0.21900102765496943 0.06241814129452707 -0.05258622033531368 -0.04869072228620014 -0.249658787480797 0.251067640070525
-0.3764426213992092 -0.30940443228277875 -0.12693447021406906 0.12382534527542785 0.2252623469474542 -0.30712350062457255 -0.18828117976182512 0.12618279845744254
-0.061390466715152574 -0.15064599736246215 0.342640016748292 -0.015247913181470675 -0.11121307640679387 0.2774758147814076 0.15542863585144592 -0.3485579296417942
-0.08798625944013386 0.15589101678034392 0.051829172962722124 -0.26394350060939226 0.18831788742419966 -0.26086954350151065 -0.2641087186435703 -0.21498122966163258
-0.013688810546403354 -0.19170734183551166 0.2667875275989738 0.07380996873604784 0.1630345551561018 0.16217577385936388 -0.06976389497821697 0.1391468010132662
0.21805211494202062 0.04731277217820041 0.11821533993581629 0.21579363037261737 0.06966764923902045 0.03524581467549993 -0.07370147759357067 0.0869824925208899
0.013958358831917622 0.23672523347442323 0.0995152626006768 -0.22751108765104738 -0.2204187169583023 0.31521197251050015 -0.11493336379241259 0.25933805539591753
0.20854229987833314 0.2282337072375097 -0.0606558133602352 -0.019536412319447083

W_xh f8 [10, 82]
00000000: 2928 4788 bb25 c43f 9920 9d5f 9405 c43f
00000010: f72f 4b0c 53cf cabf dc61 c22d b355 bbbf
00000020: 5e29 86d2 8c49 c53f 95c9 3226 9d8f 9fbf
00000030: f0ad aa05 39ea b83f 6c34 04d7 32e7 c1bf
00000040: ee24 416f 8db7 c53f f932 55e7 2a8c d73f
00000050: 3daf 5eb9 e869 c2bf 00d8 5d41 2a8a 8a3f
00000060: 6d95 036d e1d8 c43f f508 4a41 3122 7cbf
00000070: 34ca 07e3 fc85 bb3f 4926 ccd7 2ce8 c23f
00000080: 7b65 ff56 9da5 c03f 51be cf96 9307 c9bf
00000090: 0122 4c5d ef25 bcbf 8abd 8cfb 6afc 8ebf
000000a0: 6655 d1bd e9cd b83f ca7b 6a31 1746 c4bf
000000b0: 4e52 f944 e6f5 c63f eed0 89ca 91cb cfbf
000000c0: 17e8 673c 8b7e d03f b05b e950 d55c c53f
000000d0: 8626 a3f1 915a 933f e226 19a6 5f97 bf3f
000000e0: 30be db8b 511c 8f3f 8719 90bb 141b b23f
000000f0: f581 3670 8d6a b6bf d379 6ee1 cc05 a63f
00000100: 726b 54bf b5fd ad3f 875f 5f25 127d a43f
00000110: 2a1b d1cc 1261 6b3f 4a79 629b 471d d73f
00000120: 9040 ed96 e69b 9abf daef 0e6f f703 b9bf
00000130: 0181 2599 cd6a a9bf a60b a8a9 80bb b4bf
00000140: 0a81 e9ba 05e1 b83f 5c79 e515 2197 bf3f
00000150: 9c54 e327 ca47 8b3f c063 e218 4ee7 b63f
00000160: 94d1 ecaa ad4e ac3f 152e f41f ce44 cb3f
00000170: 90ee a0c6 6963 a4bf b6db 5005 5db4 d13f
00000180: b896 7987 70ef c1bf 5f6b 4649 f3d7 bcbf
00000190: fff4 3221 c1dc c93f c165 d17e b928 a7bf
000001a0: beb8 a216 e434 95bf 4417 0cff dd51 c93f
000001b0: a724 c9be 5c5f aebf bb79 024a b513 b9bf
000001c0: af51 9d94 5784 9a3f 9313 6bfa 3705 ca3f
000001d0: d9e5 76da c589 a6bf 4579 5719 8895 bb3f
000001e0: ca7a c30a 1ba6 afbf a5ec 1a64 d335 cebf
000001f0: 27e9 f2b9 e467 d43f 7a3a bb8d 3a9c c9bf
00000200: 23d0 d6bb a2eb dabf 02a8 1154 f071 dc3f
00000210: d736 67fd f629 d7bf ab63 8490 4fde d23f
00000220: 298d 66f0 2979 bfbf 2e9a aacb a512 ddbf
00000230: 1155 b010 58e8 a63f d8ab a92a 0622 b83f
00000240: 556f 61e0 1958 a8bf 1fd7 1153 2f61 c4bf
00000250: e867 d082 84b9 ce3f 567f 95ca da49 cb3f
00000260: e878 fea6 5d97 d03f b0ac f529 e2b0 d03f
00000270: 4b48 98f7 f1d8 d73f d87a bd6a 93ef d13f
00000280: e1ef fc0b 515f c0bf acc2 13da f64e b6bf
00000290: 67df f24f 5950 7c3f 96ca 7ede f2fd cabf
000002a0: 5fa4 1693 c401 cb3f e561 fe1a 8622 b63f
000002b0: cad8 47db 3d55 d2bf ebd4 a59f 892e 963f
000002c0: 0010 b851 720b a1bf 65ac b336 3f86 a8bf
000002d0: f11d 02e2 a0b7 cebf 77fd 6fc3 a384 d8bf
000002e0: 0bf1 8bcc 3009 c23f 643f 7661 0205 b93f
000002f0: ea09 05e9 2757 c7bf 6072 106b 7610 b23f
00000300: dd3a 4917 3955 cdbf 16a7 91a7 188c c1bf
00000310: 8a9c 2ea6 e948 d0bf 52c9 35a4 1f0f bc3f
00000320: 30c4 3e86 5aaf 9d3f 7a16 3653 f1c2 c03f
00000330: c894 f8d1 2f6e c0bf 5fe1 e2f1 0ad6 9d3f
00000340: 8fbe 0e43 fb04 c0bf ba9d e657 a949 ba3f
00000350: 0a2d ff97 0850 bcbf d03a 9788 acbd cdbf
00000360: 60ab 6f69 f96d 9a3f 1e2e fec1 148a cbbf
00000370: 00b9 8cc4 ec58 c13f d484 3dfa 4b58 c03f
00000380: ca7f c4af e56e b2bf 2717 0ab8 19e7 b53f
00000390: c61c 77d2 9d94 953f 41ce 53f3 5b26 babf
000003a0: e713 de81 5036 b03f 4244 4bf7 a760 d1bf
000003b0: 5d51 e832 c0ab 9b3f 2142 ad46 b617 b2bf
000003c0: 6747 0fcd 3a22 bd3f ff0e 52f8 cfe6 c03f
000003d0: a2ae 615d dcca 76bf 857e 4bb8 7802 c9bf
000003e0: 396c 9497 0122 a13f 5135 0dcf fa76 c9bf
000003f0: 92c9 0189 dbd3 a0bf 2e2e b6c7 b8f4 cabf
00000400: 0aac 1452 a521 c63f 1e3c 0a9e 7a52 d1bf
00000410: 51e5 d84c a04b c33f d234 e153 2b49 a23f
00000420: c1bc 2540 2f16 b3bf d7bc f740 a98e adbf
00000430: 5645 7f3e 948d c1bf 6e0a f84c 0d16 d6bf
00000440: d36c 7228 01a1 963f 687e cab3 b51a a93f
00000450: 7f1f 5243 d594 b63f 3670 5681 decc d6bf
00000460: a2f0 450e fe50 9d3f cc7c 0ed1 f367 cfbf
00000470: 2029 83d1 789c a33f 86a3 ba56 31f6 c63f
00000480: 8098 4cb7 78b2 ddbf ce77 24c5 b9a3 d63f
00000490: d993 2891 0504 d53f 6a8b e09b 6ab7 d7bf
000004a0: cc62 0146 e605 d13f 2421 9a43 21fa d3bf
000004b0: 3b89 6825 59b7 d23f 36e3 1c1b 93d8 e33f
000004c0: 4bb5 4fc2 0680 c1bf 5d38 d040 04df b5bf
000004d0: 1656 a290 e32a cdbf 7770 21ff eb40 b5bf
000004e0: 056d 7dcc 9210 d9bf c01a 3903 793d c8bf
000004f0: f2b1 2747 7ecf c6bf 70bc eef2 aaec d8bf
00000500: 6675 6d60 2caf e1bf ccaf 7910 90c8 c9bf
00000510: 6c53 98fb 5d6c ca3f 0982 e369 85bb 763f
00000520: 40d0 10f2 1096 433f 9011 5e56 ee30 c23f
00000530: 79ae ce30 b071 d3bf 6dab 3244 687f c6bf
00000540: 3aa4 b2f1 5911 ad3f 596a a9f0 0442 b73f
00000550: 8ff5 0fe7 0e1e 9d3f 28ce 40a0 6872 b13f
00000560: d41d 7950 797a cd3f bb88 9cc0 a9fc d53f
00000570: f934 2ae3 c681 bbbf 1652 3eb7 29fb b33f
00000580: 2dea 703c d57c b93f d5d8 ac04 20c6 c7bf
00000590: bdab f5e1 094b c93f 9514 088a 94cb 983f
000005a0: b386 18e5 a9c9 c73f 29b2 d34d 59ef c8bf
000005b0: ba59 2b35 51ed 88bf 35a6 e8c0 a44e ae3f
000005c0: dda9 05b1 0b34 c33f ddef e1ec 8e38 b3bf
000005d0: e9c3 33f0 7cfe 993f 3ba3 105b c7b9 cdbf
000005e0: caeb 1fb6 3c27 c33f d096 ddfc 91c2 cb3f
000005f0: 505e 4101 aede b5bf 5985 dab9 0d4f c43f
00000600: e0d1 3546 283c c1bf e26d 32c5 f692 b4bf
00000610: 31e9 abf5 7d37 a53f f491 104a 2d60 7cbf
00000620: 1648 1348 fdcf b13f 78bc 1410 6415 a13f
00000630: 5047 3e4c b8ff a3bf 5b9e 7f0e 3585 c83f
00000640: 9576 f681 ddd2 c0bf 3570 ff9b b429 9b3f
00000650: bb17 f754 f44a 933f 8704 1f9f 6a0d a33f
00000660: efa8 0044 f8db b33f 4487 dc73 850f c13f
00000670: 6070 efce 30b6 b43f adc7 5c73 b650 be3f
00000680: 2f4d 2b53 ca92 ba3f f00a 18b5 f273 cf3f
00000690: 8d69 e240 61aa 79bf f451 650d 546e bb3f
000006a0: dd15 86e4 ff39 cabf 2da8 a1f5 5f19 b7bf
000006b0: 4494 9fb3 4fe9 c43f 638b 8f54 f634 a03f
000006c0: 80e5 27a2 4a79 bf3f 8704 3c39 b638 cc3f
000006d0: 15b7 c551 e122 633f dff3 25e7 87b9 c7bf
000006e0: b4fd f388 2393 a0bf b250 6344 e94a cb3f
000006f0: e249 556d 4179 ab3f 597b ee04 fa2c ba3f
00000700: 4eb5 a354 015c c9bf f772 3e53 b0ff b8bf
00000710: c613 83bc d358 d73f b7d6 d7d8 5910 d1bf
00000720: 3564 ea5a af28 d4bf 711c 1632 8af7 e03f
00000730: 4a56 afb1 4c87 d6bf 6efb 566f 7f02 c13f
00000740: 10d1 1afb d61e cabf 6527 7f88 4f90 d8bf
00000750: 1fd2 1fb8 a508 c1bf 3caa 7a37 6bcd b53f
00000760: 791e a365 bb0b 9fbf 6108 c574 95dd b7bf
00000770: 41a9 8dae cf35 d03f ed8b e200 c791 c63f
00000780: 41c9 3015 eee0 c93f 4c8b 02d8 3c0f d13f
00000790: 838b 028d 2aba d23f 5d91 6358 78c2 d03f
000007a0: be3f 270c 2c64 d0bf 0b77 2b42 2989 a8bf
000007b0: 6a45 f397 89f2 a1bf 1926 42e2 33ef c2bf
000007c0: d21a 0421 5213 c33f 73dd 7bf1 69ea c53f
000007d0: aad0 3e96 2577 a13f daba 9da4 e372 a5bf
000007e0: e3d8 9222 29ad a5bf 9950 bca4 2ef5 b8bf
000007f0: 4374 7c2b 4f4b c6bf 0aa6 1df5 cbd4 d4bf
0.15740150598713967 0.15642027538911377 -0.20945203876760818 -0.1067764269558959 0.16630707053657096 -0.03082128091473065 0.09732395542476246 -0.13986812113617775
0.16966407711360126 0.36793015090078957 -0.14385708857786908 0.012958841438130975 0.16286866972874794 -0.006868545916065329 0.10751324217543684 0.14771042382226288
0.13005415676051854 -0.19554371703951515 -0.10995384242790608 -0.015129886438073798 0.0968919838354246 -0.1583889952935052 0.1793792568957024 -0.24839994802062598
0.2577236261273596 0.1668955464435533 0.018900184987421763 0.12340352826245352 0.015190732079161412 0.0707257230679713 -0.08756336202214483 0.04301300289010936
0.05857627831047453 0.040016715108946825 0.0033421866596968957 0.3611620919636108 -0.0259853391283405 -0.09771677457223352 -0.049642968125001026 -0.08098606245043402
0.0971835690811568 0.12339979919986405 0.01332052168110414 0.08946693522956561 0.05528776847350794 0.21303726730580821 -0.03982096242586153 0.2766335060036299
-0.1401196156977471 -0.112670140637801 0.20204939003989605 -0.04523257897444522 -0.020709575540131857 0.19781088784673717 -0.05932130650450889 -0.09795697266461094
0.025895470090590397 0.20328426101164307 -0.04401987354090026 0.10775042170232492 -0.06181416040793904 -0.23601763141582413 0.3188411537081656 -0.20008022232510198
-0.42063206046737117 0.4444542714105638 -0.3619363283768115 0.29481877434732934 -0.12294256323962273 -0.4542631615571818 0.04474139407845191 0.0942691663891958
-0.04754715789815004 -0.15921584659707208 0.24003654849440115 0.2131913651637613 0.25923863704691863 0.26079610917686136 0.37261628321823953 0.28024754928439455
-0.12790883145669255 -0.08714239906454208 0.006912564159556079 -0.2108748995211342 0.21099145109227188 0.08646429213548108 -0.2864527360355963 0.021661901826026158
-0.03329045531793895 -0.047899222781631313 -0.23997889552650478 -0.3830956848687132 0.1409054754984783 0.09773268584672007 -0.1823472869674128 0.07056369890092062
-0.22916329991354348 -0.13708789999082488 -0.25445023754804963 0.10960576781306955 0.0289892334400898 0.13094917834330372 -0.12836263420573446 0.02913682080608859
-0.12515202307030335 0.10268648525253968 -0.11059621535166655 -0.2323508898684481 0.02581014352828548 -0.21515140030202046 0.13552627179291932 0.1276946040989403
-0.07200465718460616 0.08555756323957252 0.02107473942831175 -0.10214781466111679 0.0633287732180886 -0.2715244212132043 0.027022364718577097 -0.0706743166495092
0.11380355364170001 0.13204383492494995 -0.005564556884660428 -0.19538792608999614 0.033462571862593334 -0.19894347295704987 -0.032866344904408554 -0.21059331656975772
0.17290178783272864 -0.2706591170653513 0.15074542763049206 0.035714487065527614 -0.07455725971316253 -0.05772904317915966 -0.13713315059298264 -0.34509594456191095
0.02209855851525051 0.04903190440859079 0.08820851224493075 -0.35625422125463346 0.028629274007003 -0.24535987575379747 0.03830316121600874 0.17938820586030263
-0.4640180387526769 0.35374302150910075 0.328370467907289 -0.3705698511350223 0.26598507725206555 -0.31214171983494254 0.29244068768652526 0.6201873330638594
-0.13671955573901537 -0.08543421347005294 -0.22787136614049136 -0.08302187899374923 -0.39163656205865066 -0.18937599809051697 -0.17820719217651476 -0.38944505428202714
-0.5526334651328113 -0.20143318943462274 0.20643210205949047 0.005549927851661093 0.0005977232687031167 0.1421182557788936 -0.3038139797815585 -0.17576316194512334
0.05677300525105307 0.090851124530141 0.02843497548382384 0.0681519881480247 0.2303001063284983 0.34354633149827024 -0.10744898839967111 0.07805119250981138
0.09956104970562114 -0.18573379734306764 0.19760249646364328 0.02421409695127304 0.18584178625410672 -0.1948043470396368 -0.012171396670436308 0.0591937528118475
0.1500258077970348 -0.07508176120057848 0.025384857331065467 -0.2322320170071864 0.1496349229126664 0.2168753132529475 -0.08542907267234878 0.1586625249374645
-0.13464835575326983 -0.08036749185924166 0.04143899558944709 -0.0069276589502220605 0.06957991609240852 0.033366324389469904 -0.03906036310867356 0.19156516273436605
-0.13143509717786075 0.026526281377172906 0.01884061592661344 0.037211734699220726 0.07757522258967574 0.13328617245957208 0.08090500881320528 0.11841907803025604
0.10380234270569554 0.24572595446087275 -0.0062660025561406376 0.10715222670598462 -0.20489500673663388 -0.09023093935834998 0.16337009688064275 0.03165406973109588
0.12294451197512579 0.22048070711756315 0.002335968091009453 -0.18534945284400714 -0.03237258002081536 0.2132236083913362 0.053659481617291296 0.10224878902816438
-0.1981202758101212 -0.0976515010101585 0.3647965756356907 -0.2666229837044329 -0.31498321417308556 0.5302172640084689 -0.35200803138772996 0.13288872658264544
-0.20406615506147618 -0.3838080246902023 -0.13307639589733442 0.08516569237205202 -0.03031819160312785 -0.09322485066243892 0.25328437849261226 0.17632377188883144
0.2021768191785416 0.2665550336334277 0.2926126839685638 0.2618695128606044 -0.25611401736113837 -0.047921456649175985 -0.03505353908407012 -0.14792488620541702
0.14902712452040717 0.17121624270633226 0.034112143126010366 -0.041892160267584536 -0.04233673617402347 -0.09749118348946907 -0.17417325614306564 -0.32548808037844934

W_hy f8 [10]
00000000: c6c1 c71f 89b0 d93f a94f f3f5 43ad c8bf
00000010: 3e02 5981 eb02 d53f 5675 cb47 5147 d2bf
00000020: ef81 cbce 1a46 debf b7c4 3f39 e1bd d13f
00000030: 3e3c 4806 7856 e0bf 5dc1 4537 3dbb d7bf
00000040: 314b e32b 1f49 ce3f e5da fb94 4db8 dd3f
0.4013998804430482 -0.19278764256762074 0.32830321914301297 -0.28560287486273717 -0.4730288524133632 0.27721434202892276 -0.5105552790354364 -0.3708031692285852
0.2366064991279813 0.4643739657325752

b f8 [10]
00000000: 4800 5af2 eeb3 acbf a377 1b6a 612f d2bf
00000010: ff27 d127 b7cf d03f 5b63 4710 b6e8 cb3f
00000020: 14c8 1c7d 9009 d13f feef e1af 7ef3 b13f
00000030: 98e4 5828 3f91 c4bf 38c7 333f 23c6 c73f
00000040: f1ef 6476 3666 b83f 460a d515 d465 c6bf
-0.056060282787257665 -0.28414187776604133 0.26267794502621195 0.21803928179613305 0.26620876520166914 0.07012168687828077 -0.16068257780151352 0.18573418222472937
0.09530964270101074 -0.17498255792641454
