models/FINAL/rnn/rnn___3/1/strategic/model.pt (torch, 9103 bytes, 4 tensors)

W_hh f8 [10, 10]
0	0xbfd306c2a8cabc96	-0.2972876213415899
1	0xbfc0d2ebfbef9d61	-0.13143682290613426
2	0x3f9a4e14ddb0835d	0.02568848231397013
3	0xbfd107d9e9869cbc	-0.2661042004132914
4	0xbfb77b0c2e203e1d	-0.09172130704995891
5	0xbfc791d64c17a803	-0.18413809504937725
6	0x3fca04a9b83260a3	0.20326730245574706
7	0x3fb81b61a1cf8338	0.09416780662969593
8	0xbfaa56ef78807dea	-0.05144451471300811
9	0x3fc124a9dbbc3e2f	0.13393138150466785
10	0x3f9e8614fe409c93	0.02980835725625448
11	0x3fca2a1ac1071fde	0.20440992760836613
12	0x3fb76efdb6e737ff	0.09153733935747253
13	0xbfb3bccd769b6e3e	-0.07709964891130824
14	0x3f8782de2a98973b	0.01148007934086658
15	0x3fa32b793aa51de4	0.037441051873027736
16	0x3fae061954172691	0.05864028121466192
17	0x3fc7d8946e08ee3d	0.18629699108883982
18	0xbfbab89a2f047fea	-0.10437930724992808
19	0xbfc70fd0205d3b45	-0.1801700742748499
20	0x3fc77273f100bfe6	0.1831803252002821
21	0xbfbc9d97139d72f5	-0.11177963475115489
22	0x3fcf97f6f4775349	0.2468250936205101
23	0xbf8ec3eaffdf7a4a	-0.015022121366141356
24	0x3fc62e0a50cf8ca9	0.17328003831707875
25	0xbfa2dc304405074a	-0.03683615522687818
26	0xbfac57e8280f6482	-0.055358176126625316
27	0xbfbd75651e46192c	-0.11507255543810818
28	0xbfc3dd3ff7777284	-0.15518951018647809
29	0x3fc60c25a69542f4	0.17224569925249222
30	0xbfc9164d1aa3e41c	-0.19599307823935497
31	0xbfb524c952738b3d	-0.0825925661370492
32	0x3fc89e8194bcb548	0.19233722460323066
33	0x3fcc1d01b242dd86	0.219635211984251
34	0x3f87f43cd287397f	0.011696314978419718
35	0xbfd0e6422a17b18b	-0.2640538607654654
36	0xbfa753e41ea02ce2	-0.0455619132408971
37	0x3f88d4bfdb82671d	0.012124537359614213
38	0xbfc7f79bb76d0cfe	-0.1872439046511331
39	0x3fb56073714e2774	0.08350297466509266
40	0x3fc2715572ab77cb	0.14408367251502194
41	0x3fd28fac69525e14	0.290019133427877
42	0xbfc421e4182ac522	-0.15728427104981174
43	0x3fb99effd09f376b	0.10008238642987315
44	0xbf98c17e44c89d89	-0.024175618122311646
45	0x3f95c86d0c7465a3	0.021272376904652678
46	0xbfcd6d00e5968ebc	-0.2298890229259224
47	0x3fd2939cbcc45274	0.29025953706994945
48	0xbfd420aff94a810a	-0.31449508042170804
49	0xbfcebc4616a2b48e	-0.24012065987827608
50	0xbfc54a6ed7c66e00	-0.16633401428121886
51	0x3fc3c2ced1e7f59d	0.15438256501503825
52	0x3fc920a7fd784d7b	0.19630908848248993
53	0xbfd3be4a977bd3fb	-0.3084894637425461
54	0xbfc6a28dd1824444	-0.1768357537262394
55	0x3fb65ce8943cda05	0.0873551713856174
56	0xbfa55245b90e7416	-0.04164331325521446
57	0xbfc386b208f597e3	-0.15254807889431196
58	0x3fd40ed47b16ce8d	0.313405151561917
59	0xbfab1297489ea2dc	-0.05287621270628559
60	0xbfa693094819a44e	-0.04409054761055896
61	0x3fd248bc5f040865	0.2856894424331869
62	0x3fcb47feeb837780	0.21313463687596013
63	0xbfd42f685c0abfe0	-0.3153935335967599
64	0xbfb04c817b7c4e83	-0.06366738571915147
65	0x3fcc6755af33c046	0.22190352492134674
66	0x3fb123e09cc06906	0.0669536955541937
67	0xbfcd6b49609dbbd0	-0.2298366281279116
68	0x3fcf7a3f646ca65c	0.24591820148025334
69	0xbfc90eb5a886cf15	-0.19576140145147095
70	0xbfc7650445f8364c	-0.1827702848099072
71	0xbfc818ae0979e1de	-0.18825316870403602
72	0x3fae352671c16967	0.05899925364129182
73	0xbfc21a643c3dc4b2	-0.14143040601223827
74	0x3fd3c2a6a83e2891	0.30875555448495456
75	0x3fc3b476015fac0d	0.15394473139835477
76	0x3fc93470a44d8d31	0.19691284201244622
77	0x3fcb511dd6c44729	0.213412980906065
78	0x3f693d7e788dde87	0.003081080449586274
79	0x3fcbfb2a2f6cc8d5	0.2186024409834945
80	0x3fc5e51bd2f0c4f9	0.17105434226827024
81	0x3facf2f583cf6a80	0.05654113039027653
82	0x3fb4631e1a20fe69	0.07963741434013517
83	0x3fc9aba976dd59d9	0.20055120757997605
84	0x3fb03a8624cea0bf	0.06339300535785507
85	0xbf86e5d6223b3db0	-0.011180565757426958
86	0xbfb222c67dd97753	-0.07084312984940526
87	0x3fb1c8d9ee3541e6	0.06947099748254679
88	0xbf98e22d80c673ce	-0.024300299629988413
89	0x3fc866077e27f9d2	0.19061368617981472
90	0x3fa6eb7cbbf7f9ca	0.044765375085251316
91	0xbfccdb3298a355c3	-0.22543938115147286
92	0xbfd1150d8061d9e2	-0.2669099572880481
93	0x3fd2b242ddb072b8	0.2921301999029242
94	0xbfc07d02c634ccf1	-0.12881502798118263
95	0x3fca3c7c6e56f607	0.20497088802032712
96	0x3fca0721877afbec	0.20334262004141068
97	0x3fc9e25064ab6f99	0.20221905627738293
98	0xbfbb64332d12c68e	-0.10699767923758882
99	0xbfb2d66fd1f79baa	-0.07358454586174781

W_xh f8 [10, 82]
0	0x3fa2705fdcc866ac	0.036013599110629485
1	0x3fad16370d9893f7	0.05681011239020244
2	0xbfd1db7364d5eea5	-0.27901921126588497
3	0x3fbbd488b2b46470	0.1087117611208599
4	0x3fd21de04f3a1aea	0.2830734990788374
5	0xbfa58baccfe16e2a	-0.042081261039779896
6	0xbfa387568abd95db	-0.03814192241297195
7	0x3fa3d12c29ccd5f4	0.03870523462539302
8	0x3fb6516fe3677148	0.08718013097626909
9	0x3fd8fadcabf70574	0.39031140130472086
10	0xbfb846154ebbdc2d	-0.09481938526356322
11	0x3fbea1f66d0f28f2	0.11965885317400529
12	0x3fc4bddf30133e6a	0.1620444283239409
13	0xbfd0a21141c885ec	-0.259891809693811
14	0x3f91e23cbb766916	0.0174645890634589
15	0xbfc60a9d5d0cd03f	-0.17219893496951674
16	0x3fb2e66da2c380f0	0.07382855628702933
17	0x3fc7e6c4dd32432c	0.1867300109920732
18	0x3fc4e3d32e65ccdb	0.16320266500006295
19	0x3fba41d1b9c8301d	0.1025668219155595
20	0x3fbaf3ada3b014c5	0.10528073545727341
21	0xbfc61cb62d4c5456	-0.1727512093717986
22	0x3fd9e442dd000d2d	0.40455695707369693
23	0xbfd35ae96fd772cd	-0.3024238197520333
24	0x3fda5145269f376e	0.4112103345076922
25	0x3fb11f9a18c1e05c	0.06688845734049792
26	0x3fa559f7034da350	0.041702002671462624
27	0x3fc52358c8a579cc	0.1651411990851116
28	0x3faf47aa1d9c1d80	0.06109363185356198
29	0x3fbacad492b288fc	0.10465744573096808
30	0xbfa89726c7c5be4e	-0.0480281943190418
31	0x3fd15f7ff7b3873a	0.2714538496930917
32	0x3fc34e982bb4e4f4	0.15083601125824198
33	0xbfc32173e21b9e8d	-0.14945839443611356
34	0x3fb607d2aedc5925	0.08605686921177787
35	0x3fd551abba44411f	0.33310979070758323
36	0xbfbd5a1c8953f82e	-0.11465624191984666
37	0x3f81bb3de8b0b818	0.008657916701931653
38	0xbfb3728e31c25077	-0.07596672739811249
39	0xbfa582add27029f9	-0.04201262658905942
40	0xbfa9f8cd0f6dcf22	-0.05072632611600471
41	0x3fc29223024fd808	0.145084739807942
42	0x3fbfb071d5ba54de	0.12378608196225424
43	0x3fbc5e6c866b0f2d	0.11081579477018684
44	0x3fc87c1e8a56d497	0.1912878203853878
45	0x3fb34f38eca55143	0.07542758729443215
46	0xbf6bb1eb60a93509	-0.0033807370394131103
47	0x3fd601c9f5c29a70	0.3438591861726428
48	0xbfd90e645922d458	-0.39150341705982816
49	0xbfd68a085277c7d0	-0.3521748357153429
50	0x3fd00fab0e7ea470	0.25095631042001454
51	0xbfd2908594cf387f	-0.290070910760626
52	0x3fbddae5d1f16323	0.11662136436042352
53	0x3f4e7885f67e2e63	0.0009298948398152703
54	0x3fc03e13eac37b64	0.12689446414057237
55	0xbfc4705c65dedeb7	-0.15967898344182682
56	0xbfc483b15747a37c	-0.16026894342146736
57	0x3fa95d7c743e8ac5	0.049541367712000496
58	0xbfd099cf194f2c4c	-0.2593877551232182
59	0x3f9d4088f13a8410	0.02856649372427361
60	0xbfbde13239c036ad	-0.11671747121746519
61	0xbfd3059e9114b194	-0.2972179810338045
62	0x3fba0674289f4420	0.10166097633124638
63	0xbfc125c9747265cd	-0.13396566568262216
64	0xbfacf73d47b00664	-0.056573786736419135
65	0x3f9c8795eb351d98	0.027860968094754662
66	0xbfc908d1aca574d8	-0.195581635761221
67	0x3fd3c0955290fbfe	0.3086293512641872
68	0x3fd155f9094894a8	0.27087236315339647
69	0x3fa0324a24c64ec7	0.03163367937955069
70	0x3fcab299cb7fb3ef	0.20857546268908275
71	0xbf9ad7a1832beb52	-0.02621319163425124
72	0x3fcb31a78c2e4992	0.21245283455625646
73	0x3f8bbfcca3aa3ebc	0.013549422020587946
74	0x3fd0681c656d5b7d	0.2563544264316347
75	0x3fce87e3c837afe5	0.2385220267891547
76	0x3fd13d0b801b6657	0.26935088644458943
77	0x3fccaece5dc265f3	0.22408465936750552
78	0x3fb7df36a73d0753	0.09324971754997806
79	0x3fd25c870bf7ffa5	0.2868974320299407
80	0xbf945aa33a7de08a	-0.01987700504784632
81	0x3fa3787197ae3157	0.03802828766410709
82	0xbfd3928aee07cddc	-0.30581925625958006
83	0xbfea69203d1fbb32	-0.8253327554537917
84	0x3fd257ded5a9368c	0.2866131865056125
85	0x3fa81c129069583d	0.047089176300389536
86	0xbfe819eedb74f2c6	-0.7531656538263511
87	0x3fc7262342b30c37	0.18085137135321513
88	0xbfce00d6f3082ecd	-0.23440062395854114
89	0xbf99797a6941b6d9	-0.02487746493755236
90	0xbfe84df43c6f823a	-0.7595158748991431
91	0xbfd5f9edcff8536f	-0.3433794527966744
92	0xbfb98432c1582f04	-0.09967343540500556
93	0x3fd483034a264a55	0.32049638978165734
94	0xbfe6606dccdcd509	-0.6992711068366201
95	0x3fcb3942f5d6a2b7	0.21268498424367063
96	0x3fd1a388c5b40ff5	0.27560633952111796
97	0xbfe29b1d99c41956	-0.5814350131266035
98	0x3fddd0e4f75b048b	0.4658749023038317
99	0x3fdcc96310e0f229	0.4497916855650908
100	0x3fbee7a7ffde1f99	0.1207222938229492
101	0x3fd88bcd2a58f426	0.38353280196662565
102	0xbfd8f69f44a34427	-0.39005262091547127
103	0xbfd3d71cea336003	-0.31000445243034863
104	0x3fbbc1961041648c	0.10842264077054348
105	0x3fa903683ee3c151	0.04885411994644307
106	0x3fd4b50aa9ca2a2e	0.32354990559602725
107	0xbfb0c074ffd69f1d	-0.06543666120580523
108	0xbfca4f24172eac82	-0.2055401910014077
109	0xbfcb437a29a31c28	-0.2129967406565083
110	0xbf74ccfd6541200a	-0.00507830603243776
111	0x3fd9933f7ee5fcbf	0.3996123065225667
112	0xbfc42ee20c6aa8db	-0.1576807556751366
113	0x3fe3888c16b30441	0.610418361982859
114	0x3fd5834bb5529fca	0.3361386557321536
115	0xbfd598c00ec18c07	-0.33744813385982336
116	0x3fb555d2c78e3864	0.083340810508362
117	0xbfda7584ada63c16	-0.41342274625725517
118	0xbfbcd1848a010d4c	-0.11257198685875841
119	0xbfd01446674e6fce	-0.2512374886371135
120	0xbfd6b01841f8f242	-0.3544979709875272
121	0xbfda1ebcb312dab2	-0.4081260441557034
122	0xbfc6414c130b342f	-0.173867711352075
123	0xbfe221e067c69575	-0.5666353251332753
124	0x3fde0a58bddd8f46	0.4693815092234569
125	0x3fb25419ae9c15ae	0.07159576905185958
126	0x3fc723eed1a1c181	0.18078408466272936
127	0xbfd1655e7f950b73	-0.27181208094787407
128	0x3fbd7e794e039ef6	0.11521108774797625
129	0x3fd474a429afa9bb	0.3196192175952565
130	0x3fd37b18c833203a	0.30438823271515825
131	0xbfc69c60251152eb	-0.1766472035402765
132	0xbfd1046f13fc32b0	-0.26589562369990016
133	0xbfbd8c1daa07eb82	-0.11541924859186106
134	0xbfe0ff24b7905931	-0.5311454377395305
135	0x3fc6dafc693e6c09	0.17855792178019694
136	0xbfdea26ee0f61624	-0.4786641308677153
137	0xbfc48719a5fdf44a	-0.16037293057516627
138	0x3fc8e4ebf6a1150e	0.194486136841228
139	0xbfa5cfe6bc16074f	-0.04260178609821585
140	0xbf90cabebd0dfe36	-0.016398411072712636
141	0xbfe8352ad4961eff	-0.7564901496961908
142	0xbfa6a1e7e8651ba1	-0.04420399391033603
143	0xbf73f256e6b30e5c	-0.004869784791654643
144	0x3fc302a5992dc9d2	0.14851827601849138
145	0x3fcc028e4c7ec844	0.21882799849623968
146	0xbfd5885e7753594f	-0.3364483037270433
147	0x3fc8e2e986e5d7a4	0.19442481123740862
148	0xbfd5e65e9f151c5c	-0.3421856454410255
149	0xbf8cdc027d96e930	-0.014091510255515333
150	0x3fdff482be6be84e	0.49929874988413736
151	0x3fae5ec76c706825	0.05931685637206411
152	0x3fa9779133320418	0.04974035024589102
153	0xbfd293957b11669a	-0.2902578069530165
154	0x3fc647a50e7c37de	0.17406142432486055
155	0x3fd553870c763e3f	0.3332231160829657
156	0xbfb7e04b3c6ccb89	-0.0932662031671453
157	0x3fa9a632905ebdb8	0.05009611141519649
158	0x3fbd046084f0adfa	0.11334803815469022
159	0x3fa3f36a18baed13	0.038966479796238705
160	0x3fa6f9f3172f16d7	0.04487571390158756
161	0x3fd60f23f74fdbb8	0.3446741023212172
162	0xbfb8a68f0e417e87	-0.09629148576777356
163	0x3fd6d79e909650c2	0.35691036338654325
164	0x3fa35f47bda79a04	0.037836305524070496
165	0x3fc41364b6f1638b	0.1568418401027681
166	0xbfd7a5b5d0f6593e	-0.3694891491553739
167	0xbfb8f22733f257ba	-0.09744496362904345
168	0x3fabb45f6d2e4da4	0.054110509946578206
169	0x3fc1b136b8b8773e	0.13822063464697892
170	0x3faf603c8e0375d2	0.061281101546892494
171	0xbf8066964a28fd22	-0.008008169305979754
172	0x3fd166257fb3326e	0.2718595263548086
173	0x3fd2b0a760473d21	0.2920320930688423
174	0x3f94070cd7f6f280	0.019558144265590105
175	0x3fa8a3eaccc401f8	0.0481255888898921
176	0x3fce51605c849b7f	0.23685841100197177
177	0xbfd91fd7fc602a88	-0.392568584881396
178	0x3fb3ef20a83f1026	0.07786754710747398
179	0x3fbf55f0549f7b93	0.12240507188788134
180	0xbf8570353b25d0b4	-0.01046792589907173
181	0xbfac960f6a885bfa	-0.05583236861655645
182	0xbfc375bc8deff119	-0.15203053408175363
183	0x3fb70afe552c8b86	0.09001149730151611
184	0x3fb90c24aa0aa649	0.09784154082685705
185	0x3f7cb4ffb6293ca9	0.007008551476771854
186	0x3fb429c35482e569	0.07876225293411711
187	0xbfc88472b76d2bfe	-0.1915419955861068
188	0x3fb825b12acb66fe	0.0943251351813181
189	0x3fcb0d767cf9be62	0.21134835340807273
190	0xbfb3b7e03dd998cd	-0.07702447423943966
191	0x3fbccec09315964a	0.11252978888440981
192	0xbfc4e32985bfcf6f	-0.16318244009709867
193	0xbf90281f5d1eb75a	-0.015778055246918533
194	0x3f7cdeaf3c37f506	0.007048306000340126
195	0xbfab1f70a5dea7ee	-0.05297424340035649
196	0x3fa1377763c18df9	0.03362629978871818
197	0x3f7cb80ef989bcd5	0.007011469359539298
198	0xbfa90174d4080957	-0.04883923614763102
199	0x3fc03af358d4bef8	0.1267990287537868
200	0xbfc590a4420b7423	-0.16847661232796537
201	0x3f96e116d1c588df	0.0223430219206272
202	0x3fbc7d275f0212ca	0.11128469533475563
203	0x3fb64355b86043e6	0.08696494819038456
204	0xbfa3b48ca4d6a945	-0.03848685753048867
205	0x3fd808666b4a81e0	0.3755126998676399
206	0x3fa079e5f29c2dd3	0.0321800097136379
207	0x3f955d987cabb46e	0.020864851578995695
208	0x3fd74c45a15f4f36	0.36403027304662616
209	0x3fc41b2af4974937	0.15707909529607786
210	0xbfb077536bfbcfa6	-0.06432076822585361
211	0x3fa1676b83ec3f9a	0.03399215684305475
212	0xbfd9febd162f5558	-0.40617301146024465
213	0xbfc20a946bc81e0a	-0.14094786894587258
214	0x3fd48c8d5ff87fea	0.3210786282743344
215	0x3fa44acad9d4478d	0.03963312062309319
216	0x3fb19ae83e63f800	0.06876994631963385
217	0x3fa70797de4d7fdb	0.0449798067918434
218	0x3fb4b68aa91b49ef	0.0809103644235518
219	0xbfb980b35229d556	-0.09962006336157478
220	0x3f9d7aa04a8cbf64	0.028788094091566477
221	0x3fb90f81a264a6c6	0.09789285864521977
222	0x3fb8c6e51c28f3e8	0.0967848962545329
223	0x3fc86c95dfd24cd4	0.1908137648466438
224	0xbfd8882860460a9c	-0.3833104076549405
225	0xbfd4e3822841e519	-0.3263860123766605
226	0x3fd314d1e8219c3e	0.2981457487971432
227	0xbfe2044f9b96dc62	-0.5630262411931535
228	0xbfc1855139cdf8ad	-0.13688102076043177
229	0x3fc2d725e0c2b7d1	0.14719079470290677
230	0xbfc7cc6fde9f7997	-0.18592642183552918
231	0x3fda660460c4800f	0.41247662973364724
232	0xbfd004345b47ca7d	-0.2502566234026416
233	0xbfc6fd8096c61061	-0.17961127626415688
234	0xbfc6f4df742b8d9b	-0.17934792683000186
235	0xbf76e31439423896	-0.005587653158853586
236	0xbfc60190218e99e0	-0.17192269934203264
237	0xbf8770fa67382b94	-0.011445957446104583
238	0x3fe1c3f5230478b6	0.5551706012663746
239	0x3fdff32661b13452	0.49921569385771136
240	0x3fdbf733d3a8f422	0.4369630400649972
241	0x3fe1a896ceff3665	0.5518297236355464
242	0x3fd2f4e118358346	0.296196244851718
243	0x3fc1e4a906535eaa	0.13979065712805055
244	0xbf6b60c1009c467b	-0.003342034299642913
245	0xbfb1fc34b0610563	-0.07025460535171173
246	0x3fc54c1bc6a5e8cc	0.16638514709104013
247	0x3fd5f71a65b70564	0.3432069772062134
248	0xbf96822b3f4176c4	-0.021980930076429997
249	0xbfb27c1f1d1ac010	-0.07220644436415591
250	0x3fb6c702a651f110	0.0889741569571394
251	0x3fa253d804f1c836	0.03579592762334054
252	0x3fc967a3868c6376	0.1984753043150495
253	0xbf8fbab22cfd1e50	-0.015492813108394149
254	0x3fd752abdbe273ef	0.36442085717300093
255	0xbfd2686757a3c1f5	-0.2876222949844583

W_hy f8 [10]
0	0x3faa9f293056e534	0.05199555125313751
1	0xbfa154f1a1121769	-0.033851195251414286
2	0x3fc77e9f06ba6554	0.1835516722538083
3	0xbf9c06c89c8f59f1	-0.02736962752882194
4	0xbfad35b4cbaec1b4	-0.05705037103996649
5	0x3fb1ec765e48e06c	0.07001437951919492
6	0xbfd824d7637fd31e	-0.3772486182854652
7	0xbfb1839eb49241c5	-0.06841461094359776
8	0x3faca710538c32f1	0.055962095450103784
9	0x3fca8587fd7732ca	0.20720004917384066

b f8 [10]
0	0xbfc1d4deab1f2f1b	-0.13930877070958378
1	0x3fbb80c683cde788	0.10743370740774882
2	0x3fc97181b737a016	0.19877644964367452
3	0xbfb4956d41e00d93	-0.0804050718143599
4	0x3fd110bd4a9c8448	0.26664669309872524
5	0xbfc6f5b19cebaa54	-0.17937297975670907
6	0xbfc51a651d972c19	-0.1648680109486527
7	0x3fc87d741349b5ba	0.19132853452485482
8	0xbfb505519308e6e6	-0.0821124061557402
9	0xbfcbb1056002367e	-0.2163397520820815
