models/FINAL/rnn/rnn___8/13/non_strategic/model.pt (torch, 9103 bytes, 4 tensors)

W_hh f8 [10, 10]
0	0xbfce6b8dad4238f9	-0.23765727004906248
1	0xbfbda7acaf838ed8	-0.1158397606373528
2	0x3fb3ac73d0fcd7d2	0.07685016491163246
3	0xbfce5915419e5aed	-0.23709359840423563
4	0xbfb1dd463c7bd541	-0.06978262879041087
5	0xbfbfd5f8cd8eac42	-0.12435870188225898
6	0x3fcacd1645357c4e	0.20938375834791362
7	0x3fbfbbb9ecc6cf87	0.12395822554282009
8	0xbf6173c53b4eed72	-0.002130398958312512
9	0x3fc90698c45f021d	0.19551381672319304
10	0xbf934b6fe9871d0e	-0.018842457416920637
11	0x3fc966469680ba24	0.1984337077023649
12	0x3fa980bd3a8c89a8	0.049810326954929096
13	0xbfb8e2b8639fb7ed	-0.09720947677826049
14	0x3f4d5d725be819e6	0.0008961494821171894
15	0xbf88c84849f95915	-0.012100758321292685
16	0x3fadbb23a6384953	0.058068384209166844
17	0x3fc4ec8156438c36	0.1634675666055913
18	0xbfc27961f71779bf	-0.1443293053152512
19	0xbfcd90390269ef8b	-0.2309638273035229
20	0x3fce0ca823813448	0.2347612546313107
21	0xbfb9ae7ba1cf512c	-0.10031864834246979
22	0x3fd2921b34528754	0.290167618843147
23	0x3f7d7e51fb262b70	0.00720054649208178
24	0x3fc86ccaaeaeaef8	0.19082006005680063
25	0x3f8e61aee543c74b	0.014834753390889374
26	0xbfab6789e0b34878	-0.05352431171344646
27	0xbfb758c12acb7719	-0.09119803709787923
28	0xbfbd147cce9205a6	-0.11359386485312103
29	0x3fccdce8071535a6	0.22549152704088476
30	0xbfc3aa81602b2216	-0.15364091106154437
31	0x3fa31d19927fbbcf	0.03733138955418946
32	0x3fd1023df097eca5	0.2657618379159408
33	0x3fd43bd73212756d	0.3161523808465379
34	0x3fbceecfac11d915	0.11301897002144685
35	0xbfcb3bd3b9c7f0df	-0.21276327678049875
36	0x3fbc6684b934b3ef	0.1109393074190874
37	0x3fc19bd024450295	0.13756753703093652
38	0xbfbc782a7da36309	-0.1112085873350105
39	0x3fc0a3297ee9c97f	0.12997931191382503
40	0x3fb3bd6c9f84103b	0.07710913557463155
41	0x3fd131e1801a50b5	0.26866948614157177
42	0xbfcb8ec1f5d31c26	-0.21529411795765546
43	0x3fb08ee1b18c0cba	0.06468020043034786
44	0xbfaac6ac810a7d46	-0.0522970111389847
45	0xbfa73e57e06cf426	-0.04539751638956373
46	0xbfceec4cf03de5ca	-0.24158632021480592
47	0x3fd0526327848f3f	0.2550285230556603
48	0xbfd7b89472f1622a	-0.3706408617486284
49	0xbfd3c32d39bc4760	-0.30878763807515064
50	0xbfc03b14b64951d1	-0.12680300617888787
51	0x3fc2f40ebe781b37	0.1480730466866704
52	0x3fccfbccf89f8d93	0.22643434657866787
53	0xbfd339f39b784b55	-0.30041208441359873
54	0xbfc6867eeb8318db	-0.17597948550810014
55	0x3fc03d38c4fda467	0.12686833971682462
56	0xbfadd1b24d332f35	-0.05824048225767201
57	0xbfc2a248c074fc5e	-0.14557752034486077
58	0x3fd5e078687823b2	0.34182558252410467
59	0xbf87f563a50dc143	-0.011698511576213938
60	0xbfbc63822e7e1220	-0.11089337954587863
61	0x3fd0ee6674925e94	0.26455079444847596
62	0x3fc3ea79f1cbf93f	0.15559315020068173
63	0xbfd66b00888d012c	-0.3502808888915918
64	0xbfb7850c6054cb2c	-0.09187390662991096
65	0x3fc3ed18eef15276	0.15567313830492296
66	0x3facac0f6d93d013	0.05600021565069837
67	0xbfd0e7b7d8102f31	-0.26414295291828
68	0x3fc85a79a8c2a674	0.19026108494044858
69	0xbfd0e6b8fb75bc01	-0.26408218914633613
70	0xbfd0c3b5c7c224f8	-0.261945195271053
71	0xbfcc98e00a385c8b	-0.2234153795149932
72	0xbf87924245908f05	-0.011509435413308742
73	0xbfc85ee6bc8a912a	-0.19039615827672068
74	0x3fd115e36c105192	0.26696095994091096
75	0x3fb345c27f90248c	0.07528319944698775
76	0x3fc5fa339c207d54	0.17169804690727608
77	0x3fc525e9335a4e5f	0.1652194500680819
78	0xbfb0c9d8cbb91d3d	-0.06557993863781504
79	0x3fc1a30430a01d1d	0.13778736471452016
80	0x3fcbc7fdbcfb1ae8	0.21704074599821088
81	0x3fafed2af4deee79	0.06235632170816258
82	0x3fbe116f5399606b	0.11745353499407123
83	0x3fcbd124a4472e46	0.217320041860477
84	0x3fb33eeb5737744d	0.0751788223200986
85	0x3fa1f3d7d4998184	0.03506350012026174
86	0xbfb3150f891a25c4	-0.07454011056156334
87	0x3fb6863769cda5c2	0.08798548062409053
88	0x3f882447e98479e7	0.011787950338256926
89	0x3fce81587b2cc88b	0.23832231535340428
90	0x3fb92418dc72f991	0.09820704824503525
91	0xbfcb255c099dd994	-0.21207762212334258
92	0xbfcc4fecf40d15e9	-0.22118913570936563
93	0x3fd449d61ad0035f	0.3170066129533122
94	0xbfbc1ced6c169abb	-0.10981639756082988
95	0x3fd09037f1481cea	0.25880240023293644
96	0x3fca9b9815b25389	0.20787335452464742
97	0x3fcd5045f2c4b615	0.22901224473882623
98	0xbfb0229a119982f3	-0.06302798204115927
99	0xbf92ae98c507f9df	-0.01824415876944296

W_xh f8 [10, 82]
0	0x3fc7560ebe99f254	0.18231376940447552
1	0x3fbc3d57a2ded7b9	0.11031100965814646
2	0xbfcd268244314d4e	-0.2277376969310389
3	0x3fb70bb19e5cd66a	0.0900221835734897
4	0x3fc774944398fcac	0.1832452135149415
5	0xbf84fe2015c87699	-0.010250330605283952
6	0x3fbded2efeeca22e	0.11690038417567258
7	0xbfc21a770cb92d0c	-0.1414326488614751
8	0x3fc3426aacc62f91	0.15046437679518168
9	0x3fd1e61aabedf317	0.2796694449423724
10	0xbfc6c4146779d0a2	-0.17785887768298375
11	0x3fa11f6c9d17f6ce	0.03344287316938975
12	0x3fc730117cb9b6cc	0.18115442838773388
13	0xbfbd1899fffb5085	-0.113656640048534
14	0x3fa8406fd510a5f0	0.047366614111819305
15	0x3fc25cf1445312e7	0.1434613784423597
16	0x3faeb30cc61ca4a3	0.0599597923122215
17	0x3fb39803d3698d8d	0.07653831397469997
18	0xbfbb07c1cf6190f5	-0.10558711350455836
19	0x3fc2e81378e7eed3	0.14770739940273944
20	0x3fc5019b78d257de	0.16411155127997196
21	0xbfc07c26195cd351	-0.12878872145088363
22	0x3fcfb37b0d19145e	0.24766481532620593
23	0xbfd0dca2f57e7071	-0.26346658681882845
24	0x3fd1dd0129f68601	0.27911404703090176
25	0x3fc2feeaafd4ec08	0.14840444169553302
26	0x3fa7727f378517d2	0.04579541733487215
27	0x3fb9ae4e2c702dab	0.10031593880574145
28	0xbfa4313fa6b459ce	-0.039438237285299146
29	0x3fba73d99a914b94	0.10333023093816812
30	0xbfa91902114a6b9f	-0.049018921480828974
31	0x3fa6e147152770c9	0.04468748219707803
32	0x3fbe16e4eed33ad2	0.11753683882418933
33	0xbf9e54652db2f9a7	-0.02961881724763207
34	0x3f7a7ff73db7502f	0.006469693932974293
35	0x3fd3a4d435f0fb43	0.30693536060055154
36	0xbfbafa3cbe4598e3	-0.10538081784543211
37	0xbfb8731039eb1548	-0.09550572790165746
38	0xbfa6c4c9b03ce146	-0.044470122111706575
39	0xbfa27c93c70cd160	-0.03610669903574393
40	0xbfa6f6895f65f6a3	-0.044849675078677785
41	0x3fb0c200638e252e	0.06546022825763906
42	0x3fa6ce1b438b1186	0.04454121779920954
43	0x3fafb07d9fcaad92	0.06189339233000192
44	0x3fc51d5f46e57774	0.16495886766181977
45	0x3fc385b1fbf33638	0.15251755525825827
46	0xbf9220562f69347f	-0.017701479572043596
47	0x3fcfbfbf2cdde6b1	0.24803914728891166
48	0xbfcf49d411367178	-0.24444056358778332
49	0xbfc7297bbe83afd8	-0.1809534721609214
50	0x3fd3031a719ab662	0.2970644101540981
51	0xbfa9a0ee9f75773f	-0.050055939641181706
52	0x3fa938c3693f21b6	0.04926119479893336
53	0x3fc4beae71db2095	0.1620691352784475
54	0x3f98952a2b8a5d66	0.024006518275738208
55	0xbfc7d8323dc7f786	-0.18628528610855372
56	0x3f9c2c3e6a3149a9	0.02751252673290031
57	0x3fc5c554c75b106a	0.1700845693031881
58	0xbfa8fbfdbf9b53f6	-0.04879754032086929
59	0x3fc30aab302fb12f	0.14876308300825644
60	0xbfc541a72a7b7828	-0.1660660703118435
61	0xbfd268e07ae4da18	-0.2876511764656313
62	0x3fc260b563e53974	0.14357631089883294
63	0xbfc747b7a4b69c41	-0.18187614004748023
64	0xbfd1b416592904f3	-0.27661665637067684
65	0x3fc13ce6f0dc8e47	0.13467108498399424
66	0xbfd3fdc516fef030	-0.31236388440788954
67	0x3fd20984035364fb	0.2818307907560464
68	0xbfb45af3a07c44a7	-0.07951281231022965
69	0xbfca11970a8a16d4	-0.20366180433864278
70	0xbfb0fff26c49183e	-0.0664054407471619
71	0xbfb37775e858c185	-0.0760415737393086
72	0xbfc460d5a276b054	-0.1592051547316965
73	0xbf9a747daf89f75e	-0.02583500274567229
74	0x3fcc76f203652c59	0.2223799244478382
75	0x3fc994d5a9463236	0.1998545719656179
76	0x3fd104d0c555c898	0.26591891547207913
77	0x3fc6f00af2fe4888	0.1792005239954657
78	0x3fc823076bf85542	0.18856899997687476
79	0x3fcffdeee6f215ee	0.24993692661898542
80	0x3f952757e4aeea7f	0.020657895405501222
81	0x3f3345d57cd02032	0.0002940794191208545
82	0xbfa0675ecfcb9414	-0.03203865324557156
83	0xbfc6cb4f2382c82d	-0.17807950242928552
84	0x3fd05b8761f7631f	0.2555864769652078
85	0xbfbbc56b1a0f6fef	-0.10848111520994029
86	0xbfd456efc184fe7c	-0.3178061857069918
87	0xbf8f750374b71ff9	-0.015359904288644076
88	0xbfb023a03ec45bef	-0.06304360897443904
89	0xbfa7f384e7e0ed9a	-0.04677977877187374
90	0xbfd13f3781e35d49	-0.26948344883335956
91	0xbfd43d793dbe043c	-0.3162520506812745
92	0x3fc42ed3dd43c311	0.15767906478824803
93	0x3fb601fd581f165f	0.08596785928156113
94	0xbfcd0c6f8e75343d	-0.22694200950573587
95	0x3fcb8d61cd51b524	0.21525213742590055
96	0xbfc6be26b1d4d5ee	-0.1776779526059466
97	0xbfc0d0349de5b958	-0.13135392865974427
98	0xbfbfdebfc4745589	-0.12449263139963852
99	0xbfc2bf8ac064e6d5	-0.14647039789433927
100	0x3f983774635f6970	0.023649042668560438
101	0xbfa5e101e570d338	-0.04273229528226924
102	0xbfc4f152836acd0b	-0.1636145726857666
103	0x3f967f27b36548ac	0.021969433140221525
104	0xbfc79a16ded00e29	-0.1843899333908763
105	0x3fc124d0277c1a6b	0.13393594673125916
106	0xbfc7bed30bce4512	-0.18551099850132197
107	0xbfc97ffd6d9fde8d	-0.1992184434200123
108	0xbfc078b581f2b80b	-0.1286837467682179
109	0xbfc24b53621c8525	-0.14292375841709162
110	0x3fccaf003485ff22	0.22409060063000036
111	0x3fae9f8e311ab8df	0.0598110613767504
112	0xbfba533821ce7a90	-0.1028323252234975
113	0x3fb54acd06fa823d	0.08317262096762419
114	0xbfaaaa349bdbfbf4	-0.05207981493548877
115	0x3f9f0e627551984e	0.030328310404364615
116	0x3fae673ffb5427b8	0.059381484441544286
117	0xbfcbe9ceeed9753c	-0.21807276403971254
118	0x3fbecd0938541ff9	0.12031610131464267
119	0xbfb29da3aa5d79b6	-0.07271788510613572
120	0x3fbbeb774bab794e	0.1090616760006686
121	0x3fb91ebe591e4862	0.0981253593038516
122	0x3fc333e4135f8642	0.150021085223715
123	0xbfc35f43553d78e4	-0.15134469663730166
124	0x3f9de29bb275874c	0.029184754149702827
125	0xbfa5afdca4abddde	-0.042357344724162735
126	0xbfc6652323cfc421	-0.17496146439182872
127	0xbfc11ffb75a515d6	-0.13378852123621127
128	0x3fc1fcf743c4f9e1	0.1405324059396227
129	0xbfd1da6069d5eea4	-0.27895365081324486
130	0x3fd2a5e087d27f08	0.2913743330372971
131	0x3fb84e7cdd65ea84	0.09494762807109153
132	0xbfc7f8e86e4c5ed3	-0.18728356729183435
133	0xbfaa403d97208fc1	-0.05127136678518652
134	0xbfce0dc258e4f28d	-0.23479489651244415
135	0xbfd06f1329d46af4	-0.2567794712537499
136	0xbfc187125d4bab75	-0.13693456225822911
137	0x3fc47dbf4813151d	0.1600874998022527
138	0xbf91574d0cf65324	-0.016934589306021
139	0xbfcf294c07e44684	-0.2434477842839905
140	0x3fa164c40b766d93	0.03397190704273636
141	0xbfcf1adc3566b440	-0.24300720794181707
142	0x3fc86c27382e9db0	0.19080057376161852
143	0x3fd03d680ae5a93d	0.2537479502122045
144	0xbfc47449cebb666c	-0.15979883760774116
145	0x3fd5de483090c4a0	0.34169201605534205
146	0x3fc3143eb3a23b55	0.14905532618692044
147	0xbfa062f6248cc419	-0.03200501629033443
148	0x3fca022bf715d115	0.20319127621372304
149	0xbfd14e91713890c8	-0.27042041832670494
150	0x3fd0e4f114126fd0	0.26397349319608754
151	0x3fcae6d3493aa116	0.21016923022876516
152	0x3fb908c3fe07ad6f	0.09779000236419731
153	0x3fb79515ca4c38ae	0.09211860836896577
154	0xbf87e70787f8e2a5	-0.011671122395555964
155	0xbfc72187ad8a0af7	-0.1807107541427155
156	0xbfd63a15e379a714	-0.34729525770545533
157	0xbfc35ab2167f8d72	-0.15120531176135504
158	0xbfc36c13753f40f3	-0.1517357180114299
159	0xbfcd16ba0fb9b7b8	-0.2272560669693442
160	0xbfc7ccb23cd84bbd	-0.18593433352415714
161	0xbfca25be08a0782c	-0.20427680417282212
162	0x3f92ecbd137f9186	0.018481211009104402
163	0xbfbbe64ecafc83b0	-0.10898296790811801
164	0x3f8567ee1a3f94e6	0.010452137161289742
165	0x3fbb6007c261f944	0.10693405624076485
166	0xbfd36db0ba4aa089	-0.3035699671986625
167	0xbf76460ad7e93d6a	-0.0054378913469713495
168	0x3fb1d38e79155f50	0.0696343465436915
169	0x3fb736fb03b02d3d	0.09068268623393734
170	0x3fa44dcaecfa4918	0.039656011035861194
171	0x3fb0068132dad2a7	0.06259925357410144
172	0x3fc993c65a4c7b84	0.19982222947234274
173	0x3fd1308a303a7c9c	0.2685876341801732
174	0xbfc122d7ac39be36	-0.13387580785227876
175	0x3fb9654969500821	0.09920176335438714
176	0x3fb96cd8d1a553eb	0.09931712263399077
177	0xbfd057f60f2e4df5	-0.25536872370250246
178	0x3fc3745feaca2262	0.15198897327742872
179	0x3f9a2667c88643a8	0.025537129987757062
180	0x3fc43103d2a71564	0.1577458170487872
181	0x3fa2f8426571e1c1	0.03705031860676256
182	0xbf8b0c46225a8696	-0.013207004474057354
183	0x3fc8c766716dc9ef	0.19358521021383931
184	0x3fc9c1b512139be3	0.2012239778771053
185	0xbfa93b18668574ad	-0.049278986468132537
186	0x3fb74b6e1f352893	0.09099472295671011
187	0xbfcd06b7ca8c5431	-0.22676751508757456
188	0x3fc2b5061e2988d6	0.14614941094175177
189	0x3fc8ad24ee414b10	0.19278394349620287
190	0xbfb654fa091bc494	-0.08723414156317438
191	0x3fc2ab6c42144f29	0.1458564112332337
192	0xbfc8cf593bf33032	-0.19382777621501784
193	0xbfa8ec58ba68fc97	-0.04867818141473739
194	0x3fb0cb8c37c85559	0.06560589181784361
195	0xbf84857c387c195a	-0.010020227884081013
196	0x3fc134bc2f9661ce	0.1344218475685594
197	0x3f88115641329cfd	0.011751817574192186
198	0xbfa508a53d74124c	-0.041081584693561796
199	0x3fc367a7677bd8ff	0.15160076668662012
200	0xbfca73fb59b31a49	-0.2066644847856927
201	0x3f98a332101d9139	0.024060041650401962
202	0x3f9303f0e4178375	0.01856972114717644
203	0x3fb1b1ab7edc1f19	0.06911727759517951
204	0xbfa6a5b9b39ce904	-0.044233134436995086
205	0x3fb66badaa7a7001	0.08758054172579934
206	0x3fbecad4bf3eb819	0.12028245610301304
207	0x3fc3aba260188df8	0.1536753625124303
208	0x3fc86dd16bbd739b	0.19085138092750928
209	0x3fca00f8bc27d411	0.20315465152057802
210	0x3f846acd38fed22d	0.009969332982884794
211	0x3fb1ce86d8639040	0.06955759795124639
212	0xbfd13d2c05d7b1b0	-0.2693586403900339
213	0xbfc3f281ff82badc	-0.15583825088602665
214	0x3fccc97bd1170c3a	0.22489879331087242
215	0x3fa0aafa1f024ad4	0.03255445126082682
216	0x3fc5cbd93471275b	0.1702834611954199
217	0x3fc8a5ec0963123f	0.19256353815412017
218	0x3fab3c1930f2633b	0.05319288942809527
219	0xbfcfdd3b0e8fb337	-0.2489389248943554
220	0xbf9c251d53a35d03	-0.027485330800883122
221	0x3fca8ee5ced467ac	0.2074858913336447
222	0x3fabfee4d211afe8	0.054679060595702655
223	0x3fc194304d52d61f	0.1373348596149961
224	0xbfd10d5b780ae8c8	-0.266440264920345
225	0xbfc074f270c45bad	-0.1285689402218088
226	0x3fcbf252039bdda3	0.2183325307484952
227	0xbfce5fcc72c7d5fc	-0.23729854206582945
228	0xbfca014d324aeb6e	-0.20316472011276282
229	0x3fd1a90fe105ed0a	0.27594372725407423
230	0xbfd38d60115fe772	-0.30550386139622454
231	0x3fbdafc362697786	0.11596318390499336
232	0xbfc4213bf9bc997a	-0.15726422971892956
233	0xbfc71e24d4c7e73b	-0.18060741796198862
234	0xbfcbe0330cf301b0	-0.21777952320372895
235	0xbfa64fdbfb4a105e	-0.04357802813049781
236	0xbfb8c01191994327	-0.09668073467879577
237	0x3fa9a6921c2687ea	0.050098958908406946
238	0x3fcdb0e58cb3a4d6	0.23196095819665769
239	0x3fc4534b85733820	0.1587919618236251
240	0x3fca5cdf682e3ccf	0.2059592493719493
241	0x3fc97c81122c7f44	0.19911206614869503
242	0x3fc25d781252a350	0.1434774484125918
243	0x3fcc37dd0eaf61ea	0.2204548188881426
244	0xbfc022b18b3ca5ad	-0.12605876253773599
245	0x3fa05a88e14e0e09	0.03194072485259986
246	0x3f988509604de292	0.023944994452423325
247	0xbfaa64301c349ddc	-0.0515456232481559
248	0x3fc2e080b61605ac	0.14747628107947486
249	0xbfb1aab2146eab5c	-0.0690108585246611
250	0x3f9164c3156e4770	0.016985939200430733
251	0xbf7e5ccb59f5f9c5	-0.007412714330142516
252	0x3f9a0115d24921f7	0.025394764861887933
253	0xbfba5f92dd902120	-0.10302083882573188
254	0xbfa63ccc488f9ebc	-0.0434326017928561
255	0xbfc711c8379a476d	-0.18023016657803784

W_hy f8 [10]
0	0x3fd7b6065134264c	0.3704849045758223
1	0xbfc40041a18c08cb	-0.15625782383000905
2	0x3fd3c9e83369e5ee	0.30919842739930814
3	0xbfcd5e2b07d9478a	-0.2294362819980587
4	0xbfdeb2085bba3e83	-0.4796162505890395
5	0x3fd000d25c647288	0.25005015394871366
6	0xbfdf8daf358eda28	-0.4930227301623824
7	0xbfd774b4341932a7	-0.36649804198968144
8	0x3fcb487a52334164	0.21314934743578384
9	0x3fdd2e252ce287b4	0.4559414804772317

b f8 [10]
0	0xbfad0d1121099c33	-0.05674031761446265
1	0xbfd26dc1769b39c8	-0.28794895727778824
2	0x3fd0f61b28c9664a	0.2650211237247261
3	0x3fd041641372a407	0.2539911451263496
4	0x3fd11adbbe703b83	0.26726430509091176
5	0x3fb38cebdfc7defc	0.0763690396632874
6	0xbfc4e15c19d75a7f	-0.1631274343660216
7	0x3fc7cb406e303f18	0.18589024906440765
8	0x3fb910e7341798e6	0.09791417142659817
9	0xbfc60bd1009f90a6	-0.17223560839113822
