models/FINAL/vanilla_II/vanilla_quad2/distress/Quad/0.5/strategic/model.pt (torch, 1727 bytes, 2 tensors)

w f8 [82]
-0.5567002225898916 1.7406135425975573 -2.159508096114504 -0.9650225654843252 1.2903750931664035 0.6606623003747957 1.1284797038797305 -0.12935147943193093
1.3091782658456856 2.1755862390368965 -0.8432262996901461 1.1308904518223304 2.178288336801635 -2.0055611773666717 0.8273860071495932 -0.7441774648215197
-0.3357596512322138 1.427451274600929 0.1064397320771367 0.3609336272191556 1.1391144338977024 -0.5342378212669578 1.6066480022556324 -1.9307214302494549
1.8127268543165813 1.3085056523912164 0.4585865717989049 0.7727000353958844 -1.5492118650230065 0.0713611094096648 1.1668148213094276 0.31926164615389424
1.1379474368396942 0.8135346041374917 0.04680436444718336 -0.16155845492985904 -1.4809678270376914 -0.207130175640326 -0.5123697699180715 0.5557922411688682
-1.2785575387896189 1.3058352727993998 -0.250241008671557 0.19446903844797347 -0.5874559451446285 1.630439688311119 -1.2064126516300953 1.8079103978437494
-2.0996553389379726 -1.5959160088939983 0.08136004812915665 0.3017818657888612 1.428537223319122 0.5906504427221886 -0.0013101977976001933 -0.2966961452040095
0.7604738128171783 0.8702586325785208 1.0477322640451465 0.4711792586574205 -1.6459985778271249 -1.0835332704129164 2.1987581715272815 -1.9578648103031095
-0.36479239309682987 1.5684477653045368 0.16820715255361307 1.744170000619928 1.0726214945344688 -1.9521883515857477 -1.0319773639429177 -1.2662456931330186
-0.3366864522123022 0.1370588349120117 2.0829554212166137 1.9989343656490202 1.965381676947208 2.1853713825223497 2.0994329641347904 1.8520362078182226
0.7781338488009857 0.10481100989350496
00000000: 5862 36fc 7cd0 e1bf 3ee6 0696 8dd9 fb3f
00000010: 7912 422e ac46 01c0 be07 d500 77e1 eebf
00000020: 0090 8b5a 60a5 f43f 81ea b943 2524 e53f
00000030: b2cf e5bb 400e f23f d4b7 ecda 968e c0bf
00000040: 360f c7e8 64f2 f43f 3154 12c2 9967 0140
00000050: 107b 89b8 b5fb eabf 1bf8 1e96 2018 f23f
00000060: ee91 7e6f 226d 0140 3e56 97a8 630b 00c0
00000070: 4d04 3c38 f279 ea3f 0984 3a42 4dd0 e7bf
00000080: 57f5 560c 167d d5bf 4bb6 d025 d7d6 f63f
00000090: 842c 4460 a23f bb3f 1bb5 3b5b 8919 d73f
000000a0: fedf 7f0e d039 f23f 9217 54ea 7918 e1bf
000000b0: 62f2 1d89 d4b4 f93f 5cb9 8927 3ce4 febf
000000c0: 47ee bddf ed00 fd3f 366c 7a9f a3ef f43f
000000d0: 15b5 107e 7b59 dd3f 7496 b46c f5b9 e83f
000000e0: 6b95 6d61 92c9 f8bf f9eb 1ebf b844 b23f
000000f0: 7631 a004 46ab f23f 4547 4666 c86e d43f
00000100: 3ab2 1c5f 0835 f23f 27ea ddb8 7908 ea3f
00000110: fcaf 38dd bdf6 a73f d273 288c f2ad c4bf
00000120: 90e1 f851 0bb2 f7bf 6ce9 31d9 3d83 cabf
00000130: ab3a a849 5565 e0bf 4f1b 66cf 0cc9 e13f
00000140: 9a7d f2bf f874 f4bf c32f ea86 b3e4 f43f
00000150: 6531 17dd f203 d0bf 80fb 1b88 5ce4 c83f
00000160: 1795 0769 70cc e2bf d758 36ed 4716 fa3f
00000170: ddb5 435a 774d f3bf 6365 0d74 33ed fc3f
00000180: 13e2 2c19 18cc 00c0 14cd 9539 df88 f9bf
00000190: 386c ea19 03d4 b43f 81b2 05e3 6450 d33f
000001a0: 7163 f4d8 49db f63f d682 dbc1 9be6 e23f
000001b0: 8077 492c 5e77 55bf ff07 20d4 11fd d2bf
000001c0: 6174 702d cd55 e83f cf90 bfa1 28d9 eb3f
000001d0: 689b 10e8 82c3 f03f 662d 9f0c cd27 de3f
000001e0: ee7a d09a 0256 fabf 89d2 88fb 2656 f1bf
000001f0: f12d 3486 0e97 0140 8bdb 230d 6a53 ffbf
00000200: aa8c 8b31 c258 d7bf ef79 17af 5c18 f93f
00000210: 00e5 95dd cf87 c53f f23a 75cd 1ee8 fb3f
00000220: ea31 0028 7529 f13f 4416 5bda 293c ffbf
00000230: cf8d 45b2 fa82 f0bf 8e50 0bd8 8a42 f4bf
00000240: ca84 5055 458c d5bf 1298 c9d6 248b c13f
00000250: c835 2988 e4a9 0040 3e02 f599 a2fb ff3f
00000260: 9655 aa0e 3472 ff3f e461 ccfd a37b 0140
00000270: 7dd3 8882 a3cb 0040 de64 f9b7 f0a1 fd3f
00000280: d258 10f5 78e6 e83f a5da c0f3 e4d4 ba3f

b f8 [1]
-0.5224975798707696
00000000: 6017 39d8 4cb8 e0bf
