models/FINAL/rnn/rnn___2/10/strategic/model.pt (torch, 9103 bytes, 4 tensors)

W_hh f8 [10, 10]
000000 d0 54 fe 32 fc e2 e9 bf 50 1a b9 82 99 83 d9 3f
       -0.8089581485716284 0.39865720525668724
000010 f0 3f 57 4d ad 55 dd bf 43 9c ba 48 27 c4 e2 bf
       -0.4583543067246856 -0.58644451336739
000020 f4 86 7f dd 0b 63 d3 3f 12 6a c7 a5 1d 36 e1 bf
       0.3029203093593502 -0.5378559339399678
000030 7e 7a f9 b8 35 f8 e5 3f 72 c4 6c a9 f2 0d da 3f
       0.6865490544112871 0.40710131211660106
000040 0b 9a 34 ef e0 88 dd bf f9 09 9a 59 15 bf d9 bf
       -0.46147940978917806 -0.40228780508201073
000050 5e ce ec f7 71 76 c7 bf f7 a4 2b 1c ec b3 e0 3f
       -0.18330216031755503 0.5219631719784549
000060 9d 07 ce a6 1a c8 be 3f 38 6d 88 d5 9f 54 9e bf
       0.12024084637053396 -0.029619691284193922
000070 05 82 ca 03 b2 fb d3 3f e5 37 f8 4f b6 d1 b9 3f
       0.3122372662565172 0.10085620357878573
000080 af 02 c6 cc ce 1b d9 3f 86 31 f9 7f 4e 60 db 3f
       0.3923222541562081 0.4277530908336974
000090 0b e6 33 4b ea 80 b1 bf f8 0f 8d 0f ea be d1 bf
       -0.06837333999637722 -0.2772774841180303
0000a0 4d b2 a8 f9 04 8d e1 3f ce 4c de 2b 12 79 ed bf
       0.5484642864372035 -0.9210291725925346
0000b0 be df cf 24 e6 a0 da 3f 00 00 5d 13 ce dd 0e bf
       0.4160704955570472 -5.8873034886719466e-05
0000c0 e7 83 57 2a 77 35 db bf f8 1c 28 11 46 a2 cf 3f
       -0.4251382745260898 0.24713970029572585
0000d0 d9 d4 fb 2b 2e 6f eb bf 73 fb be e1 d2 fe e3 bf
       -0.8573218211228336 -0.6248564156629598
0000e0 91 b6 a8 c6 e7 f8 95 bf d3 4b b5 d2 ef 24 e2 3f
       -0.02145731115358857 0.5670088878053953
0000f0 1b 84 1f 09 6b fb de bf 2a d7 cb ec 89 98 d5 3f
       -0.4840953435032717 0.3374352276290319
000100 a3 a0 de 88 e3 3a ce bf b7 d9 51 86 a8 1e db bf
       -0.23617214377487014 -0.42374623410378426
000110 10 02 ca c0 56 ae d7 3f ff c1 70 40 c9 f0 e2 bf
       0.3700158007341381 -0.5918928392985093
000120 4e 1a 7b 08 bf d3 df 3f a1 47 85 b8 04 42 d7 3f
       0.4972989638157842 0.3634044458350392
000130 cb b9 db f8 db 80 e2 bf 49 b6 4d 56 b3 03 d9 bf
       -0.5782298908723588 -0.3908508627708654
000140 81 b3 a1 ed 8a 05 bf bf 30 ea 98 41 44 23 d5 3f
       -0.12117832471422042 0.33027750402439704
000150 f7 c0 8d 0a 20 8a cb bf 07 61 ef 4d ce a7 77 3f
       -0.2151527453929771 0.005775266529745921
000160 89 04 b6 4b 27 13 bc bf 4c a9 4e 4b df fd b6 bf
       -0.10966725920117616 -0.08981128300243774
000170 5b a2 84 bc 2e c3 c8 bf 4b dd 9a 26 d5 cc c9 3f
       -0.19345649914727656 0.20156349549299998
000180 9b 52 a4 3f 97 e8 d6 bf 39 83 1e e0 1c 79 db bf
       -0.35794621672656896 -0.4292671383537257
000190 c7 f4 64 e5 e1 d9 c3 bf 71 5e ce 89 1a 15 c9 3f
       -0.1550867433633469 0.19595653275313255
0001a0 95 e0 e1 04 ee eb 89 3f 20 e9 23 c9 51 1f d8 bf
       0.0126570315589876 -0.3769115890751369
0001b0 f3 07 ce f5 4e 7b c9 bf d8 f5 69 01 a6 3d c4 bf
       -0.19907557489574365 -0.15813136166609243
0001c0 a8 eb ba 28 c4 cb b4 bf 3b 07 f8 d8 02 60 cf bf
       -0.08123422617329246 -0.2451175269525779
0001d0 72 81 6b db 18 5a c0 3f 24 39 0f 1a 16 f8 c4 bf
       0.12774954522957277 -0.16382099411425444
0001e0 42 2c 84 50 0e c8 e1 bf ec 7d d1 94 db a6 ed 3f
       -0.5556708881935111 0.9266183764083826
0001f0 54 ad b0 e2 71 26 c0 bf d3 b0 76 3a 76 fe df bf
       -0.12617324417929388 -0.49990611752833763
000200 30 2d ea 54 d5 de d9 3f 77 39 a0 b4 a1 f4 ca bf
       0.4042256669278741 -0.210590565868596
000210 6d c5 2b 3c cf db e6 3f 81 9a a5 c5 0a aa c1 3f
       0.7143322158064344 0.13800177241065018
000220 7a b8 f0 36 f7 e6 ac bf d2 e5 13 05 41 8f e7 bf
       -0.0564496283117117 -0.736237058560784
000230 58 b2 12 e6 bd df da bf 85 86 58 d6 e7 80 d0 bf
       -0.4199061152274104 -0.2578677743168572
000240 d0 35 7c 6b f8 0b 92 3f 9d d9 c8 2f fc 62 c9 bf
       0.017623788414359798 -0.19833328564864142
000250 60 c1 ef 3f c1 60 c2 3f bc 66 f7 c6 cd 93 a4 3f
       0.14357772466565688 0.04019015363492204
000260 95 eb f4 fa e3 9a be 3f be 80 60 9e da 44 ad 3f
       0.11955094220040359 0.057165939171910804
000270 6a 83 25 a6 13 23 a3 bf 6a 2f 6f 9c ce d3 b3 3f
       -0.03737698939472163 0.077450669471714
000280 5a e4 95 89 8f cb d4 3f 73 74 af 11 7d bb e2 bf
       0.32492435871205816 -0.5853867860238452
000290 62 57 1f f8 5a 5d 7e bf ac 29 c7 0a bc 01 b1 3f
       -0.007413249348209168 0.0664327169717242
0002a0 98 4b bf 15 a3 4b d9 bf ac 5a 1b 6d 4c 37 83 bf
       -0.3952415192008458 -0.009382817344357385
0002b0 b1 b5 d0 83 e6 9f e6 bf fd 36 33 46 99 8d d6 bf
       -0.7070190977589644 -0.3523925004527511
0002c0 52 07 07 38 33 8b c0 bf 2c df 0a fc 0b 5e d3 3f
       -0.12924804912295912 0.30261516202471017
0002d0 8c 0c ed 68 32 db d2 3f d0 47 5f a5 00 90 e6 bf
       0.2946287178676321 -0.7050784330297066
0002e0 6f 05 6a d5 8e f3 c8 bf 24 65 c1 15 17 2b d2 3f
       -0.1949327985821969 0.2838800156074106
0002f0 eb 2d ee ec 02 cc dd bf 09 87 01 db 9e 89 d6 3f
       -0.4655768693707773 0.35214969050694883
000300 ef f7 3d b0 ec cc d1 bf 0f 10 a7 37 5d 0c b3 bf
       -0.27813260279788116 -0.07440741165834218
000310 18 e2 b1 7b 46 b8 aa bf 4d ab d5 6d b6 3c c5 3f
       -0.05218715915629363 0.16591530192394047

W_xh f8 [10, 82]
000000 b5 db 92 f7 26 b9 d3 3f 7b c9 12 1b fc 34 ce 3f
       0.3081757943831989 0.23599196741049497
000010 f1 90 fd 99 04 2a db bf 0c 1a 4c d1 6e d9 c0 bf
       -0.4244395736516387 -0.1316355249366129
000020 75 e1 c0 08 d7 de d8 3f 4a ee 13 27 74 d6 bd 3f
       0.3886010728342833 0.11655355409669102
000030 af 48 84 9a 79 4c c7 3f a7 78 c6 5c 28 23 d3 bf
       0.18202133221399694 -0.2990208536156253
000040 d1 5e 25 6a 42 24 c3 3f 14 ce 43 9f cc 88 e0 3f
       0.14954405005368313 0.5166991339341984
000050 89 3f ba 58 99 e2 e3 bf 75 e4 50 90 7d 49 ca 3f
       -0.6214110119781121 0.20536775156668666
000060 ad b3 4b da 7d 9c de 3f d6 f4 0b ab 41 ec be bf
       0.4783014900011107 -0.12079248834557474
000070 22 52 98 b3 2a 6a a8 3f 02 32 6a d6 26 96 c4 3f
       0.047684988425462885 0.16083226651643662
000080 63 39 70 ad 46 50 d8 3f d4 ba 2e 5d a6 ab c4 bf
       0.37989966332761166 -0.16148833799294116
000090 24 c5 d5 70 28 7c c8 bf 5a 62 f3 b9 74 49 c6 3f
       -0.19128900060199172 0.1741166980707643
0000a0 f7 98 83 01 32 1b bd 3f e8 7a b0 98 b0 a8 cb bf
       0.11369621788944416 -0.21608550506149204
0000b0 d0 66 e7 1a be 1a e3 3f cd 0a 46 35 0c ac e0 bf
       0.5970144772975008 -0.5210019150257154
0000c0 2c 8e d2 72 a0 94 d1 3f a2 8c de 07 c1 b9 df 3f
       0.2746964570344257 0.49571252602090443
0000d0 3e 24 9f 9a 8d 6e b5 3f 5a 90 93 c9 cd ef ef 3f
       0.08371815705244587 0.9980229317702751
0000e0 da 55 c9 c6 f6 ef c2 3f 42 54 b2 20 d9 f7 b0 3f
       0.14794811922426626 0.06628186271912376
0000f0 9a e0 d5 cb 95 2b a4 bf fa c5 29 84 0a ff b9 3f
       -0.039395028240450006 0.10154786802902285
000100 44 46 fc ff 41 9f c9 bf fe 5d 04 83 29 d5 c1 3f
       -0.20017266272820866 0.13931769273106903
000110 c7 e3 d6 ca 1a c4 cf 3f 5b 93 22 38 eb 2b e1 3f
       0.24817213920849054 0.5366111847293767
000120 2b 3e a5 bf ab 8f 9e bf 33 02 a2 ac 43 a3 c8 bf
       -0.02984493596278363 -0.19248243264520823
000130 b1 fe a2 2e f0 dc bd bf 88 77 f0 fc 51 69 e1 3f
       -0.11665249956694869 0.5441064777585192
000140 d3 8d e8 cc 3e 27 cd 3f 00 39 29 03 02 b7 b1 3f
       0.22776017194074302 0.06919872834371077
000150 d8 20 be 62 bc b9 bb 3f e1 63 30 5e 2b cc c3 3f
       0.10830285464010403 0.15466825579713286
000160 00 af 17 33 6f 3a b9 3f 40 10 99 a7 56 6c bb 3f
       0.098547887777098 0.1071218642401286
000170 4a c5 0d cc d6 59 b2 3f 29 14 76 c5 49 36 da 3f
       0.07168333513052008 0.4095634868938896
000180 74 19 00 52 c0 90 d1 bf 61 6d 9e 0e e3 35 e2 bf
       -0.27445991523600033 -0.5690779958271542
000190 97 e9 ef 16 97 c9 df 3f bb c3 05 04 c5 92 b3 bf
       0.4966790889735874 -0.07645827625471117
0001a0 7f fd f5 f6 10 ae d4 3f 48 76 16 a4 be 33 db 3f
       0.3231241618850262 0.42503324531739795
0001b0 36 54 b7 1e 5e 59 ae bf 78 06 c7 63 38 7b e3 bf
       -0.0592755711074137 -0.6087915371683286
0001c0 37 6e a8 7b 92 68 cf 3f 13 c6 fb f3 43 c5 d9 3f
       0.2453787902639861 0.4026651270533829
0001d0 c4 b3 eb 58 19 70 a6 3f c4 86 c5 d5 d1 16 7b bf
       0.04382399759729297 -0.006613559406419337
0001e0 1d a8 6b 03 48 38 cb bf ad a8 a5 64 c3 49 da bf
       -0.2126550690366579 -0.4107521517640958
0001f0 8f d6 60 50 4a 41 dc 3f 89 dd 1f 07 a9 0d d6 bf
       0.4414850029892045 -0.34458375640630173
000200 d8 25 d6 b6 74 2a e6 bf 87 c9 a9 ec 24 c2 cb bf
       -0.6926826067948992 -0.21686231189557878
000210 db 48 dc 99 a5 41 e4 bf 75 52 15 7a bc ba e1 3f
       -0.6330135350310927 0.5540449509085891
000220 05 a2 97 9e 84 5c db bf 93 6a 74 c4 24 1e e3 bf
       -0.42752185332804543 -0.5974296414381847
000230 b9 90 5f 05 58 38 b4 bf d6 d7 d0 0f ef 4c bc bf
       -0.07898473864730961 -0.11054891716125267
000240 73 b6 de 7e d8 44 d2 3f f7 e4 29 20 99 8f d2 3f
       0.2854520071949544 0.29001453534108584
000250 9e ed c2 41 2a 48 df 3f e4 83 a7 18 2d 5b e0 3f
       0.48877960607543425 0.5111299020319362
000260 a0 e9 f1 81 1b 74 e5 3f 62 04 ae bb 10 80 e2 3f
       0.6704232728946415 0.5781329789753153
000270 e1 76 5d 88 9c d4 e2 3f 33 4a a6 84 8d 71 d2 3f
       0.5884535468464628 0.2881807132154421
000280 0c 4e cf f9 9d 89 b0 bf 2e 15 89 89 70 50 c9 3f
       -0.06459987019416519 0.1977673217353781
000290 ee 6e 04 59 0c 7c d4 bf cb ea 05 d4 46 0c e6 bf
       -0.3200713033017867 -0.6889986172748989
0002a0 56 c0 c2 c2 cb 65 dd 3f 4e 3f 76 8c 2c ca a5 3f
       0.45933813113788824 0.042558090349415253
0002b0 b4 44 1f 44 e2 43 dc bf 78 4e 0c 86 2a 30 b3 3f
       -0.4416433015113157 0.07495370648057953
0002c0 58 88 eb 25 76 d7 d2 bf d5 9a 3f 1b 60 4f db bf
       -0.2944007273018818 -0.4267196909044462
0002d0 13 74 d6 8f dd 51 e7 bf 63 4d b8 44 ae 58 e4 bf
       -0.7287433442430732 -0.6358252851663732
0002e0 b5 86 fd 87 58 f0 c4 3f b7 7f 78 68 1f 6b be 3f
       0.16358477249291573 0.11882206249765558
0002f0 16 e8 f7 af 67 f3 dd bf ae 74 9a 94 5f 88 bc bf
       -0.4679812639657269 -0.11145589235316564
000300 9d ce ac d1 84 5e c7 bf a5 c6 89 5e 42 1e a8 bf
       -0.182571985607514 -0.04710585979490859
000310 b5 da 7c 16 fc 61 9a bf 8d 24 98 5e be 6d e3 3f
       -0.0257644070363436 0.607146439318187
000320 2b fd 6d 7b 4a 85 b7 bf 42 22 b2 2c ac 6a d2 3f
       -0.0918776084272294 0.2877607761843458
000330 f4 db 76 3d 70 33 97 bf 91 7b 64 e2 41 28 cd 3f
       -0.022657159568293353 0.22779105715104866
000340 65 b0 01 0f 07 49 d8 bf ee 67 8b 94 d0 d9 d7 3f
       -0.379457249312287 0.37266935831360015
000350 b5 3a e0 c3 d6 1d c3 bf 5b a3 33 66 23 14 df bf
       -0.14934811176541066 -0.4856041429580295
000360 d5 3b e9 29 b1 21 d0 3f 6e a2 2c 6e 85 93 ef bf
       0.25205639927747586 -0.9867579604952661
000370 45 0a d1 5b 2a fe d2 3f 3c c0 de da ba 66 ce 3f
       0.29676302877866007 0.23751006781594863
000380 26 a3 d1 61 ea 77 af bf ba 30 79 5e 16 cf 9b bf
       -0.061461758080275694 -0.027157163158606258
000390 1b c6 bd 16 0a 58 b5 3f 3d d8 60 35 df b7 e2 bf
       0.08337462477882022 -0.58494530129861
0003a0 70 d4 c5 c3 6c a2 bc 3f 27 0d 69 01 ce b0 e6 bf
       0.11185340671166144 -0.7090826060815844
0003b0 3c a8 b7 d5 4d 70 b4 bf 5e cb 40 fd d9 84 8f 3f
       -0.07983862369261002 0.015390112916156159
0003c0 7b 20 d8 73 85 55 c8 3f 37 ed 31 87 91 0b b8 bf
       0.1901099029203158 -0.09392652083072482
0003d0 f0 65 11 22 82 2e d8 bf f8 26 76 c2 23 06 d5 bf
       -0.377838643331045 -0.3284997366941833
0003e0 66 6e 32 1b fa 78 e0 3f 6c 59 ed 78 b7 82 ca bf
       0.5147676974479054 -0.20711415676732814
0003f0 5a 29 ed ba 9a f4 97 bf e8 21 30 9b 10 1d e0 bf
       -0.02339402929218557 -0.503547957517239
000400 c5 26 ba 24 54 c3 e0 3f eb 12 c4 e3 ff 1a d4 bf
       0.5238438336684444 -0.314147922923708
000410 ac ae de bf eb 95 a8 bf 47 a8 f4 27 07 f4 d2 3f
       -0.04801880566750802 0.2961442842666923
000420 51 2b 3b ad 00 25 d3 bf 7c 5b 03 32 23 f1 ca 3f
       -0.2991334621153117 0.21048393194243065
000430 cf f2 1c 19 0c 1d de bf 76 0d d7 65 68 cb e6 bf
       -0.4705229039425775 -0.7123300541938267
000440 9f 2f be e1 c3 6f f1 bf 2d 81 6d ad 94 87 9b bf
       -1.0897864168245872 -0.026884387097539864
000450 5d a7 2a 62 c1 53 c4 bf 99 63 c1 fd c2 a9 bb bf
       -0.1588060120896512 -0.10805910773468809
000460 a6 b4 56 1c b7 2f d7 3f 91 a5 1c bb ff 8e c8 3f
       0.362287309336191 0.1918639815933543
000470 f8 f8 fd 0b f8 9b 5a 3f 52 b0 7d b7 6d c2 d4 3f
       0.0016240999538861805 0.32436697882690624
000480 9d 8d 5b 9f 15 03 d4 bf e1 c8 e6 a2 5d de e1 3f
       -0.312688260672269 0.5583942586584066
000490 82 1e 2f 14 81 0d ee 3f 8c 52 70 cd 3c f1 e7 3f
       0.9391484636516483 0.7481979382015012
0004a0 db cd e2 36 ff eb e1 3f 65 d3 74 34 1f 3b e8 bf
       0.560058219145897 -0.7572170280969713
0004b0 98 07 41 30 68 f0 e8 3f 1d 46 4a c2 e0 98 cd bf
       0.7793465559445734 -0.2312279652292525
0004c0 9f 4e 04 07 19 6b e7 bf 48 a1 35 92 2b 53 e0 bf
       -0.7318234574363095 -0.5101526122717042
0004d0 4d 77 66 0d 2c cb d2 bf e4 eb 90 5e 61 9b d3 bf
       -0.29365063961619314 -0.306358663892466
0004e0 b3 77 11 aa e7 a9 ea bf db 14 80 93 54 11 e6 bf
       -0.8332403489728136 -0.6896155243745413
0004f0 90 4a cd 4a 5f 67 e6 bf cb d1 8d 58 fd 50 ec bf
       -0.7001186810469608 -0.8848864297456712
000500 e8 5e 11 c7 95 5d e1 bf f3 4f 26 e8 59 4e bb bf
       -0.5426739585918456 -0.10666429441181417
000510 59 70 fe b9 04 78 cb bf b4 5d 82 a3 04 06 d7 bf
       -0.21460017282231794 -0.3597423168916649
000520 93 f9 c0 f3 91 9c 81 bf 79 bf 8a 36 86 3f c9 3f
       -0.008599415065074811 0.19725110686476535
000530 88 fd 8d 7a d8 58 da bf 9d f1 a9 d9 55 24 9c bf
       -0.41167270630099795 -0.027482358369967142
000540 02 a0 d4 3b 7b 7d d1 3f 44 a3 43 5a 38 96 74 3f
       0.27328377573803675 0.005026073577234783
000550 c1 be 6f e9 d1 69 a5 bf 60 60 df 59 6c a2 a3 bf
       -0.04182296728674607 -0.03834856602742387
000560 0b de 0b 40 ee aa cc 3f c0 39 e8 c5 15 c3 d1 3f
       0.22396638991607207 0.2775320465742901
000570 88 f4 a4 a7 e5 fd c0 bf 57 73 dc c0 05 18 b6 3f
       -0.13274832425841887 0.08630405386470606
000580 9b c0 d9 12 77 41 cd 3f 0b ae 04 45 29 b4 d0 bf
       0.22856033726157396 -0.260996167565026
000590 2a 37 03 c2 ae 48 d1 3f 7a 7c 2b 0f 76 25 c6 3f
       0.270061196771041 0.1730182241508123
0005a0 f4 32 b1 75 1a 32 9d bf ae 39 1b 45 47 d1 c5 bf
       -0.028511441644059013 -0.17044916986783448
0005b0 ec 40 f0 ee c3 3c cc bf ad f2 5c bf 11 3d a4 3f
       -0.22060441176336754 0.039528421983481145
0005c0 d8 0f 25 88 95 8e d5 3f 13 10 37 37 07 8f b3 bf
       0.33682764335048665 -0.07640118692421564
0005d0 2a 9a 6a bd 08 d6 cd 3f af ee 6a fa ec d9 cc bf
       0.23309430359695799 -0.22540056445528964
0005e0 7a b9 4e 0e 47 1c d1 3f cb 66 af b0 69 20 c2 3f
       0.2673509254190304 0.14161416175084293
0005f0 af 7c 4f 44 dc 3e d0 bf f4 87 30 e6 14 12 db 3f
       -0.2538366953940096 0.4229786155648292
000600 c1 06 65 1f ef 8a aa bf 39 63 ef b2 28 09 95 bf
       -0.051841232855179616 -0.020542751237232457
000610 88 df 90 d4 c0 6a b5 3f 8e b8 4d 36 13 2b 92 bf
       0.08366017522427971 -0.017742443265369938
000620 c6 75 18 59 d4 4b 98 bf 18 d1 51 b7 dc 08 a5 bf
       -0.023726766527138364 -0.04108323800838515
000630 63 80 28 40 cf 6c 89 bf 90 5c 90 cf 23 48 d5 3f
       -0.012414569039776951 0.33252806920922584
000640 ef 6d 8b e6 c4 2c c5 bf 49 dc 96 66 59 e0 88 3f
       -0.1654287458139687 0.012146662181164685
000650 eb e0 d0 28 29 94 b5 3f 32 17 29 01 9a 22 c3 3f
       0.0842920040748855 0.14949345642724549
000660 50 20 b4 7e 41 d1 c6 3f ae 64 65 6f 02 03 d2 3f
       0.1782609814329157 0.2814336860515806
000670 7d 0c f2 bf b5 bf 74 3f a8 18 cb bd 4e 07 bb 3f
       0.005065641365152304 0.10558025487543665
000680 74 fa 00 9f ec bf c8 3f 21 e9 08 99 6c c4 cf 3f
       0.19335706485613324 0.24818189117815684
000690 50 37 4a d8 45 f4 b4 bf 18 2a dd 96 ed 3d c8 3f
       -0.08185230761065765 0.18938989511873738
0006a0 5a 7d 83 74 90 54 d0 bf 9c e6 e4 e2 9f c9 d2 bf
       -0.25516139391216586 -0.29355618627196534
0006b0 51 ef 15 9e 6c cc d2 3f ca cd 55 66 67 dd bb 3f
       0.2937270683103082 0.10884710548798818
0006c0 21 78 85 68 2f e0 d5 3f bb 9b 35 a3 e4 34 c3 3f
       0.34180817801632385 0.15005166978082038
0006d0 f8 78 3b d9 1e 83 cb 3f 3b 60 97 c7 1f 12 cd bf
       0.21493898016974078 -0.2271156048361734
0006e0 af 69 b1 97 8a 3b 8f 3f 2d e8 e4 30 70 cf c5 3f
       0.015250284914306215 0.17039301288042577
0006f0 60 17 5e 34 60 4f b8 3f 80 ee c7 56 9c c1 c6 3f
       0.09496117857460495 0.17778352963783917
000700 7e 4a 6b 45 1a d4 cd bf 75 51 e5 3d 3f 32 c8 bf
       -0.2330353583298183 -0.18903341791395759
000710 2c 2c 0f ec 10 8d cb 3f 7a 75 5c 42 16 c5 d9 bf
       0.21524249578792032 -0.40265423279364365
000720 a1 81 79 a8 55 3d dd bf 52 8a 39 f1 87 89 a7 3f
       -0.45686856701470374 0.045971153446562454
000730 b4 69 36 77 da 97 d0 bf 32 e3 82 20 df 72 d2 3f
       -0.2592683948693335 0.2882612054341279
000740 cb 4f 88 30 e4 53 c6 bf 71 1c 15 73 9b d3 c5 bf
       -0.1744351613020839 -0.17052024001370428
000750 00 68 12 3f 3a 7a b7 bf e8 6c 4b 85 54 91 6d bf
       -0.09170879402009291 -0.0036093378824780704
000760 51 47 dc f7 f5 39 c4 bf f6 7e df 5d af ae b1 bf
       -0.1580188236480873 -0.06907173196622893
000770 96 76 7e b7 a9 ab da 3f 8b 5f bf 3a fe f9 d6 3f
       0.41672747535071986 0.3590083669382628
000780 a6 50 ae 59 63 b7 d7 3f 79 27 12 8f 11 d0 de 3f
       0.3705681205549446 0.48144949886101746
000790 34 86 22 ed 3a cb d4 3f dc 01 e1 ab c4 09 d0 3f
       0.3249041858453865 0.2505962065224858
0007a0 81 ae 28 4b a6 32 b0 bf c3 c1 03 3a 4a 12 98 3f
       -0.06327285132345574 0.023507270613608144
0007b0 cf d6 bc 4f 9e c7 d5 3f 24 ec 9a a9 b0 ab da 3f
       0.34030874049072407 0.4167291313457915
0007c0 eb 2b ee c2 66 18 e3 bf 21 6e 44 eb 17 23 c1 bf
       -0.5967286879762218 -0.13388346660291098
0007d0 4b af b0 18 ef 49 e5 3f d2 2a 23 1f fa 90 cd 3f
       0.6652751428823448 0.2309868480718565
0007e0 cf 77 8d 28 17 96 d5 3f 97 70 21 ed fa 37 94 3f
       0.3372857948323799 0.019744797442726805
0007f0 5d 00 ce eb 76 0e e0 3f 48 4e 4c 08 22 d1 e1 3f
       0.5017656903801356 0.5567789232322378

W_hy f8 [10]
000000 40 d3 a7 40 a2 18 c5 bf 73 22 d1 81 69 27 b2 bf
       -0.16481426388750187 -0.07091388148649873
000010 5d 0e e2 7f d7 21 d0 3f 89 4f b3 8f 6d 17 cb bf
       0.25206553925111114 -0.21165246502516435
000020 e0 66 30 52 31 f4 a3 bf 9a c8 0a 9c 57 e5 a1 bf
       -0.038972417147489 -0.034952867315398
000030 4b dd 4c ba 51 a8 d4 bf e4 c6 d8 ee d3 b1 ab 3f
       -0.32277339166053726 0.05409109392748038
000040 a1 19 79 b5 19 5a c0 3f dd 56 02 f1 ba 89 c1 3f
       0.1277496467684616 0.13701569335960687

b f8 [10]
000000 9f a8 50 ff ec 80 c0 bf 6b eb 23 e9 20 0d c6 bf
       -0.12893450228267953 -0.17227565177730794
000010 bc 65 f4 27 4e d0 8b 3f e3 7e 0b 93 d5 44 c3 3f
       0.013580904573745715 0.15053815536429402
000020 02 06 86 2a b3 6b d0 3f 4c ae 52 79 a1 2a 83 bf
       0.25657347824753185 -0.009358655467017439
000030 a4 84 15 a5 02 ff b8 bf 7a 5a 27 5a 37 00 c2 3f
       -0.09764114885685388 0.1406315984920246
000040 bf 27 09 3f b5 d0 cc bf fa 44 a4 db b3 6d d5 bf
       -0.2251192624847231 -0.33482071351416176
