models/FINAL/rnn/rnn___1/11/non_strategic/model.pt (torch, 9103 bytes, 4 tensors)

W_hh f8 [10, 10]
0	0xbfcdcb4cf0112ef7	-0.23276674005534634
1	0xbfc06d4159b1c408	-0.12833420638665438
2	0x3fb4bec1f8b84348	0.08103573152790233
3	0xbfce2d9b735ba865	-0.23576682217327796
4	0xbfb22e7bd89ca452	-0.07102178610206636
5	0xbfbed8073dc7c3b8	-0.12048383005436747
6	0x3fcb8cdd02a68f6d	0.21523630742478464
7	0x3fc044ada7dd7a1b	0.12709589668789154
8	0x3f70c1f09ecf2d76	0.004091205523717325
9	0x3fc93d98da2a77af	0.1971922936690453
10	0xbf9728d58387436b	-0.022616706993918195
11	0x3fcc1f9687581187	0.219713989339777
12	0x3fa89103010f6897	0.047981351737420734
13	0xbfb82164fbe29637	-0.09425955915011107
14	0x3f802cc8f2a2f335	0.007897920517615379
15	0xbf8d91aaf5e34539	-0.014437995556735405
16	0x3fb042ee9615f010	0.06352130092813035
17	0x3fc540c24b900721	0.16603878678875453
18	0xbfc2f79020a749ff	-0.1481800231400285
19	0xbfcdc918d084c989	-0.23269949132516057
20	0x3fce1613174f07ec	0.23504866254921752
21	0xbfbd0043158d5d54	-0.11328524852921379
22	0x3fd29721c9b755cf	0.2904743642696674
23	0x3f772962badb8b58	0.005654702819557787
24	0x3fc7deba440fa554	0.18648460696503355
25	0x3f8dd69553282262	0.014569441414111487
26	0xbfaa10b2a3d106b5	-0.05090864419663658
27	0xbfb775c86eb840db	-0.09164097502821582
28	0xbfbca432ae8302ec	-0.11188046227017495
29	0x3fcc8635ac737045	0.2228457538648191
30	0xbfcc0a6dac66dbe0	-0.21906824987465168
31	0x3fa5086a81c1201d	0.041079834307822895
32	0x3fcaa0837719a507	0.20802348437727167
33	0x3fd2370231a100a5	0.2846074566514381
34	0x3fb9de9c1d8c3819	0.10105300637607718
35	0xbfd2113c65cac8b0	-0.2823019975722998
36	0x3fb4efde39fdd868	0.08178509631929531
37	0x3fbc8c5a31e5a922	0.11151660650435649
38	0xbfc62466494955f8	-0.17298582628670522
39	0x3fb35f74387d5eda	0.07567526225227131
40	0x3fb2b23023ab5680	0.07303143378097765
41	0x3fd1d29bff93ae08	0.2784795757167733
42	0xbfcc089431b0cfd6	-0.2190118067388755
43	0x3fb006bf661f8f81	0.06260296099895692
44	0xbfaae6ddfa12523a	-0.05254262616759715
45	0xbfa8f58c2d2c017e	-0.048748379243991544
46	0xbfcff69b95658e98	-0.2497133712268933
47	0x3fd0115fcbfcbb83	0.25106043739918266
48	0xbfd817e0065d3033	-0.3764572202824212
49	0xbfd3cd21339338fe	-0.30939512287740445
50	0xbfc041c8f8a8d3a8	-0.12700760022712854
51	0x3fbfb2c07e09869b	0.12382128789024664
52	0x3fccd322ae512109	0.2251933432728566
53	0xbfd3aa3c22677b1c	-0.30726531371867494
54	0xbfc818278367a57c	-0.18823713222745286
55	0x3fc0211e8585674d	0.12601071853242232
56	0xbfaf77f8360c3bf5	-0.06146217021716175
57	0xbfc34823e09d7f77	-0.15063904254474966
58	0x3fd5ec66827337d2	0.3425537370611639
59	0xbf8f9a66180003c4	-0.015431211097167614
60	0xbfbc77ae41ae6caa	-0.11120118239925839
61	0x3fd1c2d2fc59fc1b	0.2775161232347629
62	0x3fc3e4b4bac54dc6	0.1554170524565121
63	0xbfd64bad3637b36f	-0.34836893362699234
64	0xbfb680917cd7530a	-0.08789929674032862
65	0x3fc3f0f7d300fe72	0.1557912617008586
66	0x3faa836a2ecb1cb7	0.05178386517723637
67	0xbfd0e436549d2bb7	-0.26392896903115165
68	0x3fc81aa4615ba839	0.18831305269060453
69	0xbfd0b1819a36c2ea	-0.26083412227585134
70	0xbfd0e6dbc8241856	-0.26409048600215124
71	0xbfcb8315235f7e9d	-0.21493782260130426
72	0xbf8c03e130b0babf	-0.013679274843608423
73	0xbfc8834f0294e420	-0.19150722147040344
74	0x3fd114efd6fdd769	0.26690288539190604
75	0x3fb2de1e1cceb726	0.07370174601848287
76	0x3fc4db680d003688	0.16294575342947248
77	0x3fc4c282aa4b8c2f	0.1621859866637307
78	0xbfb1dae76d40e7ba	-0.06974646012613919
79	0x3fc1d12b4b537819	0.1391958349040017
80	0x3fcbe7d7e227b1ca	0.2180127958557832
81	0x3fa83abe3f47ef67	0.04732317469094376
82	0x3fbe43374e45f00c	0.1182131353470483
83	0x3fcb9a810c91068e	0.21565259088133754
84	0x3fb1d6af59a07fdc	0.06968208254011138
85	0x3fa205601cb3a7b1	0.035197261336932135
86	0xbfb2e0587a8a77ca	-0.0737357424900146
87	0x3fb644e13d3ce737	0.08698852295938485
88	0x3f8c958b98168a73	0.013957110003336859
89	0x3fce4979858d13c8	0.23661726971672992
90	0x3fb978426e9af114	0.09949126434634464
91	0xbfcd1d9cf9d83c9a	-0.22746622275778777
92	0xbfcc36d68db41211	-0.22042352599250184
93	0x3fd429f67584de02	0.31506120182481834
94	0xbfbd67a4d9e8b83c	-0.11486273117108764
95	0x3fd0977fb86e754b	0.25924675951849413
96	0x3fcab1014ed6356f	0.20852676724863836
97	0x3fcd377787475b00	0.22825521569640017
98	0xbfaf0d9872e5906e	-0.06065060045764957
99	0xbf941809c3749f43	-0.019622948221836422

W_xh f8 [10, 82]
0	0x3fc4260cea242ec3	0.15741120751078172
1	0x3fc4059dd07e36e4	0.15642140083621492
2	0xbfcacfcaf2f81269	-0.20946633208963597
3	0xbfbb5444bb49223b	-0.10675458500293981
4	0x3fc549d2238125ea	0.16631533368699475
5	0xbf9f8d3f04f0630e	-0.03081224887509664
6	0x3fb8eadec326a770	0.0973338343088963
7	0xbfc1e6de6cb46085	-0.1398580580505532
8	0x3fc5b805a4d35e6d	0.16967840717437657
9	0x3fd78c32507a610e	0.3679319177549737
10	0xbfc26a021bc2fd40	-0.14386011462736725
11	0x3f8a9431b50099d2	0.012977970443967122
12	0x3fc4d95953119a6f	0.162882962761802
13	0xbf7c35a6fc866b0e	-0.0068871043116825025
14	0x3fbb85511facd2cb	0.10750300429647124
15	0x3fc2e7d200c6a2ba	0.1476995948589968
16	0x3fc0a5677b392c54	0.13004773632778444
17	0xbfc90753a7381c30	-0.19553609528540639
18	0xbfbc253ce8d03bc0	-0.10994320568009552
19	0xbf8ef27994ef7b5b	-0.015110921723985695
20	0x3fb8cf151a51334c	0.09690982716092583
21	0xbfc445f104633e39	-0.15838444437257396
22	0x3fc6f601a6efa97a	0.17938252116375591
23	0xbfcfcbfba12578ce	-0.24841256493068048
24	0x3fd07f11e675795a	0.2577557325911549
25	0x3fc55cfd1107389d	0.16690028506713342
26	0x3f935e00f2b4d914	0.018913283170342757
27	0x3fbf97901a65cb6f	0.1234064163634636
28	0x3f8f1acb72d3a92f	0.015187825624214028
29	0x3fb21b51cefa6d17	0.07072936347178814
30	0xbfb668d5dbb54a8e	-0.08753716100663153
31	0x3fa60728eed489ce	0.04302337565811208
32	0x3fadfcefd867611f	0.05857038036964667
33	0x3fa47c13b407053f	0.040009132123950845
34	0x3f6b77464d03b5eb	0.0033527730048408164
35	0x3fd71d4302d7e29b	0.36116099622408065
36	0xbf9a9e713326c7e4	-0.0259950339765921
37	0xbfb9034d98a42e53	-0.09770665146441475
38	0xbfa9667ed9f0fc8c	-0.049610103706521164
39	0xbfb4ba8de1956938	-0.08097159154332167
40	0x3fb8e029402ff354	0.09717042748520771
41	0x3fbf9679f369e27d	0.12338983719554082
42	0x3f8b463f726c9fbb	0.013317580871060266
43	0x3fb6e6ed71eac19d	0.08946117430855911
44	0x3fac5026d2c8fef8	0.0552990085893707
45	0x3fcb44dca64bffb9	0.2130389987942161
46	0xbfa4635c8b341fa3	-0.03982056807768621
47	0x3fd1b4af8af1f3b5	0.27665318077907425
48	0xbfc1f00b8e47e6a7	-0.140138096306875
49	0xbfbcd82a0aae244a	-0.112673404319268
50	0x3fc9dd5741885c3e	0.20206728648983757
51	0xbfa72a2686b54ad8	-0.04524345774065858
52	0xbf95308a26ebecee	-0.020692976594529115
53	0x3fc9519f158187db	0.19780338811966555
54	0xbfae5d71161fb1da	-0.059306653929386235
55	0xbfb9145650026ddf	-0.0979665704093615
56	0x3f9a84a317f4dd41	0.025896595322788988
57	0x3fca04b93603a9fc	0.2032691491834412
58	0xbfa68b531536309c	-0.04403171190196639
59	0x3fbb9519508de7a6	0.10774381844194511
60	0xbfafaa6cb3b843c4	-0.06184711164326687
61	0xbfce3670bcafb366	-0.23603638852309955
62	0x3fd4677e6bc004e2	0.3188167621847936
63	0xbfc99ce1056901d2	-0.20010006679696218
64	0xbfdaeaa7b5c15322	-0.42057221173790726
65	0x3fdc7258c0deaab5	0.44447916827145245
66	0xbfd72a2849585e8c	-0.36194808161369774
67	0x3fd2de675f247b5c	0.29482445040951233
68	0xbfbf79d22edfdd45	-0.12295259136577837
69	0xbfdd11bbb447994d	-0.45420734982908045
70	0x3fa6e59f6694fec2	0.04472063185903387
71	0x3fb82025c37e7eab	0.09424053213887855
72	0xbfa85bc46cc229a6	-0.047575128818681464
73	0xbfc460baf619c1de	-0.15920197502738537
74	0x3fceb9a6d995126f	0.24004064201485018
75	0x3fcb4a009016c2fd	0.21319586787787861
76	0x3fd0975f35ffe982	0.25923900864986404
77	0x3fd0b083432e590f	0.26077348290108743
78	0x3fd7d83294cb039a	0.372570653253257
79	0x3fd1eff39604a625	0.28027047777377084
80	0xbfc05e89aa57f95c	-0.12788506333886118
81	0xbfb64e7a3696a840	-0.0871349700234143
82	0x3f7c654b6ac36b3a	0.006932539556340706
83	0xbfcafe05da0a58d4	-0.21087716242317944
84	0x3fcb00a8a2d24465	0.21095760298024682
85	0x3fb622fd0b717867	0.08647138146759091
86	0xbfd255620b85cf34	-0.286461364033346
87	0x3f96348d36f56288	0.021684843520548586
88	0xbfa10ae4a3d6cc30	-0.033286232948192995
89	0xbfa8860ec7e9f118	-0.04789777937273437
90	0xbfceb62afa51e2c5	-0.2399343225731824
91	0xbfd88422021519f1	-0.3830647487961008
92	0x3fc20958ba53a702	0.1409102353857677
93	0x3fb9088c96fbee11	0.09778670011649405
94	0xbfc7560bf9d1eee1	-0.18231343935246172
95	0x3fb20f43c14c15fc	0.07054542035265138
96	0xbfcd55859c117969	-0.22917242165108156
97	0xbfc18c1c6b0c5650	-0.13708834864580632
98	0xbfd0491d3e3331e3	-0.2544625384732894
99	0x3fbc0bfd9ff06efe	0.10955796389356107
100	0x3f9daf691155db7c	0.028989450152461668
101	0x3fc0c2921f9a70e5	0.13093782942895085
102	0xbfc06d559f50e48c	-0.12833662299252457
103	0x3f9dcf25ed55732a	0.029110519991593233
104	0xbfc0058deaf976eb	-0.12516950581896621
105	0x3fba4853ed362a9c	0.102666135228143
106	0xbfbc4e1efbfaedab	-0.11056703235492786
107	0xbfcdbcd69d54a542	-0.2323253887382553
108	0x3f9a71d26cbc2e02	0.025824821364080826
109	0xbfcb890f8dfd8ce0	-0.21512026246191507
110	0x3fc15854eed750f3	0.13550817167436655
111	0x3fc057b765072c41	0.12767689164170018
112	0xbfb26bbdb2647b5b	-0.07195649724279234
113	0x3fb5e72564eb6b0d	0.08555825914247013
114	0x3f95946c5071cd5c	0.02107400170320993
115	0xbfba275a6fc21f47	-0.10216298321222182
116	0x3fb03659d230c6be	0.063329328361557
117	0xbfd160c21e69d4b9	-0.2715306565290337
118	0x3f9ba96d9baa959e	0.027013504625434608
119	0xbfb217baa1344c6b	-0.07067457614566457
120	0x3fbd29acb1b77b39	0.1139171537283631
121	0x3fc0e706bbd9157f	0.13205036327614647
122	0xbf76e0a1578513d0	-0.005585317842194251
123	0xbfc9033f604062ac	-0.1954116077402167
124	0x3fa12117033dabf7	0.03345558085023719
125	0xbfc9768a74c2daf6	-0.1989300794718571
126	0xbfa0d167eff3c626	-0.03284764103035469
127	0xbfcaf4d5609366fc	-0.2105967256127811
128	0x3fc6213fc9d2faf6	0.1728896842450564
129	0xbfd1528694984899	-0.2706619692918451
130	0x3fc34b0e688c8efd	0.1507280359738771
131	0x3fa24b75f0b22568	0.035731969482251824
132	0xbfb31568133c1133	-0.07454538793178216
133	0xbfad8eb607e5e33b	-0.0577294239655601
134	0xbfc18d3bf8328a1f	-0.13712262743963863
135	0xbfd615fb3b638423	-0.34509163665467407
136	0x3f9697c2f812b5a2	0.022063299552134936
137	0x3fa91c32b783f6e8	0.049043259527008776
138	0x3fb6952bc9a1ccd6	0.08821366951615359
139	0xbfd6cd3875b1df02	-0.3562756680835123
140	0x3f9d5058afc3146c	0.028626809814131723
141	0xbfcf6925406ff43f	-0.24539628645280406
142	0x3fa38a753edaecee	0.03816572563433761
143	0x3fc6f3721f41c3fa	0.1793043758985105
144	0xbfddb21814125a73	-0.4639949985516189
145	0x3fd6a20b00fd71e2	0.3536403188388971
146	0x3fd505eeb8ffed3c	0.3284870916974858
147	0xbfd7b3f4c314c8af	-0.3703586487855643
148	0x3fd1053813604a66	0.26594354526711184
149	0xbfd3f9883b790ccb	-0.31210523422141695
150	0x3fd2b6a9e1b384dd	0.29239890137803376
151	0x3fe3d90b262545c3	0.6202445740729491
152	0xbfc181e71e1f9843	-0.1367768189513204
153	0xbfb5e5e93a8ef45a	-0.08553941421173886
154	0xbfcd2aaedd0b7844	-0.22786508362963975
155	0xbfb54276c8c00f58	-0.08304541016701472
156	0xbfd90ff067de0378	-0.39159784453664015
157	0xbfc83c4843ba3913	-0.18933966929439147
158	0xbfc6cf5069fb6b20	-0.17820172476680174
159	0xbfd8ed00187a6a44	-0.38946535482833533
160	0xbfe1af4ff223f680	-0.5526504258447886
161	0xbfc9c783dd6fbd14	-0.20140121757820195
162	0x3fca6d406510fdfa	0.2064590924728547
163	0x3f76b2cf08745df4	0.005541619036442114
164	0x3f44333adfff14b0	0.0006164586520688489
165	0x3fc2308daa221e80	0.14210673148430786
166	0xbfd37201786652c4	-0.30383335836203806
167	0xbfc67fbe61f4ab9e	-0.17577342780108735
168	0x3fad1144d58fafd5	0.056772376126758374
169	0x3fb74348b40eab24	0.09087042232446813
170	0x3f9d21efa0c4306d	0.028449768245124952
171	0x3fb172dfbfc757f1	0.06815908844086473
172	0x3fcd7ae570ecf1e4	0.23031299604362154
173	0x3fd5fc928891792c	0.34354079567664786
174	0xbfbb81a39d902d4a	-0.10744688603170008
175	0x3fb3fd20f4054003	0.07808118779689725
176	0x3fb97e1a59c778ba	0.0995804280459848
177	0xbfc7c6ea2afff972	-0.18575789546589366
178	0x3fc94a691efd6f23	0.19758333218748544
179	0x3f98c9a569988e22	0.024206718988479044
180	0x3fc7c912d7c54462	0.1858237794463405
181	0xbfc8ef20f76c8d56	-0.1947976310849337
182	0xbf88e9854b88c48e	-0.012164155357000685
183	0x3fae5169d589c6f7	0.05921488505999933
184	0x3fc333db6d544f73	0.15002005422922657
185	0xbfb3388cb8a97716	-0.07508162983273467
186	0x3f99fd04427da0fa	0.025379244383118206
187	0xbfcdba3e4af718d2	-0.23224619541560415
188	0x3fc3281c0fa13c73	0.14966154826331354
189	0x3fcbc20ce63efd33	0.21685944788439712
190	0xbfb5da056bbd6c15	-0.08535798912400623
191	0x3fc44da260d032ef	0.1586192105027275
192	0xbfc13ca4067a698a	-0.13466310802762066
193	0xbfb4923c54fc28f3	-0.08035637926892374
194	0x3fa5391d7cbd9823	0.0414513792773479
195	0xbf7c58b944c97992	-0.006920551019531722
196	0x3fb1d05dea8d79eb	0.06958567596800662
197	0x3fa1129ebfea9df7	0.03334518521051771
198	0xbfa3fec624c0ea8b	-0.03905314634944997
199	0x3fc8848fed145b2c	0.19154547763965846
200	0xbfc0d3193f58394e	-0.1314422187137531
201	0x3f9b2b62e2a747ac	0.0265326929891853
202	0x3f934d25825caf1f	0.018848978120487133
203	0x3fa30d8a998b1a13	0.03721268772419619
204	0x3fb3d9154993deb5	0.0775311760552267
205	0x3fc10eec892b94f1	0.13326794336095518
206	0x3fb4b5ee99aed9bc	0.08090106250788315
207	0x3fbe4fea2477ea9e	0.11840690031378151
208	0x3fba9490ad3564df	0.1038294241783606
209	0x3fcf738e5d4aecb8	0.24571399264627813
210	0xbf79a968c438fe85	-0.006265076870078827
211	0x3fbb6d94ef7d6bbc	0.10714083525583268
212	0xbfca3ace974d1da8	-0.20491964710002475
213	0xbfb71901c9756d0e	-0.09022532623696497
214	0x3fc4e932625c9de1	0.16336660197087752
215	0x3fa033fb1b48c303	0.03164658268031497
216	0x3fbf7a4876c8cf52	0.12295964145670027
217	0x3fcc3740e36a2a8b	0.22043620208963363
218	0x3f62fa8a12127e71	0.0023167320910742408
219	0xbfc7b9cf016197df	-0.18535792891924438
220	0xbfa092f9ccd8ee85	-0.03237133622721181
221	0x3fcb496e999b2d47	0.21317846775341762
222	0x3fab7844fd58f8bb	0.053651958395208386
223	0x3fba2a9b55cd5a59	0.10221262783793729
224	0xbfc95cf2b0a99e86	-0.19814904810049344
225	0xbfb9003f0565e0d0	-0.09766000634943173
226	0x3fd757ffafa8c944	0.36474601892691205
227	0xbfd1109147950c8e	-0.2666361998601098
228	0xbfd4275144b3044a	-0.31489974697985146
229	0x3fe0f7825003cc14	0.5302135050573065
230	0xbfd68699f76413a9	-0.35196541938085574
231	0x3fc101a2ae4ff720	0.1328624106535523
232	0xbfca1e1633768cbd	-0.20404317391248653
233	0xbfd88f33ae53571c	-0.3837403490446023
234	0xbfc10a62c66c769e	-0.13312945068985454
235	0x3fb5cc8a14bbf705	0.08515227323729498
236	0xbf9f2573ec97002e	-0.030416308703706978
237	0xbfb7e1355c320633	-0.09328015805115157
238	0x3fd03576bd6d7928	0.253263173091812
239	0x3fc69100684b9e58	0.17630009739444819
240	0x3fc9df6e28598d8c	0.2021310517330729
241	0x3fd10e2d756ae52a	0.26649033037718317
242	0x3fd2b8fa9cbde395	0.29254021937190916
243	0x3fd0c28cab6e2513	0.261874358570439
244	0xbfd063896286be57	-0.2560752355738933
245	0xbfa88859bfda26b6	-0.04791527239747266
246	0xbfa1ea9efc17c6c7	-0.034993141434723145
247	0xbfc2fd84fa82308a	-0.14836179954398104
248	0x3fc316d1467e9ba5	0.1491338342868548
249	0x3fc5ce496316a280	0.17035786951352705
250	0x3fa14c03f9b688f4	0.033783077461764593
251	0xbfa561e808c0c626	-0.041762591427311244
252	0xbfa5bc45a635ffef	-0.04245202688161941
253	0xbfb8f03464d6592a	-0.09741523229454133
254	0xbfc65891ff89f7cc	-0.17457795121657538
255	0xbfd4d4a1b0e9de2c	-0.3254780032798148

W_hy f8 [10]
0	0x3fd9afd99bf19d8e	0.401358034409406
1	0xbfc8aaaccaaa3d46	-0.19270858665229634
2	0x3fd502737b9523e8	0.32827460354434246
3	0xbfd255d9845550fb	-0.2864898483578739
4	0xbfde453b4142a804	-0.4729755532558786
5	0x3fd1bef4816f0494	0.2772799743652936
6	0xbfe0553082851378	-0.5103991078582188
7	0xbfd7bb3e4b92f94a	-0.3708034265545349
8	0x3fce4722bbe10ace	0.23654588865072984
9	0x3fddb4d079458047	0.4641610321323281

b f8 [10]
0	0xbfacb4715f4be1da	-0.05606416977201763
1	0xbfd22f5e88cb754e	-0.2841411910902324
2	0x3fd0cfc6db56d70a	0.262681688497978
3	0x3fcbf9c8a1d58651	0.21856029417090153
4	0x3fd1097b0c6037d5	0.2662036534173898
5	0x3fb1f34765db75df	0.07011839138745966
6	0xbfc4914e4d9ef402	-0.1606843832977632
7	0x3fc7c614f7571ee1	0.18573247983135047
8	0x3fb8660a0a9d1acb	0.09530699500201505
9	0xbfc66600391bf437	-0.17498781956229134
