models/FINAL/vanilla_II/vanilla_quad4/distress/Quad/1/strategic/model.pt (torch, 1727 bytes, 2 tensors)

w f8 [82]
00000000: f980 cba5 5bfc ecbf 7a5f c634 3e27 0540
00000010: ce37 91c2 bc14 0ac0 e0ba 3984 aa61 f0bf
00000020: e983 9377 07e2 e93f 54b4 44cc 2269 e33f
00000030: 78a4 665e 4c5c f63f 8d58 9cc8 3bae f0bf
00000040: aaba 0729 a851 0340 4dc4 8bd1 2a17 0640
00000050: eab1 c8ba 7bf6 e4bf 5c77 081d eaa6 f03f
00000060: 9055 cc31 b7b7 0840 aee8 685f 74a3 01c0
00000070: 7861 5bcf c21f ec3f 8b28 a2ba 4442 d53f
00000080: 45d9 fff5 4068 d7bf be31 03c6 201c fa3f
00000090: ce62 c439 164d f2bf 7684 5e2d 6d55 dabf
000000a0: 6dbd 5521 1053 fe3f 232a 40b0 751f f4bf
000000b0: 13b7 702c 1d15 0140 4b56 fe54 4751 09c0
000000c0: 579b 1dab 48b4 0140 3174 76ba 61bb f33f
000000d0: f778 abe8 48ae 00c0 2c18 75e7 f527 f2bf
000000e0: 7746 f1fc 1901 f7bf e6dd c8db 57f2 a93f
000000f0: c20e 21d0 bea8 ecbf fc6c d9e5 f85f edbf
00000100: 75a3 cd37 172f f33f ec1f a7c5 b1f3 f13f
00000110: 8aeb 5ac2 c154 db3f 1b9e b24b ea8c f03f
00000120: 4c95 d12e a955 e2bf e33d 3458 c253 c7bf
00000130: 3e2e d3d6 0bf5 eabf 8027 06aa dd22 de3f
00000140: bce1 8d56 78f5 cf3f 89ed 4c14 d2e1 f73f
00000150: 7df3 ce19 9392 ddbf 6901 6a8b 2e3f cc3f
00000160: ffb7 f00b 990b f63f 4b85 da19 1d65 0040
00000170: 0f9b 8c7e 6784 fbbf eb78 1b12 fc28 fe3f
00000180: 8243 fdde 6847 04c0 88ed 33c9 e000 01c0
00000190: 19db 5fd1 784e d4bf 1c6d 0abe 7e56 f83f
000001a0: a197 903c 3d41 0140 d925 e53f cfe6 ddbf
000001b0: 38ea 8ee2 8de0 f03f 2e05 38fd b3dc a63f
000001c0: a7f1 fb24 2d17 e63f b8ff ac52 97be dc3f
000001d0: 0c16 3e64 65a0 0040 f92b e880 0391 f33f
000001e0: 2c84 3260 5ec2 ffbf e344 9d9a c599 f3bf
000001f0: efcb e48b 83aa 0540 c8e0 947f 40fd 03c0
00000200: d292 24b2 9e3a efbf 9286 908c 346d 0a40
00000210: 4d0e 9bd0 2120 f0bf fe59 89c5 23ea f83f
00000220: da18 0d71 909d ef3f 9f66 317f d7aa 08c0
00000230: 3eab 91d7 f9cd 00c0 7f09 7d73 1294 f5bf
00000240: 7c45 b092 fb7d e83f 52c7 14f0 0e7c eabf
00000250: 22c3 b753 ab63 0340 b63b 19bb 6c25 0240
00000260: 5026 29af cef5 0040 39db dbee 91ec 0340
00000270: f7c9 7370 c769 0740 8798 34e0 4088 0040
00000280: 360e 8e17 669c d8bf 5a7a 20e2 0877 b5bf
-0.9058054197485311 2.6441616175688383 -3.2601256561820042 -1.0238442578371902 0.8088414512131951 0.6065839757553797 1.3975337684189792 -1.04253748286786
2.414871521519065 2.761312138631672 -0.6550882957577049 1.0407506116966578 3.0897048845751627 -2.204811807049814 0.8788770723286197 0.3321697065918065
-0.36573814414386546 1.6318671927320874 -1.1438200241592997 -0.4114640181597403 1.8952790548463228 -1.2576805958548298 2.13530955046634 -3.164686836253883
2.2130292290125158 1.2332474979114176 -2.085100000126768 -1.1347559968285266 -1.4377689247670824 0.05067705686490935 -0.8955987992307757 -0.9179653634304539
1.1989967517676778 1.121995708543177 0.4270481489181114 1.0344031292860396 -0.5729566492488316 -0.18224362665976832 -0.8424128719138435 0.47087804416570833
0.24967865206032325 1.4926319878566991 -0.4620712043795761 0.22067815596893617 1.377831503526522 2.049371911984655 -1.7198252623872496 1.8850060183827348
-2.534867994407649 -2.1254287451717495 -0.31728954741213183 1.5211169646707452 2.156855080759627 -0.4672124980903312 1.0548228120739065 0.04465258089113387
0.690329143747978 0.4491327578907618 2.0783183890769177 1.2229037318636513 -1.9849532849987197 -1.2250419654486044 2.7082587174604593 -2.4986581771191574
-0.97590575021294 3.3033228856664403 -1.0078447483691833 1.5571630207319909 0.9879839141874769 -3.083418840117545 -2.100574192173922 -1.3486504088656088
0.7653787484179442 -0.8276438416562348 2.4236666241125855 2.2682737938952995 2.1200231251175765 2.4905127201886015 2.926649931462858 2.0665299907732932
-0.3845458250072825 -0.08384757538485968

b f8 [1]
00000000: 51b2 c6df fb67 db3f
0.42822167256489246
