models/FINAL/vanilla_I/vanilla_vs_hardt_final_0/0.8/non_strategic/model.pt (torch, 1151 bytes, 2 tensors)

w f8 [15]
0	0xbff9e8ee93a6c707	-1.6193681495319099
1	0x4011026f278ce9a8	4.252377145743971
2	0xc0118e9c2b64f3e6	-4.389267614399591
3	0xc007bfd58e174bfe	-2.9686690426692612
4	0xc00804350cf2f793	-3.002054310955779
5	0xbff446a7f3ba12e9	-1.2672500153141135
6	0x3fd3503df79f3b7e	0.3017725866492852
7	0x3fe8164a38ff542e	0.7527209389905971
8	0x3fef0f18e20268fc	0.9705929197546364
9	0xbff047966f4f89a7	-1.01747745018711
10	0xbff48478fb64bd1e	-1.2823419399317753
11	0x3fe0977cdaee264d	0.5184921527845262
12	0xc0003a66ca2bede0	-2.0285163683563354
13	0x401c43681c77e16e	7.065826840226107
14	0xbff256f2ccb10a14	-1.146227645470053

b f8 [1]
0	0xbfe84e7d45a78be0	-0.7595812187613511
