models/FINAL/rnn/rnn___9/12/non_strategic/model.pt (torch, 9103 bytes, 4 tensors)

W_hh f8 [10, 10]
0	0xbfcecf21490c4d57	-0.24069610659408155
1	0xbfb5297e25d3a623	-0.08266437934403163
2	0x3fb47930e2075307	0.07997422712589862
3	0xbfcbec1bb92d2448	-0.21814295331776834
4	0xbfa59b22757c751c	-0.042199208108494285
5	0xbfc0503ed75a2fd6	-0.12744889750717786
6	0x3fcf90f4d3776482	0.2466112167883559
7	0x3fc28e0ef320fa8e	0.14496027823948449
8	0x3f5db6a6429c24de	0.0018135665545194117
9	0x3fc86d0e019f9a90	0.19082808570165755
10	0xbf901b7179f96710	-0.015729687757221333
11	0x3fc55d4715a8be26	0.16690910871101144
12	0x3fa855916554177e	0.04752783166809048
13	0xbfbd4d45da91eaaa	-0.11446034036809274
14	0xbf9afd11e6616bc4	-0.026356010137856392
15	0xbf8188e7c31ae431	-0.008561907426484524
16	0x3f9955247bfb4917	0.024738855426059105
17	0x3fc29c6aa165c724	0.14539845352879255
18	0xbfc2e280a21d7789	-0.14753730693604108
19	0xbfccf95491ca7f01	-0.2263589584226722
20	0x3fce8144fede4697	0.23831999249209865
21	0xbfb0a523b04ecb26	-0.06501982740773524
22	0x3fd329f4e8b00243	0.2994358322467045
23	0x3f9fd3840692fd3b	0.0310803059589919
24	0x3fcc425a97282ffb	0.22077495938026445
25	0x3f92c9f066ea4b52	0.0183484614195309
26	0xbf8dc055b9794b54	-0.014527005884848933
27	0xbfb10935380d0063	-0.06654675119807645
28	0xbfba882cd7d33f93	-0.10364036816758775
29	0x3fcd22a8b529601e	0.22762020917684905
30	0xbfc45928a989b68d	-0.15897091177196324
31	0xbfa45949552036c0	-0.03974370159276708
32	0x3fcfd8b78f232c35	0.24880117882853062
33	0x3fd163c9a3ea1954	0.27171555526037605
34	0x3fa9673b4f37561d	0.04961572019571412
35	0xbfcc123f936453a3	-0.21930689522619415
36	0x3fa1329a31c1266b	0.03358919007639546
37	0x3fb5ad822fae16dd	0.08467878021300686
38	0xbfc062ee0898d51a	-0.12801909847045395
39	0x3fc0629971414de8	0.1280090144160646
40	0x3fb54d841e23be0f	0.0832140515883497
41	0x3fce65be29f57f0b	0.23747994469430753
42	0xbfcb9a4d169be20b	-0.21564639667464322
43	0x3fa8b1633f0147d6	0.04822836059669526
44	0xbfb3d8093534d53f	-0.07751519726737842
45	0xbfa44619366d82f4	-0.03959730901147465
46	0xbfd1b5a4790ab60d	-0.27671157665722107
47	0x3fce356ea2021efb	0.23600562010346224
48	0xbfd7cb9029797826	-0.37179950762026903
49	0xbfd347306731e779	-0.30122003629332245
50	0xbfbf7ce62b3c3064	-0.12299955897850762
51	0x3fc82be85d089077	0.1888399557366289
52	0x3fce53b881c4e8b5	0.2369299539221338
53	0xbfd18c1de6ec70df	-0.2741770510781531
54	0xbfc22259c0a76fa7	-0.14167329699455175
55	0x3fc0ba143474632a	0.13067867814313533
56	0xbf8b7ae4a80c96cc	-0.01341799390645395
57	0xbfbde27804ff7460	-0.11673689004915522
58	0x3fd69751fcad0e55	0.35298585582152003
59	0xbf834a54cefd1758	-0.009419119421760477
60	0xbfbae662b0552925	-0.1050779037952095
61	0x3fcde1435e4e0c64	0.23343698601465512
62	0x3fc3d0ff59df0979	0.15481559646839196
63	0xbfd77e5f4a52a60e	-0.3670881486710592
64	0xbfbde3e7c16d7dee	-0.11675880882602716
65	0x3fc49b6875fb5f78	0.16099267731510358
66	0x3f955c160c2553e6	0.02085909318096304
67	0xbfd226f788172239	-0.2836283520705681
68	0x3fc82775b7ff89ac	0.18870421871458853
69	0xbfd07177a310de26	-0.25692549633410733
70	0xbfcffc710bcec9a6	-0.24989140583563801
71	0xbfcfa771858e27b1	-0.24729746838812397
72	0xbf774a0c41d7d07a	-0.00568585193603976
73	0xbfc9953daccc5489	-0.1998669713727035
74	0x3fcfdb8724048d95	0.24888695963555266
75	0x3fb63c6a62ec7b85	0.08685936846857885
76	0x3fc25adb2c0198eb	0.1433977093576638
77	0x3fc38f56711bcc4a	0.1528118183410661
78	0xbfaf0258c274a492	-0.06056477903104808
79	0x3fc35d16a6f42e9a	0.15127833511393335
80	0x3fcc90f13d1004f1	0.2231732891232592
81	0x3fb99c60dfb326eb	0.10004239522381979
82	0x3fc089f1926f8138	0.12920970583128066
83	0x3fcf2d526dd14c5e	0.2435706173151599
84	0x3fbb8e86d5bbb534	0.10764353483292127
85	0x3fa4fbb64148f896	0.040982909650197616
86	0xbfa10ce9bde921c9	-0.033301643784003306
87	0x3fbd61cc39b9fbfa	0.11477352532709509
88	0x3f98c783ed47cab5	0.024198590619514977
89	0x3fcf1961bc5a8f3a	0.24296209046326017
90	0x3fb974e6b27b2832	0.09944002015541356
91	0xbfc6e02c16f88c2b	-0.17871619340539388
92	0xbfcb7538cf8804ae	-0.21451482900014213
93	0x3fd5a3af51d0e5c8	0.3381155299171863
94	0xbfb4d760ff57fb3b	-0.08141142114616866
95	0x3fd0a08a2fad7fab	0.2597985711672616
96	0x3fcf51f5f4263dac	0.24468874379497885
97	0x3fd0116a93bf8c92	0.2510630076269048
98	0xbfac792d90324e9d	-0.05561201462947205
99	0xbf9308a16a343813	-0.0185876103469625

W_xh f8 [10, 82]
0	0x3fc520ad936511cd	0.16505975434314593
1	0x3fa5b1565e8b6392	0.0423686018381836
2	0xbfc7602ec8a7b4a5	-0.18262276456463158
3	0x3fa98cb9ce3393f1	0.04990177766902793
4	0x3fc4bb072e67eb85	0.16195764318385045
5	0xbf7fb7e75696adc6	-0.007743743576991096
6	0x3fb71c19f5b22c79	0.09027254341542514
7	0xbfc40e6e5fa654a1	-0.15669040365597645
8	0x3faea5fa0662f63e	0.05986005142174776
9	0x3fc9945ec8971e7f	0.19984040064285932
10	0xbfbb4e4651ab47a1	-0.10666312688706948
11	0x3f9e91179a9515ae	0.029850357828100797
12	0x3fc169bdb37348c9	0.13603945982192148
13	0xbfafb309d221d38f	-0.06191282930459529
14	0xbf8436dedd3ef845	-0.00987028229416976
15	0x3fc3c1e886f0061d	0.15435511196851417
16	0xbf980a55531d3ecf	-0.023476918409243205
17	0x3fb1ba0148cc6d92	0.06924446132000231
18	0xbfbe2f64284ca1a6	-0.11791063293333667
19	0x3fb9f80d09da9af3	0.10144120684217821
20	0x3fc2281a8e2f7dc0	0.14184886877681713
21	0xbfa26fd1c1639568	-0.03600936399179028
22	0x3fcc9c68d1097411	0.22352323729401793
23	0xbfcce4a266b89d91	-0.22572736755067216
24	0x3fcba58a131d8e56	0.21598936017390952
25	0x3fa435fc23c9fd57	0.03947437226178845
26	0x3f8d6ed762c787db	0.014371569349297111
27	0xbfa073b345869397	-0.03213272308065667
28	0x3f86ac11459b123d	0.011070380150507758
29	0x3fbff0765fd848ff	0.12476291503870483
30	0xbfb7ca0323ed8926	-0.09292621256966935
31	0x3fa00c6ea0d3c38f	0.03134484971258821
32	0x3fb3e82854fed6db	0.07776119303784006
33	0xbfbbf1d83ab3baca	-0.10915900643497448
34	0xbf7922230a13c886	-0.006136071083561961
35	0x3fcd76238764046a	0.23016780959008837
36	0xbfa5e0d61621b9ca	-0.04273098964846474
37	0xbfbbefe782d13f1f	-0.10912939971717293
38	0xbfabf6188853f679	-0.05461193718109043
39	0x3fa18072859ea1ee	0.03418310052012773
40	0xbf675e1a088af5ea	-0.0028524883713021325
41	0x3f8741005699bc74	0.011354448931540008
42	0x3f50580de42254b6	0.000997556272101447
43	0xbf85960ed96d4d96	-0.010540119181007761
44	0x3fc8db79d9b18edc	0.1941978753048862
45	0x3fbb3ed8859bba58	0.1064277006332558
46	0x3f93ed0009cf4c38	0.01945877132295612
47	0x3fca755fc7643713	0.20670697437201876
48	0xbfc95afcc55e8753	-0.19808921467943694
49	0xbfc4126ecb931a4c	-0.1568125242249202
50	0x3fcc8351ce6e93c1	0.2227575548141925
51	0xbfa43ca033c77774	-0.03952503807134536
52	0x3fa947e9f52c71a8	0.04937678449479971
53	0x3fb22f635be56379	0.07103558534198652
54	0x3fb448a00416498f	0.07923317050725685
55	0xbfc1b32f02e16b23	-0.13828075066234033
56	0x3f9d1332246d63ff	0.028393538926454905
57	0x3fabc80b46208622	0.054260589895658976
58	0xbfa34353fe14c987	-0.037623047605296604
59	0x3fb0b17a8aa56034	0.06520810971176233
60	0xbfb55689da725675	-0.0833517225567791
61	0xbfc99189b1993cda	-0.19975396320157907
62	0x3faac4c439e9672c	0.052282459325125735
63	0xbfb7d8c3e8ac1d7f	-0.09315132551647841
64	0xbfcaf02cce3ebbba	-0.21045455999907664
65	0x3f9e57dec75e50fe	0.029632073324663992
66	0xbfcda2ed79099fcd	-0.23153465662039566
67	0x3fc75378642953a8	0.1822348107404228
68	0xbf97b4b8ae179fbe	-0.02315033495497664
69	0xbfbcaea0969c3b0b	-0.11203960110672655
70	0xbf9121852b583550	-0.01672943188719006
71	0xbfa6aa0398d5dca2	-0.04426585426966169
72	0xbfc2556a5fb67070	-0.14323167489499466
73	0xbf8de42b315e2ac2	-0.014595353550040161
74	0x3fc0058cce50aedb	0.12516937326414887
75	0x3fba3f0b65788f5e	0.10252448298757375
76	0x3fc5fc5d6b34ef55	0.17176406607347397
77	0x3fb340addbf2e90f	0.07520567531438281
78	0x3fb654a98d987213	0.08722934443398626
79	0x3fc813786e74cf66	0.18809419053433912
80	0x3fa301e0be369bdd	0.03712370225849047
81	0xbfb084ab72736526	-0.06452437919815121
82	0xbfa36a80b18e6117	-0.03792192618783668
83	0xbfb4dc01cb3236a9	-0.08148204050868436
84	0x3fc9b2f9a7d409bc	0.20077439017047805
85	0xbfb197457303d937	-0.06871446664795121
86	0xbfd0010961412250	-0.2500632714987079
87	0xbfa0252f704572f8	-0.03153370137690631
88	0xbfaa9134aff76a45	-0.0518890824129881
89	0xbfa252e45c6cf5c4	-0.035788666040825784
90	0xbfc3b5e0a87aef43	-0.1539879629761974
91	0xbfca385dd2d677ad	-0.20484516901791264
92	0x3fb8bfec97aab7e4	0.0966785307197991
93	0x3fb0d97e3a2e0d0c	0.06581868095786464
94	0xbfc6085afd33872a	-0.17212998736709412
95	0x3fc1faa7432bd8c9	0.14046183376166813
96	0xbfb3e05c267fa6eb	-0.07764221134098263
97	0xbfc1c23979b3cc3d	-0.13873976175782046
98	0xbfb7cbb41b81f736	-0.09295201942037754
99	0xbfbee07161065d18	-0.12061222666521976
100	0x3fa079f2408e00d8	0.03218037641545529
101	0x3f852381622bc5e8	0.010321627434197247
102	0xbfc2390c5ba093be	-0.14236597513186483
103	0xbfbaf67fbde34b7d	-0.10532377611097661
104	0xbfc28b28d480025e	-0.1448718106839974
105	0x3fb805bbe583f07f	0.09383749345210111
106	0xbfbab1bc9241cfbb	-0.10427454539040941
107	0xbfae4c125c61cda0	-0.05917413118086334
108	0xbfba8aad97aed4a1	-0.10367855981060582
109	0xbf9eab86c8ac2e9d	-0.029951196668703706
110	0x3fc04dd9a865a657	0.12737580034745363
111	0x3fb6a8442b78bdc3	0.08850503979987594
112	0xbfb2357d14e72920	-0.07112867126776168
113	0x3fb7b7cceb51121d	0.09264832253490636
114	0x3f9e33baec7e8204	0.029494209942301466
115	0x3fae4290ce60550f	0.059101605598849465
116	0x3fb17410aed441c7	0.06817726391114497
117	0xbfb9cc485cdd3f3d	-0.10077335612481604
118	0xbf8128ce342feaf7	-0.008378611533762277
119	0xbfb013bbc0120fbf	-0.06280110778067093
120	0x3fbef1c36963d35d	0.12087651560780217
121	0x3f94cbf06dba2a86	0.02030921621057271
122	0x3fbd1dee3676adb7	0.11373795346906133
123	0xbf9ad5fed829507c	-0.026206952994769925
124	0x3fa1aede1911f2fc	0.034537258682552946
125	0xbf90a7aba4dc8d34	-0.016264612138127535
126	0xbfcaace73319f394	-0.20840158457931734
127	0xbfb96f535aea9a38	-0.09935494393958144
128	0x3fb7ab66495e7068	0.09245909968598343
129	0xbfc8d7144ffaeb4c	-0.19406370072632695
130	0x3fcd1d5f372d362e	0.22745886034174262
131	0x3fac615a07522508	0.05543023433080846
132	0xbfb5408de152aa40	-0.08301626921699157
133	0xbfadda4fb43f45bc	-0.05830620837481201
134	0xbfcbba4589919efd	-0.2166220590327085
135	0xbfc5c451d27c659b	-0.17005369928010058
136	0xbfa7746779a365e3	-0.04580996856538968
137	0x3fb637de9e8bd225	0.08679000254398568
138	0xbf8ccf536badde4c	-0.014067317699058134
139	0xbfc35c8daf15d113	-0.15126200722773628
140	0x3f9ada07eb2348e1	0.02622234699885773
141	0xbfc48cc0f006b9a7	-0.16054546089203578
142	0x3fa40be31e367271	0.03915319198424506
143	0x3fb9f5fe902c026d	0.10140982646772452
144	0xbfa2b5f3897d5f86	-0.03654442838040865
145	0x3fcc73cf5efe5e90	0.22228424204216823
146	0x3f95e2256237f59c	0.02137049114206989
147	0x3fb42e87137e1b59	0.0788349554623954
148	0x3fb829424324d6a2	0.09437955989127514
149	0xbfc22264b492c264	-0.14167460267119047
150	0x3fc6e7057a2f6f58	0.17892521349028345
151	0x3fb55a216d500e0b	0.08340653342025221
152	0x3fa00c0a364b4625	0.03134185707825691
153	0x3fa5e602703b4d82	0.042770458412316095
154	0xbf9fe392d586c0da	-0.03114156177770231
155	0xbfc69db2cbb14365	-0.17668757387084635
156	0xbfcc3526a18b95f5	-0.22037203681900022
157	0xbf9961c3440ad76e	-0.024786997821784444
158	0xbf9da9374c1119ae	-0.028965820329426677
159	0xbfb72f21e4734a58	-0.09056293322945785
160	0xbfacdedd297203c4	-0.05638781672406126
161	0xbfbc42416c3f11e5	-0.11038597958310666
162	0xbf9095e711d005da	-0.01619683309764306
163	0xbfa251994d13be3a	-0.03577879968531446
164	0xbf8bd42a07bb9ae2	-0.013588264809596354
165	0x3fa551565c06d8d2	0.041636179670079834
166	0xbfd0524b23bf15f5	-0.2550227974973887
167	0xbfa3d61f1b71ff4c	-0.03874299249673516
168	0x3fa6824e58e821de	0.04396290622031861
169	0x3fb55a6d873bd6f7	0.0834110694084663
170	0x3f742a107cd2640c	0.004922928242330659
171	0x3fa56c034af417dc	0.041839697742076715
172	0x3fc116774784185e	0.13349810592643768
173	0x3fc856f7d42dff06	0.19015405521712853
174	0xbfb131b6f72f1e5a	-0.06716483626143468
175	0x3fb5815255b83d3f	0.08400454132810341
176	0x3fa9fe847bd78290	0.050769939534579867
177	0xbfc9e957460e26a3	-0.2024334995333464
178	0x3fb930605b198ddc	0.09839441513172836
179	0x3fa5a457ecbbb7c0	0.04226946606455284
180	0x3fb0b011975c931b	0.06518659539558451
181	0x3f9ea88ef2665e1a	0.02993987421504416
182	0xbfa0060292c103b6	-0.03129585305624209
183	0x3fc3dd875fa09cf9	0.1551980225496903
184	0x3fc7ece2f14995bf	0.18691670209515895
185	0x3f9b8a16b4ca554a	0.026893954071586713
186	0x3fafbf32913de5af	0.06200559637995739
187	0xbfc7f8d28f5b7baf	-0.1872809600817766
188	0x3fb6333e1e7539bb	0.08671940082169886
189	0x3fb934b5f78d53a1	0.09846055310965919
190	0xbfbc17bec56d7bed	-0.10973732299815682
191	0x3f91cc70c1560e56	0.017381440925886636
192	0xbfc1aa35d3cd3bef	-0.1380069050014465
193	0xbfa24f186a4c575c	-0.03575969979844615
194	0x3f9754717dbd7dfa	0.022783063220570533
195	0xbf9db8fc47482879	-0.029025976038646626
196	0x3fb843b04fe3be7f	0.09478284788542089
197	0xbfb511a85c0e3d54	-0.08230068442775479
198	0xbfae6e6cc4fcc706	-0.05943622498160832
199	0x3fb4e01d7daa5c27	0.08154472654347043
200	0xbfc15c49697bbb22	-0.13562886858513773
201	0x3f73dcd1dbd30700	0.004849262009146704
202	0xbf64ae5a10476b15	-0.0025245436720359262
203	0x3fc1167a6b41ca51	0.1334984801975048
204	0x3f8069816efc35e2	0.008013735961436678
205	0x3fa7d4479d874885	0.046541440944239766
206	0x3fb1f01c9849f2e9	0.07007006376256765
207	0x3fa4cc6ddc314168	0.040622170571284866
208	0x3fcaf2b5f6397aaa	0.21053194544488935
209	0x3fc3065a24a3de79	0.14863135136669195
210	0x3fa3f74cfafc3687	0.038996129644243864
211	0x3f9791de1062f7b8	0.023017377615125872
212	0xbfcc8fd3fe590a28	-0.2231392852718994
213	0xbfc03c9bb371e83a	-0.12684961568794667
214	0x3fc501b6a067f6f1	0.16411478836373974
215	0x3fa910b59f1f23b3	0.048955608057048926
216	0x3fc5130012b700c0	0.16464234269915856
217	0x3fbe459c7a067f61	0.1182496831811455
218	0x3fbad832944bb5b4	0.10486141319753167
219	0xbfc997ddd7846fce	-0.19994709990794352
220	0xbf98b4fad2de0778	-0.024127883072203343
221	0x3fbbb9dbe4bdbfef	0.10830473265173145
222	0x3fb25e893a09a8fd	0.07175500552117238
223	0x3fb000eaaafef067	0.0625139872999526
224	0xbfc8cb31cea32339	-0.19370100583753372
225	0xbfaacc005d13c34f	-0.05233765731998707
226	0x3fc29584adb0ee1b	0.14518793564808238
227	0xbfc487543dd5fa3b	-0.16037991542175853
228	0xbfc4c646be62674d	-0.1623009137736581
229	0x3fc73fc7caab5453	0.181633924445722
230	0xbfce15acf46e6586	-0.23503648696059204
231	0x3f9e949b47e689d1	0.029863764060459822
232	0xbfbc455f968c9fa6	-0.11043355393905915
233	0xbfbb2ceaa29fc2f1	-0.10615412206949394
234	0xbfc5eca1049ded56	-0.17128384328303053
235	0xbf8c6c928e1c2f54	-0.013878960573059075
236	0xbfb4b50672bab230	-0.08088722516067359
237	0x3fb03796c2c352c4	0.06334821944194419
238	0x3fc2fd606030682b	0.1483574361489571
239	0x3fb32afc7bfdc215	0.07487466838006925
240	0x3fbfffdad5761646	0.12499778472382514
241	0x3fbc63d233488595	0.11089814903291136
242	0x3fae79d31f4b5d0a	0.05952319867145135
243	0x3fc3d97a43a032be	0.1550743894771553
244	0xbfbd1a33ab13a0f3	-0.11368105818440082
245	0xbf982d9ab741117a	-0.023611466822573736
246	0xbf7a29738346685e	-0.006387187215660088
247	0x3f7665c06bbce428	0.005468131679486489
248	0x3faeef31b7e8e3d5	0.06041865701667574
249	0xbfb907c72895bfa5	-0.09777493229716912
250	0x3fb0ab205da9d143	0.06511118208601822
251	0xbf4f73093904d0a0	-0.0009597582848415338
252	0xbfa382e1686be73e	-0.03810791396786194
253	0xbfad733c0b65b450	-0.057519794837255334
254	0xbf9bb0f3759ea708	-0.027042202047289826
255	0xbfabb17538cfc4f5	-0.0540882713174912

W_hy f8 [10]
0	0x3fccd89694a4c95e	0.2253597474860482
1	0xbfaa0e682c2a607e	-0.050891166106510774
2	0x3fd0d2d15f67f31d	0.2628673011493435
3	0xbfc1a36b2b8caed3	-0.137799640907693
4	0xbfd365c06d2e29c2	-0.3030854288305386
5	0x3fc3f85f594216d2	0.15601722582157734
6	0xbfd9d8b3b52189b8	-0.4038514393670556
7	0xbfd18ca33d324157	-0.2742088410968981
8	0x3fc6e3fb538bc6c5	0.17883245067019096
9	0x3fd302090c7660cf	0.29699922768624004

b f8 [10]
0	0xbfa60715bb678a15	-0.04302280342723833
1	0xbfd33761295795e7	-0.3002550986987828
2	0x3fd2225d8d7e8ad4	0.28334750001719766
3	0x3fcb9f438e91ed4f	0.21579784833361734
4	0x3fd063a28c1521eb	0.25608123474060446
5	0x3fb8fe098cd62fee	0.09762630165477024
6	0xbfc658536a44a6fd	-0.17457049073100697
7	0x3fc73490c0ef39f5	0.18129167004231275
8	0x3fbe63d954ce6a6d	0.11871107407061184
9	0xbfc40125debe108e	-0.15628503204436978
