models/FINAL/rnn/rnn___5/6/strategic/model.pt (torch, 9103 bytes, 4 tensors)

W_hh f8 [10, 10]
00000000: 94e4 e3ac 4c10 debf 7dee 4eb5 eb1a b23f
00000010: e2a5 b42c b0e9 c3bf bf31 19d9 a2ae dcbf
00000020: b251 6145 ec62 b83f 7d91 dfb8 0761 d7bf
00000030: 5b91 73ff d50c d63f 6cab c03d da40 d03f
00000040: 025d bc61 386c cebf 612e 1963 2a9b a7bf
00000050: 5008 f0fc 6885 c03f 990e d855 f199 a23f
00000060: c26a 6765 3970 c73f f0dd 5fa0 1033 b93f
00000070: 781a f807 fbf5 c1bf 4179 ea94 3938 c33f
00000080: 4d1c 9181 c87c b4bf 2389 98ec 19ba a33f
00000090: 0095 6bdb cec1 2e3f 72a9 e316 1457 b4bf
000000a0: fce0 8434 e0a9 d43f 4a06 5c09 cdb5 ddbf
000000b0: 70ae f8a9 4bfe d63f 28d8 65e0 e725 80bf
000000c0: 92b2 4f9e ecf0 c9bf c070 801e 47da b33f
000000d0: 3e5e 21ae 6a66 dfbf 38c7 0aeb f124 dbbf
000000e0: 64fc ac59 f52f b2bf 5977 809f 09a6 d53f
000000f0: 7b8f e0fe 8295 cebf 18ae abec 783d c4bf
00000100: 0163 cefd 0ef8 c03f 1898 d550 6971 b9bf
00000110: 8cc9 ae7f dc85 b5bf ed07 950f 0046 d4bf
00000120: fb1f 7992 f74b b8bf 9afe b6d1 55b3 acbf
00000130: ed23 e314 0488 d0bf 56a0 441d 220b 973f
00000140: e621 eb4f 5b68 b6bf ba87 edcc 703e df3f
00000150: ee09 417b c433 d7bf dfa4 5805 39d1 95bf
00000160: fc8e 7edd e9f0 c83f a00f d18a 8514 c7bf
00000170: a8b0 2951 7345 b73f 96a9 5a0a 5b9b dc3f
00000180: f0dc 60c0 b512 dfbf 067f 61fd 0414 e0bf
00000190: 6459 1b4d d898 c4bf ce4b d79c f041 cebf
000001a0: 15c7 538d ffed c63f 55f8 292d 6de3 d9bf
000001b0: 3a37 f305 5e44 e2bf 2919 e86d 8e21 b23f
000001c0: 5fcd d3e5 403e debf ed27 7652 c62f dfbf
000001d0: 40e1 e3ef c6c7 d13f 9efc e645 510e 9fbf
000001e0: 6463 f709 f160 d5bf 6838 88b0 1726 e23f
000001f0: 029a 26ca 4370 a7bf 0f48 22b7 452a dcbf
00000200: 39f5 d5df 65ec d03f ba5b cd2b e52a a6bf
00000210: bf90 f9de fd03 de3f 2d34 6d5c 3296 a23f
00000220: b9fa ffb5 11ea 923f 51b2 c5c1 ada6 e0bf
00000230: 15a2 06a7 2e6b d9bf 5539 46cc 1a4f c0bf
00000240: 78fe 8d34 2a66 c0bf bb4a 7e10 f75a d1bf
00000250: 966a 7994 b327 d83f 88f0 f9d3 e8fa 9dbf
00000260: 414b 8457 007f d83f e337 5be6 4f66 ce3f
00000270: 4e6c 160b 359d c3bf a2c9 192e 8660 90bf
00000280: d15b 7ead f550 c93f 879d 2d8f 7de2 d1bf
00000290: f9f6 a5df e4be b43f 1fdf de25 8761 bf3f
000002a0: 0dc3 7bc1 c390 d1bf 785e 13e9 acb1 7bbf
000002b0: 55da a4b0 4c4c ddbf 8cec a4ab 98a8 cabf
000002c0: 4d98 7b8b 07af a6bf 1542 7904 67d9 cd3f
000002d0: 2302 1546 6846 c73f 82d8 d8ed 123a debf
000002e0: ccb6 388b f6ca c3bf 69af 4d5c 43bf d23f
000002f0: 0ba0 2186 d9b0 d9bf b419 0f23 d536 d43f
00000300: 144a 0f3d fdc0 bfbf 9a5a d1a9 3fa9 7ebf
00000310: 8d7a 9677 ab45 96bf 71f2 d2e2 2f74 b53f
-0.46974484332856403 0.07072327782128159 -0.15556909735577934 -0.44815894318596955 0.09525944417811763 -0.3652972512629942 0.34453344294003835 0.2539582827618492
-0.23767761966949058 -0.04610569438645196 0.1290713534399992 0.0363307397165304 0.18311231089940888 0.09843543925659737 -0.1403192318832287 0.15015334864888
-0.08002904093983539 0.038529214984253345 0.00023465776549539547 -0.07945371207066446 0.32286839608015305 -0.4642212478066524 0.3592709693791454 -0.007884799514368337
-0.20266492586178636 0.07754940504713925 -0.4906260204784053 -0.42412994340257937 -0.07104428710316452 0.3382591302523586 -0.2389377350347067 -0.1581259875887191
0.13257014649277468 -0.09938677047247813 -0.08407381169562295 -0.3167724754495101 -0.09490916563038347 -0.05605571923251525 -0.2583017543770996 0.02250340751302845
-0.0875298566926471 0.48818607342229436 -0.3625346377995403 -0.021305933905897297 0.19485209765581846 -0.1803137710395477 0.0909034798766607 0.44698215495250204
-0.4855169657416374 -0.5024437855572337 -0.16091445698720996 -0.23638732584239935 0.17913813019509264 -0.40450601015607407 -0.5708456150257242 0.07082452948825292
-0.4725496525199641 -0.4872909360207121 0.2778184263875296 -0.03032805432462437 -0.33404184315945984 0.5671499679463183 -0.04577838747654896 -0.44008009800120446
0.2644285856147977 -0.04329601440138427 0.46899363303078795 0.03630216005567664 0.018471028073686144 -0.5203465256323146 -0.39716688452838983 -0.12741408323604256
-0.1281178242315837 -0.2711770688121466 0.37742318629686034 -0.029277456224449355 0.3827515463500966 0.23749731777064573 -0.15323508302103267 -0.015993210376515805
0.1977831933151877 -0.2794488809799635 0.08103781185306137 0.1225819079835415 -0.27446073431842494 -0.006761241370632491 -0.45778195619951606 -0.20827015286508688
-0.04430411889715966 0.23319709509316114 0.18183616086936735 -0.4722945521092542 -0.15463144109656068 0.29292377485284377 -0.4014190492512177 0.3158467142460737
-0.12403853169170304 -0.007485626873935525 -0.02175014417081882 0.08380412376113512

W_xh f8 [10, 82]
00000000: 2dd9 4cfa 84e3 c93f 9b73 e0cc 2842 de3f
00000010: f3e3 882f 86f7 d9bf 1cda f93a ad33 cc3f
00000020: 3a41 63ee bceb d93f bb14 4f1b 4d5b b43f
00000030: 011a e2fc 4020 c53f d855 87dc 7d55 6a3f
00000040: 1813 f010 db86 de3f 3d7a 5639 7e92 df3f
00000050: 4004 0e3b b266 ccbf 9fc8 5ebd 0cf2 bb3f
00000060: 61c5 5958 1411 da3f 0229 ac9e 7da2 d1bf
00000070: 602a af06 cf4a 69bf 2aaf 4505 68d3 c0bf
00000080: 1d91 df6b cc3d b4bf 40a9 2b08 0c99 8bbf
00000090: 78ff 9c0b 1d71 65bf ed56 90ee 19d7 b33f
000000a0: 64bc 10bb c47f d43f 9773 e2eb a34f b23f
000000b0: 5452 28bc 8acc e03f 2d2a 7e44 5e64 d6bf
000000c0: a9b5 8eb0 5c55 d93f 3812 2a2c fde8 d63f
000000d0: 5ab9 a82e 3bdc aa3f bd21 e558 fb4f c53f
000000e0: 3c12 bb5d b096 d2bf 6300 6600 e2b7 d33f
000000f0: c0e2 7609 987f 633f 5792 eed9 f100 d13f
00000100: 6c61 2e14 d52d d23f 4d12 da91 ec88 953f
00000110: 2e11 98db 9053 c43f b4fa 2a22 9f01 e03f
00000120: 2ec3 160e baa9 d8bf aa21 fa07 dc67 c33f
00000130: 78ec 49bc e8cc a13f 14d2 6a5c f8fa af3f
00000140: 76f7 50f6 dd82 d8bf 3321 1fe3 cd48 d43f
00000150: 4092 5240 a977 3cbf 1a8c e1eb 58e3 a33f
00000160: fcbb 4fac 62f3 c23f 3713 61bc 989e c03f
00000170: 11ba 4f49 73a9 a43f e997 d1ed 13af d13f
00000180: da05 3e17 8ec4 d8bf f0f6 02a8 910c e0bf
00000190: 54e3 c270 04a8 db3f f86a 7ca7 8137 c2bf
000001a0: 9058 2bf4 cf5a cb3f ba9f c240 4745 d23f
000001b0: a593 8352 7656 db3f 31f1 8bdd 8e9f d8bf
000001c0: d2a0 0de4 1b31 be3f 4400 be6d 982b dbbf
000001d0: 4cc2 8507 2d18 b5bf 0095 488c b37b d13f
000001e0: 3a7b ec0d 33f6 d2bf 2faf 430b 4f30 dabf
000001f0: 4e7a 4f61 6120 d63f 696b e5e5 d048 d5bf
00000200: d516 34ea 24b4 dfbf fafa a1d1 409f cd3f
00000210: 69ee 1545 ba77 ddbf 9e01 5d8c 98de db3f
00000220: 2bb6 ceef c14e d2bf 6cc4 8a92 020a ddbf
00000230: 4fdb 0ce9 4f09 c8bf 842d 8506 c042 bfbf
00000240: e568 7f77 37f4 b9bf da7e 59ef 7d68 8abf
00000250: cdd4 4ce8 a6e6 d73f 19ca 2ee4 efd2 d73f
00000260: 86fc 3d01 a326 dd3f 1fff c660 347d d73f
00000270: 953f 2ad1 6c25 db3f 5ea0 be3a b742 d13f
00000280: 95f2 e5fc fba1 92bf 812a 6fa0 3a92 9b3f
00000290: 818b 6ec0 0c14 cdbf b083 c5f6 188c e5bf
000002a0: b07e fb34 191f eb3f 167f 83bd d8e4 d3bf
000002b0: 0186 98f3 4c40 e5bf 08d6 a6a5 ce05 973f
000002c0: a16a c841 8311 adbf 0efd c5a1 50d6 e1bf
000002d0: cac2 8baf 1e40 e3bf 8e59 95ee c163 f1bf
000002e0: 2a3e 924e 23e9 b43f 1ae0 d476 69f9 b3bf
000002f0: 153c a347 a60f ebbf 33ed 1b95 e790 e03f
00000300: 05c5 cf71 a122 cdbf fc3b bda9 236e b4bf
00000310: ab5b 924d 3587 d93f bb74 4a1b 359b dc3f
00000320: ce6b 4e6e 8e2d b6bf 095d 69ef 89f8 de3f
00000330: fff6 d0c9 c076 d9bf 3b67 72dc 7a58 a0bf
00000340: a152 a35f e78f d9bf ed95 9329 9940 e23f
00000350: 7882 a67e 6fa0 e0bf 0223 d7ee 70f9 eabf
00000360: 3ad5 427a 9969 be3f 478d 05a3 fdc8 e5bf
00000370: 8854 aee5 8ce1 da3f 5aad a244 ce3e d13f
00000380: 47cc 72b6 f41d e0bf db25 1ca5 b955 d03f
00000390: 76ba 1d15 b319 a9bf b658 a204 e472 dfbf
000003a0: ad69 8b57 b5b5 9ebf dee7 4f2f 747c dbbf
000003b0: 1e68 cf35 ce40 d93f 5390 7177 80a6 c1bf
000003c0: 17ce 1be9 5d3a d8bf ee45 d38c f512 c93f
000003d0: f7ab 3e93 e8d6 bb3f 4e1a 2e53 31ae ba3f
000003e0: 38a8 8360 879a d53f b71c 43b7 b74c b03f
000003f0: e46a 325f c1de bb3f 98ab 3216 a21f 733f
00000400: 5f5c 6c6b 0731 d23f 378d fce0 17ac dabf
00000410: 64fe dc36 ad85 e23f 703d 1999 ab83 d73f
00000420: e2b3 1b3e 802a e9bf 67f8 00a7 992f cd3f
00000430: a9ba 4046 d467 dfbf 6f82 8fb2 b564 debf
00000440: 85d1 74e9 a5f5 d0bf fa95 6c43 34a5 ce3f
00000450: 481c 2d69 3191 6e3f f32e b97d e977 d4bf
00000460: cf34 51b3 d949 ce3f 0bb1 9a54 0277 e0bf
00000470: 2148 4643 cb1e a53f 8012 212e da10 3a3f
00000480: e016 3b1c 7996 603f 9c2f c508 d1ea e53f
00000490: 39cd 41cf 34cb e03f e81a 51ab deb5 bd3f
000004a0: f20a 0db7 7180 e13f 8576 677b be33 e6bf
000004b0: 8ac2 b4ca d339 e13f ca9c d9d4 d84c ccbf
000004c0: 1666 25a9 4e3a dbbf 3af9 dcad 67c8 d0bf
000004d0: 3328 9413 bfff d3bf 631a 4d8c 220d c3bf
000004e0: 41dc 6d7e 23fb e6bf 9eab ae87 57f0 e2bf
000004f0: 82f2 9ffe 8680 e4bf c423 f880 dd8b e2bf
00000500: 5d2b 81df 638b c5bf 708d 8df3 f057 d7bf
00000510: a8fd 0287 18a8 a8bf 043f 70da 868f a63f
00000520: 1aeb a39f 3bf4 c23f 1f88 cba8 f95a cf3f
00000530: b791 d4ff e66e e0bf f651 d738 2538 903f
00000540: d64c 9fb5 67f3 c53f 679f 176a ae2e a13f
00000550: 3e72 7ef7 9c5b b73f dc2e 7c00 399b c43f
00000560: 4830 7109 0fcc d43f d1ad 6565 f4cf da3f
00000570: 50fb eb7a c81e babf 2604 e514 88e9 9b3f
00000580: 314d 6a19 ae2d d73f da4f 7cf9 f7e4 dcbf
00000590: 2536 94db 0344 bd3f 5e3b a103 8d7d 9c3f
000005a0: 4477 3ad0 6576 9ebf 3a8f 5430 0288 b5bf
000005b0: 601f a2fd 629c a4bf 4f18 1198 204d cb3f
000005c0: 1397 a47b d0ee d13f 46b4 9ab9 4a19 b03f
000005d0: 68ee 4fb6 1651 ce3f 4fdf 3998 b8e4 d2bf
000005e0: 9edb a14d 1486 c13f 9870 477f 544f ce3f
000005f0: e52e 6bc3 87e7 b8bf cc05 f511 2f35 ce3f
00000600: 9dde 0d70 cb1d d0bf b3d7 b8c7 ec9d bbbf
00000610: 00db 0204 c4fb bcbf cced 2b6b 3e77 b53f
00000620: b2a2 8596 633a bb3f e47e 8907 77df 933f
00000630: 11af 71b5 3dd7 a03f 4dce fa78 d7d7 d23f
00000640: 375d 86b1 3d5e d4bf 6d13 c894 9a54 af3f
00000650: d57f fd9c 48cd c13f d334 e16b f58f c03f
00000660: e07e b6a9 3b8b 5cbf ed5b b36b b68c d63f
00000670: 52cf ce26 fc6d 9f3f 7bae df52 5210 ba3f
00000680: 5ae2 bcd7 1a87 cc3f 1d47 ecde 5786 d23f
00000690: 8435 79e7 e4cb 913f 3cfd 5210 5ec2 bb3f
000006a0: c086 555d fbe5 debf 8a73 e556 59a5 d1bf
000006b0: 8fef cb16 73f4 d63f 39bd 3b9f e9fb c0bf
000006c0: 220d f0c0 5e2b cc3f 779d 10ad 0dfc bc3f
000006d0: 5c2c 273d 9092 c63f 23c2 fcba a4a7 bcbf
000006e0: 2578 a64d 7e36 86bf 9a0f 39e1 f76a c23f
000006f0: 073f de38 4452 b6bf c7e2 2fc5 e07e c13f
00000700: 6185 8af6 3ed3 d0bf 33c4 49a8 baaa cfbf
00000710: a867 d87f 2e3d d43f d7ac fd7d 78f5 e0bf
00000720: 56f5 875d bd0d d8bf 9d63 866c 80c9 c03f
00000730: 7b8f f47c e876 d3bf 5fbd 9c78 68f0 d73f
00000740: 0188 3c0b 6ef5 d2bf fba3 182e c150 cebf
00000750: a358 c809 a4b6 b6bf 6d80 eadc 781a a83f
00000760: 46d1 a409 808d a5bf 9002 f0cb 8291 7a3f
00000770: 053c 7c94 0cfa df3f f7bb f533 f824 dc3f
00000780: 7a60 2e91 580c dc3f 394a 8feb b147 e03f
00000790: ed7d 67ce a0c6 d63f 70a4 0384 fb56 cb3f
000007a0: 42a7 7baf 0b69 bcbf fcc6 d803 c717 a8bf
000007b0: 561c 201b 7bc0 a93f 3889 05bc fc0b dd3f
000007c0: 1de7 f060 2d98 d1bf d45a 8063 1496 ce3f
000007d0: 0530 5657 a6d6 d33f 548b 7550 9c09 b3bf
000007e0: dfe8 ecd1 b209 b43f 4b95 1d96 b776 d33f
000007f0: b945 3297 9d44 d93f 3b01 3df0 9d24 df3f
0.20225584241570385 0.4727880478620194 -0.4057326759535151 0.22032704715430007 0.4050133064274807 0.07951814572068631 0.16504680965245203 0.003214593718648056
0.4769809403808707 0.49331622695345684 -0.22188403972180204 0.1091621363000592 0.40729244831080363 -0.2755426454101696 -0.0030874293783871715 -0.1314516092055496
-0.07906797059655842 -0.013475507735581815 -0.002617413262583964 0.07750093530952613 0.3202983691034602 0.07152771481419361 0.5249684977484983 -0.3498759907603553
0.395835087222475 0.35797051728176 0.052461480565727484 0.16650335159853383 -0.2904473224009825 0.3080983165637063 0.0023801774475170345 0.26568266184248074
0.2840473839837816 0.021030136491861296 0.1588002273785007 0.500197951063305 -0.38535930038328814 0.15160704030519173 0.03476645754286606 0.06246162536755065
-0.38298749021838974 0.3169436185821894 -0.00043437845335806205 0.03884389762313152 0.14805253423352827 0.12983998487666223 0.04035530347742989 0.27631090378269946
-0.3869967677092895 -0.5015342980838948 0.4321299649414432 -0.14231892278697678 0.21370887205438693 0.2854784138130487 0.4271522336769585 -0.384738651613378
0.11793684308725297 -0.4245358535481538 -0.08240014489798247 0.2731751317936215 -0.2962768207525418 -0.40919853305853143 0.34572634222960097 -0.33256933642194625
-0.4953701293128295 0.2314225219342559 -0.4604325937905061 0.4354611750350389 -0.28605698031137433 -0.4537359648775865 -0.1877841842594656 -0.12211227568803024
-0.10138270060943773 -0.012894615046377057 0.37345287976797864 0.3722495773646713 0.4554831993227214 0.36701688242827574 0.42415924478790973 0.26969700562267984
-0.01819604617183986 0.02692500690663247 -0.22717437168202184 -0.67335174748961 0.8475461993038689 -0.31084269053643376 -0.6640991933565489 0.022483090267732236
-0.05677423646939884 -0.5574114951740812 -0.6015771320945416 -1.0868548698104834 0.08168240230792692 -0.07802447463188891 -0.845660343091256 0.5176885521208646
-0.22761934334952386 -0.07980559247992852 0.3988774545227282 0.44697311082002117 -0.086632635050065 0.48391960506474213 -0.3978731127607346 -0.03192504826547667
-0.3994081911053318 0.5703855335274831 -0.5195844148293665 -0.8429493584490901 0.11879882082833584 -0.6807850059525798 0.4200165026644034 0.26945835783654604
-0.5036567271657838 0.25523224948900997 -0.0490241969372293 -0.4913873715644387 -0.02999003741101951 -0.42947105999303214 0.3945804143419326 -0.13789373237807698
-0.37856242908967047 0.1958910882590738 0.10874799342006712 0.10422046929134263 0.33755669045661163 0.06367061828778985 0.10886772703308228 0.004668839598859352
0.2842424916320336 -0.4167537400373535 0.5788179465816481 0.36741151762995283 -0.7864381039668127 0.22801514296037625 -0.490712231260583 -0.4748968356853202
-0.26499316976994464 0.2394166306705044 0.0037313427978094317 -0.31981885221169576 0.23662873512004132 -0.5145274784495383 0.041250564539169206 0.00039773298897597537
0.0020248761591997594 0.6849141284269424 0.5248054550160425 0.11605636293925736 0.5469292235578378 -0.6938164148557041 0.5383089980224025 -0.22109518426007063
-0.425433793241241 -0.26223175028634993 -0.31248452102647944 -0.14883834696429962 -0.7181565732306653 -0.5918386125607531 -0.6406893704548369 -0.579573394673496
-0.16831634915646534 -0.36474250587908497 -0.04815746925441583 0.0440637723587525 0.14807839674889395 0.24496384374566646 -0.5135378834425443 0.01583917769842632
0.171490634615657 0.03355927510329942 0.09124165575344365 0.16098701976476704 0.3249547569473674 0.41894254591053676 -0.1020322132207927 0.027258039737038463
0.36216309053380075 -0.4514751373656033 0.11431907759489286 0.02782268843321433 -0.0297485264151114 -0.08410657577456684 -0.04025563570127022 0.21329123902450184
0.2802010734034052 0.0628859236846476 0.23684963132824355 -0.2952100264151242 0.1369042758048779 0.23679596152112903 -0.09728287239994023 0.23599804283916936
-0.2518185228613932 -0.10787849308039092 -0.11321663949898308 0.08385076633924554 0.10635969567159512 0.019407138667132964 0.03289215888875508 0.2944239312593922
-0.3182520135537347 0.06119235101872431 0.1390772596887461 0.12939327018322064 -0.0017421801229388564 0.3523384143604165 0.030692996853488204 0.10181154750142156
0.22287307294915842 0.289449660967067 0.01737935698320349 0.10843456171550242 -0.48278698076874704 -0.2757171009632705 0.35867001749260735 -0.1326877620226499
0.2200735513762107 0.11322102999894477 0.17634776102053962 -0.11193303647156276 -0.010846125359247403 0.14388941285335194 -0.08719278705961751 0.13668450954698683
-0.26289342952994416 -0.24739773957438302 0.3162342308511321 -0.5299646816978577 -0.3758386052503132 0.1311493425280589 -0.3041325779215566 0.37404834536115134
-0.29622984978971095 -0.23683943510812341 -0.0887243770488078 0.047076966254508835 -0.04209518544886008 0.006486426281299487 0.49963678837315256 0.43975644182404444
0.4382535379204523 0.5087518311286835 0.35587330013910795 0.21359199472434254 -0.11097786936047974 -0.04705640718419876 0.050296637593469626 0.4538566433094675
-0.27491316286942596 0.23895506723848448 0.3099761822602434 -0.07436539615950483 0.07827298760540512 0.30412091884348474 0.39481296315451747 0.48660992108127105

W_hy f8 [10]
00000000: 93d4 8f70 1481 c7bf 759a 4bcd 5d9e aebf
00000010: d741 187c d991 c73f aac6 9bd1 115d a33f
00000020: 825b 82de 7ead c3bf 33c9 a3f2 d4ad b83f
00000030: 03c4 5785 4b8e d2bf 048b 0374 e665 b4bf
00000040: c532 8baa 0a32 b33f 30f6 f230 b463 c03f
-0.1836267041796061 -0.05980198985144095 0.1841384750300807 0.03781943973252784 -0.153732165000033 0.09640246318648309 -0.2899349977661247 -0.07967987377518787
0.07498232520738231 0.12804272070018063

b f8 [10]
00000000: d76f ec54 2d0e b8bf 21f1 c49f e172 d4bf
00000010: c8d7 d603 e552 c03f cd2b 504e 16c7 bb3f
00000020: 71bc f0ef 7e79 d33f 1acc 84dc 9cc9 bcbf
00000030: 0267 bbda 1885 babf 5409 40e9 040a c73f
00000040: f0be 42c9 debf b1bf 8053 c891 6235 d0bf
-0.09396632502870204 -0.3195118007895577 0.12752974212133794 0.10850657855932795 0.30429051810910496 -0.11245136626966748 -0.10359340038430889 0.17999326123396975
-0.06933395780174201 -0.25325836407255764
