models/FINAL/rnn/rnn___6/2/strategic/model.pt (torch, 9103 bytes, 4 tensors)

W_hh f8 [10, 10]
0	0xbfbb6d5db0077dc7	-0.10713754222478321
1	0x3fb16c42f62b8bfc	0.06805819044124911
2	0x3fcba6c4db9bab87	0.216026885252486
3	0xbfb07fd3ca0fa608	-0.06445048983700741
4	0x3fbc85cbe53c0844	0.11141657206101835
5	0x3f81a2db62bf633f	0.008611406279599996
6	0x3fd9bd0e55cbccbb	0.40216406229519536
7	0x3fd3584d4465bb12	0.3022645156806202
8	0x3fc122867acdcdc4	0.13386612888608174
9	0x3fd4f95bde004a8a	0.32771965675161907
10	0x3fd17e37ea2f2140	0.27332876081029056
11	0x3fe1e2010f2491ee	0.5588383956679175
12	0x3fd62e81cf278ae4	0.346588566111832
13	0x3fcaeaacdb23e7a5	0.21028671932418522
14	0x3fd6a1785aae394e	0.35360535483859656
15	0x3fd2aee4240b3613	0.29192451019193405
16	0x3fdaf4dcb087b4e0	0.421195194618873
17	0x3fe0dc67bcde18fd	0.5269049347705558
18	0x3fc3325b20c2e477	0.1499742422072676
19	0x3faf459d574be528	0.06107799234991723
20	0x3fd2039970c64bca	0.2814696885408777
21	0xbfb2fc99c2054e6f	-0.07416687952837163
22	0x3fd56825b23d707b	0.3344816437363602
23	0x3fb1fb143c455ed6	0.07023741218051369
24	0x3fccc2f37a5965d8	0.2246994349869016
25	0x3fab96d27195cc8f	0.05388505589044101
26	0xbf98476e8c148dfe	-0.023709990787336814
27	0xbfaba12871946f14	-0.05396391283485805
28	0xbfb36bef4127c969	-0.0758657011099665
29	0x3fd1ca9588489bfc	0.2779897528548074
30	0xbfd0d995f3aac6c3	-0.26328038020720274
31	0xbfcb79e8537808a7	-0.21465782237652783
32	0x3fbf2d555ab09b8b	0.121785483018
33	0x3fbeb378681dc8b7	0.11992600004103592
34	0xbfbdbc317ed74f28	-0.11615285250382767
35	0xbfd5816da466eb30	-0.33602467589269036
36	0xbfc6ed690390a0e7	-0.17912018465108945
37	0xbfbf07333f0cb9c0	-0.12120361604022545
38	0xbfd0110d748b9569	-0.2510408056389993
39	0x3f8c4ef955b43439	0.01382250588224042
40	0xbf870592a1454837	-0.011241097971524379
41	0x3fc4352daf3f2127	0.15787287766421196
42	0xbfd3b15bdb420308	-0.30770012294674176
43	0xbfac77d7508187e0	-0.05560181482066162
44	0xbfc514460b84420f	-0.1646812015756187
45	0xbfc0de8c033cef4a	-0.1317915931521106
46	0xbfd6eea37ed53575	-0.3583153475381871
47	0x3fc23e3fd7d642b9	0.1425247005359063
48	0xbfdd4f3f9e42515c	-0.457961945104463
49	0xbfd9a91e8a0472e7	-0.4009472225023231
50	0xbfc6732cc22190d7	-0.17538985709246077
51	0x3fbba9fef43373e5	0.10806268178880847
52	0x3fc7058871b05bb3	0.17985635329452307
53	0xbfd447d799ea16b3	-0.31688489943222037
54	0xbfcac196bf36c20a	-0.20903286301246765
55	0x3fb343739bddbf2e	0.07524797969176397
56	0xbfb73993d61f021f	-0.0907223127133041
57	0xbfc62faf5adcf932	-0.17333023010901055
58	0x3fd267ffcb04fe19	0.2875976069080664
59	0xbfab5fd668ca4507	-0.05346555737663477
60	0xbfc582bf7c9046d1	-0.16805261213499148
61	0x3fcc242dc94c15d6	0.21985409096684688
62	0x3fb96a7249ea25b4	0.09928049377972209
63	0xbfdb4b9c7e348806	-0.42648994755484215
64	0xbfc23f81eee495e4	-0.14256309666340805
65	0x3fbaee671036eae6	0.1052002348505244
66	0x3f7cbbf220ed049a	0.007015176596554396
67	0xbfd4572a64a7d84e	-0.31782016591694606
68	0x3fc1e7b7f3bb44b6	0.13988398934319485
69	0xbfd4e7f3c466c1e0	-0.32665723972152527
70	0xbfd85c90ba59b5a3	-0.38064974020275083
71	0xbfd7c59becdf752a	-0.3714361012660726
72	0xbfc159a4a2076b82	-0.1355481902272367
73	0xbfd5c62fc478f227	-0.34022134958994105
74	0x3fbe930772d2c0eb	0.11943098595907357
75	0xbfa5e6939e401ae4	-0.04277478510635094
76	0x3f907562098438d8	0.016072780447807883
77	0x3f930663bdb9a5b5	0.01857906194201116
78	0xbfc7e0fe4a72da7f	-0.18655375132739846
79	0x3f913a439466bb6e	0.01682382195729864
80	0x3fcd02917409c600	0.22664087453772197
81	0x3fab90ec593adc87	0.05384005154831422
82	0x3fbfeba32801083f	0.12468929030095043
83	0x3fcf683d467491ca	0.24536863269999137
84	0x3fb33602ea04779e	0.07504289830509811
85	0x3fa319ebd381b0a2	0.037307138031651435
86	0xbfb432adbd65c513	-0.0788982951542219
87	0x3fb7702b8f339433	0.09155533071641812
88	0x3f884ef3701e2f2c	0.011869336947504992
89	0x3fd0450f788f939d	0.25421511434097416
90	0x3fc37c615b27f315	0.15223328543643136
91	0xbfc60d4bbe781f8a	-0.17228075790648872
92	0xbfc5a7871d1f4d2a	-0.16917504236207864
93	0x3fd8e7611b1160b9	0.3891222729048525
94	0xbfb001e943ca8721	-0.0625291624551463
95	0x3fd39218a1560901	0.3057920051143271
96	0x3fd00e350aeaa1ad	0.2508671385390027
97	0x3fd1cb4abe986e20	0.27803295719943044
98	0xbf91f9a4ee032b82	-0.017553879763720477
99	0x3fa510f7758fcd0a	0.04114507017211551

W_xh f8 [10, 82]
0	0xbfc2aa9a22e23d04	-0.14583136275584974
1	0xbfba7167b4679e82	-0.10329292444623131
2	0xbfd7418fac5759fe	-0.3633765395183274
3	0x3fd569bf1e679d08	0.334579257671479
4	0x3fd35b15838c3d56	0.3024343285223571
5	0x3fb5f5d136266c33	0.08578212329887051
6	0xbfca0b806ae079b3	-0.2034760019168523
7	0xbfd32a558a97e292	-0.2994588712167935
8	0x3fb4d0c331d1b273	0.08131046263015111
9	0x3fd9ee18a59543b6	0.4051572434446443
10	0xbfd5a996093bb388	-0.33847571279221045
11	0x3fd27a95db91b760	0.2887320179205428
12	0x3fca6421f472549d	0.20618080554837528
13	0xbfcc675ad5c17469	-0.22190413892068087
14	0xbfcf8c84c87c75e7	-0.2464757899223706
15	0xbfb71e7decad8354	-0.09030901935831298
16	0x3fcf34cbee00ab73	0.2437987243768834
17	0x3fd099f91829f759	0.25939776763686023
18	0xbfd6eac26169c53e	-0.3580785704899262
19	0x3fd5e5c200b1ae73	0.342148304631997
20	0x3fd91568827f4ff2	0.39193165534857066
21	0xbfcc64e780f418f7	-0.2218293552070418
22	0x3facd7a2fd220e4f	0.056332677269008806
23	0xbfd8a1c50c04f9a6	-0.38487363981030354
24	0x3fded126108dcdcd	0.48151542297929667
25	0x3fcc9922382ba533	0.22342326872539217
26	0x3fc53f1a79683201	0.16598826339794928
27	0xbfd1285d717a810e	-0.26808868486297477
28	0xbfc3adfea45a070e	-0.1537473967073812
29	0x3fd4d65be5aba6d1	0.3255834334255328
30	0x3fca13319fad23a9	0.20371074959464622
31	0x3fd5cd88985225e6	0.340669773817892
32	0x3fd0e54447b5707d	0.2639933300286044
33	0xbfd4ebb6b90a7a45	-0.32688682623294013
34	0xbfb729f96e528fa3	-0.09048422759457124
35	0x3fd228fdaca4706e	0.2837518869362218
36	0xbfcaa69ab76b9748	-0.20820936161106318
37	0x3fb788d06563b87a	0.09193136668520366
38	0xbfcef2c1faa635c5	-0.24178337801678942
39	0x3fdc6b4e7e71b775	0.444049476128263
40	0xbfbca64a175b151d	-0.11191237516603221
41	0x3fc253dafdfbb12b	0.14318406487962795
42	0x3fc7ad9dc7945cb9	0.1849858498105499
43	0xbfcc2baabb43d370	-0.220082608640634
44	0x3fd6d7c0542d09e7	0.35691841335588353
45	0xbfc1434c042f3007	-0.13486623958885977
46	0x3fd39cee93ed7554	0.30645336576511295
47	0x3fdc743237862cfb	0.44459205076482505
48	0xbfd786f0e1000984	-0.3676111409441989
49	0xbf63661e43cf76d0	-0.0023680297003768405
50	0x3fdb1b10caaffd6a	0.4235269526834232
51	0x3fc078bf9fba37ce	0.12868495272817743
52	0x3fcf815ee454567e	0.24613557957552595
53	0x3fce1dcdf2c43368	0.23528456071690163
54	0x3fd9eda8fa876223	0.40513061967570446
55	0xbfd3b8532127a89b	-0.3081252883699876
56	0xbfc20a22c29b59bb	-0.1409343195179654
57	0xbfc6e3050f7a5360	-0.17880309348825119
58	0x3fbf31ad2ae11781	0.12185175225121549
59	0x3fc13ec188f9c876	0.1347276610209211
60	0xbfceb376337fce00	-0.23985173716174302
61	0xbfd70c4bc6560fde	-0.36012548798339405
62	0x3fcd37eac85944af	0.22826895506526543
63	0xbfd05190cfae37c8	-0.2549783733492146
64	0xbfce91c921e57c16	-0.23882402567957745
65	0x3fd1a6cc07a81f15	0.2758054804585169
66	0xbfd7c2542b7889e8	-0.37123588795853246
67	0x3fd65924b49228e0	0.34919088014488686
68	0x3fc16cb544f8db98	0.1361300074365459
69	0xbfd3ad21a754b14f	-0.30744210568334024
70	0xbfc77d746c0dad52	-0.1835160758595103
71	0xbfc75a5652081003	-0.1824443722290426
72	0xbfccc3ca36b95285	-0.22472503349367315
73	0x3fc41c82fb7ea347	0.15712010650647754
74	0x3fd299914b76d5d6	0.2906230198817331
75	0x3fd170b3301eb770	0.27250365924088893
76	0x3fd5dde69280b517	0.341668742245774
77	0x3fd01a7223d42824	0.25161412714862963
78	0x3fd1eff1e3a741b3	0.280270073240014
79	0x3fda9bb8adbdc75f	0.4157544800465213
80	0xbfc68345aa604911	-0.175881107512915
81	0xbfca4c4877804cb0	-0.2054529746534164
82	0xbfde8ac43f486789	-0.4772196405407319
83	0xbfe3fae059cfba3f	-0.6243745569352724
84	0x3fe20aee58f2250d	0.5638343560432603
85	0xbfd09ccefc8d9c51	-0.2595708338107601
86	0xbfe78449ae9d9763	-0.7348984156094328
87	0xbfc4ea478224dbcf	-0.1633996377438209
88	0xbfe1dea6abffa77b	-0.5584290847157115
89	0xbfc18234c8705c00	-0.13678607737594461
90	0xbfe6d299d89ca38b	-0.7132081251812549
91	0xbfe6626c53a207b2	-0.6995145448165572
92	0x3f33f46589f690c0	0.00030448416688445487
93	0x3fc0045399ab22c3	0.12513203624100386
94	0xbfe386684ef267b8	-0.6101571599895044
95	0x3fdffe94f052ba71	0.4999134394555887
96	0xbfda93b191957400	-0.4152645036427316
97	0xbfe0a1ea115980b1	-0.5197649325237049
98	0x3fdd945da07d9294	0.46218052552129874
99	0x3fdd29c1c31fe3a9	0.45567363791593124
100	0xbf82a7484a433524	-0.009108128324806737
101	0x3fe03c2801fa1736	0.5073432959186224
102	0xbfd85ea6143a6ce2	-0.38077690101063244
103	0xbfdaa05a1b9ca226	-0.4160371083876576
104	0xbfdcc491bfc0c368	-0.4494976399028503
105	0x3fd76fd4b5534b1e	0.36620061595492526
106	0xbfdc63e58cbb2251	-0.4435972093893144
107	0xbfd8562499bd9d36	-0.38025774968851367
108	0x3fce395bf1c8e4b6	0.23612546258826733
109	0xbfd2f348afe41919	-0.2960988729177117
110	0x3fd2c6a1639a84c3	0.29337343909180563
111	0x3fd772ae21b9e489	0.3663745240551824
112	0x3fd856c2eccc644e	0.3802954971775464
113	0x3fe0a601886640ef	0.5202644027758917
114	0xbfaaa189f00a093d	-0.05201369338193949
115	0xbfde8a96aabf50dc	-0.47720877337020595
116	0xbfd4a5d766ce505f	-0.3226221565212252
117	0xbfe3df6cb5a78ff7	-0.6210235164585346
118	0x3fc76cca3efe5aeb	0.1830075080476584
119	0x3fd9f6e88c1f194f	0.405695092046149
120	0xbfdd1bf5f10b4385	-0.45483158626034764
121	0x3fbd4cea026e98d6	0.11445486602187613
122	0xbfca681c48b5e54a	-0.2063021998435864
123	0x3fc1c8a7b2a78ac2	0.13893600676882129
124	0x3fdb68708ca046dc	0.4282494900991034
125	0xbfd5e4a38e84c306	-0.3420800105841838
126	0xbfd32a7f1d5e5c2a	-0.2994687830736803
127	0xbfe412375ae7e5b0	-0.6272236609940389
128	0x3fe3cf0bc323f92a	0.6190241633737845
129	0xbfdb89fd311f1110	-0.43029718205458867
130	0x3fe2980fc68d311b	0.5810622098884183
131	0x3fd712da6b9d270e	0.3605257082859773
132	0xbfdcf4c96160baff	-0.4524405909495925
133	0x3f948cc464270371	0.020068234074418215
134	0xbfe199c27a1273bf	-0.5500194915981566
135	0xbfd738f70703ac4d	-0.3628518646716586
136	0xbfb51ab64c7c55b2	-0.08243884436918483
137	0xbfbe8af6337ab989	-0.11930788761922008
138	0xbfd67684f762be12	-0.3509838500858403
139	0xbfe0cd353ebb8e2b	-0.5250498032805287
140	0x3fbb59c74d496ef6	0.10683866154561969
141	0xbfd5a994c5366a76	-0.338475411024468
142	0xbfb22b04b6a93b8d	-0.07096890887735992
143	0x3fa3925483b9546a	0.038225785331328435
144	0xbfcd317a8bf48329	-0.2280724700331345
145	0x3fd9fa16bf4db285	0.40588921243651327
146	0x3fd270ce15a47506	0.2881350718833605
147	0x3fc7a6b7d12b21d8	0.18477533067040386
148	0x3fcc40d769cb95f9	0.22072880426200905
149	0xbfd8256f27c622fd	-0.3772848022859277
150	0x3fdf50adfc1600d8	0.4892992936875209
151	0x3fdb426715cbcf25	0.4259278977253749
152	0xbf8e573012952732	-0.014814734999749033
153	0xbfcb15d2b50ed042	-0.21160348740306928
154	0xbfd2c88706eb2ad4	-0.2934892242016478
155	0xbf9ff93a07cc25ef	-0.031224161840361416
156	0xbfdcaf6e92a8ff26	-0.4482075149753534
157	0xbfd23c503ca92c21	-0.28493123935612813
158	0xbfd0615b3237caab	-0.2559421530160459
159	0xbfd79bc159b48988	-0.36888154754901636
160	0xbfd61a39b6cca262	-0.34535067416667264
161	0xbfd5bcaae0c9091f	-0.33964034988106734
162	0xbfc18e9d2c008881	-0.13716473244227603
163	0x3fc7a9aa7245ab27	0.18486528949446177
164	0xbfc6907f40a9cffe	-0.17628470094098242
165	0x3fc1d6d48530d835	0.1393685961099337
166	0xbfe307950403c724	-0.5946755484021407
167	0x3fcf57c89893a857	0.2448664422038884
168	0x3fd467a509e491d3	0.3188259693727364
169	0x3fcc2a6262413c71	0.2200434665450959
170	0xbfb1b5cb90795a79	-0.06918022420118487
171	0xbfc96582679e9c8b	-0.19841032084989182
172	0x3fd8f70671cf6a20	0.3900772200992453
173	0x3fe11be456f7b97d	0.5346547792994866
174	0xbfd211cf7613f329	-0.28233706027076494
175	0x3fd18b9261912d15	0.27414378669773615
176	0x3fd38092b98fff38	0.304722481931083
177	0xbfdcb55d3f0e499f	-0.44856959493440657
178	0x3fc053de94df831a	0.12755949277109196
179	0x3fb65c9a2bb1e950	0.08735049788257254
180	0x3fc77840bfdc3ac4	0.18335732811143235
181	0x3fbebe65d4da0aae	0.12009273954940156
182	0xbfcac0dea47aaf86	-0.20901091605389527
183	0x3fd036ac88ea623a	0.25333703394565854
184	0x3fdf5f5e0f824e23	0.4901957656340718
185	0x3fb30e195fda4756	0.07443388548042881
186	0x3fc0f88b12fe97dc	0.13258493831125306
187	0xbfdc04442d04587c	-0.4377603950137041
188	0x3fd8d1d5e9e49225	0.3878073486432945
189	0x3fd7a4475a1a61e0	0.36940177725912626
190	0xbfc64bb72f00e9ef	-0.1741856555471055
191	0x3f7807ada734e40b	0.005866697628612814
192	0xbfd32504decd1d30	-0.2991344619553784
193	0x3fb9ca1e5f1d5fb8	0.10074033567559482
194	0x3fd2499c2b2d2e4c	0.2857427999158275
195	0x3f9fd8b0ce1ecce6	0.031100046711526462
196	0x3fd03ee3c924da39	0.2538384880348619
197	0xbfcba9260e1a83fb	-0.21609950722361745
198	0x3fc3691932779549	0.1516448494359486
199	0x3fd28021342dc889	0.28907041640844305
200	0xbfd5606fe51f6b81	-0.3340110528494549
201	0xbfb98f880ed874b8	-0.09984636652412149
202	0xbfb5f8b79c10da32	-0.08582637367440141
203	0x3fdba5d8b2664b35	0.4319974653418968
204	0xbfb82de7ce14890c	-0.09445046216254499
205	0x3fcd9aa8562112bb	0.23128227429892498
206	0x3fc726b63c412e33	0.18086889211768806
207	0x3fc7e7d76b5d28c0	0.18676274053934172
208	0x3fd7218c092d6f12	0.36142254730451484
209	0x3fc276d9c5915ee7	0.1442520346342839
210	0x3fbc41f77dba8bc4	0.11038157290981504
211	0x3fd0d76125a0f8a7	0.2631457202404683
212	0xbfdf76ed9f1cfa0a	-0.4916338018264531
213	0xbfcb44c2eeb95d30	-0.2130359330792344
214	0x3fdd334e7c421afd	0.4562565053424093
215	0x3fc932c15617dd2d	0.19686142638941231
216	0x3fdadc6eea55c491	0.4197041786602052
217	0x3fd2d024a0b54303	0.29395404523988605
218	0x3fe0376e48d5c55c	0.5067664549407414
219	0xbfd7578c0c1076ea	-0.36471844843059265
220	0x3fbf28a0f2c8fa74	0.12171369483346856
221	0x3fc0bfa7df1c191c	0.13084886926680717
222	0x3fd05063f3a3f368	0.25490664284716624
223	0x3fd880d6d6656c52	0.3828637212479339
224	0xbfd5157677f3831e	-0.3294349833868625
225	0xbfcd45db887f51ed	-0.22869438328656547
226	0x3fd86292dd118075	0.38101646031100894
227	0xbfd9af045e5aab21	-0.4013071938922384
228	0xbfbf0ae6d6c1aee4	-0.1212600969608349
229	0x3fdbced524126908	0.4344990589394375
230	0xbfd5bd449ee9e18d	-0.33967700499445
231	0x3fd01bc20536dd14	0.25169420727930114
232	0xbfb058368932dbd7	-0.06384602403237181
233	0xbfd847ccb18bc8b7	-0.3793822988365138
234	0xbfd468148a23d548	-0.3188525532744575
235	0xbf9215c518db26d0	-0.017661170618146482
236	0xbfbc760a5ff19c22	-0.11117615549447682
237	0x3fb78c535f4236cd	0.09198494983339885
238	0x3fd7fbe3136b0af7	0.3747489633207545
239	0x3fd3f185576d7d3e	0.311616263750654
240	0x3fd5084563ec8544	0.3286298251933497
241	0x3fd7002c8c164765	0.359385620883691
242	0x3fd69046924ed11c	0.352555888060367
243	0x3fd92faa5e30dafe	0.39353427122425433
244	0xbfc975d232615580	-0.19890811405154452
245	0xbfbfbbf0a62afc9f	-0.12396148735841671
246	0x3fd22d6a3888eb9f	0.28402190705281244
247	0x3fe24e355f0ac6e8	0.5720469337740868
248	0xbfcf4a8534d9f10f	-0.24446168022758072
249	0x3fc53bb06965c126	0.16588406702386144
250	0x3fe477d442fbdbab	0.6396275814321276
251	0x3fccc04f86eb07e9	0.22461885536000573
252	0x3fd8a83b3fce0d54	0.38526803236910223
253	0x3fd304be8b2adbba	0.2971645697647848
254	0x3fe46119b4f51497	0.6368530783007768
255	0x3fc207053346c342	0.14083924297076506

W_hy f8 [10]
0	0xbfb64c0ac8c24538	-0.08709781075801437
1	0xbfe1cf3479f80457	-0.5565435774043505
2	0x3fd06db45c99f720	0.25669583361728776
3	0x3fcab15afd75fe93	0.20853745819112088
4	0xbfb3f99b06ebf674	-0.07802742880809338
5	0x3fa85ed32632fb87	0.0475984558229277
6	0xbfd81b848c846f73	-0.37667955133814884
7	0xbf93dd4c3d57de48	-0.01939887165460011
8	0x3fc2bda310dfcb16	0.14641226123748002
9	0x3fd07ed80fc443d0	0.2577419427844321

b f8 [10]
0	0x3fa68a4c3bb6436e	0.04402387837320175
1	0xbfcfeb6d76be7bb9	-0.24937217996645503
2	0x3fd0fdd4c91d6d1f	0.2654926265729091
3	0xbfb7b7aa1be59ea1	-0.09264624768331454
4	0x3fc0406888f28500	0.1269655865371888
5	0xbfb7b3bb9b69e226	-0.09258625549581065
6	0xbfcec3f08a4701f2	-0.2403546023542869
7	0x3f8dd0e99eec7b60	0.014558625376194179
8	0x3fa6a98525e590d2	0.04426208579642012
9	0xbfc395ecb8425f65	-0.15301283833536697
