models/FINAL/rnn/rnn___8/7/non_strategic/model.pt (torch, 9103 bytes, 4 tensors)

W_hh f8 [10, 10]
-0.2371226728248853 -0.12122300751449128 0.0770821077749398 -0.23731608566298418 -0.07479227838261725 -0.12321244875823141 0.20859321605433462 0.11976664013486069
-0.0023047537565837432 0.19442618555285895 -0.019317055932800198 0.2180015185943153 0.051939301259584986 -0.08753235921807845 0.017676909893832193 -0.013678309310901918
0.07426339051183593 0.17871015958798958 -0.14112000364899646 -0.23013140824220524 0.2342239157710988 -0.11142102575759681 0.2884286618937762 0.004255516998773314
0.18062364230182582 0.014702739537080792 -0.060691255517713344 -0.09966784090273603 -0.11579483419989953 0.22343153114055814 -0.24417807394772215 -0.01588132011623497
0.18287057717975289 0.24981146177521785 0.06272126650693548 -0.3048970296741466 0.04396384877830463 0.07475242061413154 -0.1955291318129208 0.050706495533834876
0.07800553438590331 0.2750293918854557 -0.2139563878649909 0.06626795254977091 -0.04596289599027426 -0.045228093625093245 -0.23967134002789164 0.26052338655657775
-0.3689953351037463 -0.3061369902362364 -0.12406190581055097 0.13083846324798312 0.22697502872711958 -0.30665016856105276 -0.19168638654291656 0.13047625028302928
-0.0702757717376294 -0.1574706057733577 0.3414589197254848 -0.010872336576344857 -0.10704039115704282 0.27613428621297087 0.16032615118479243 -0.3448732256349722
-0.08051299300037114 0.1587962205781717 0.06341406214450276 -0.25431770972307066 0.1953189461161432 -0.25847288733414553 -0.2539924018569856 -0.21362244122746465
-0.0035902816781151854 -0.1836474791471161 0.2771898346434789 0.08256282170168815 0.1768076765129013 0.17513060017933518 -0.05757053003425123 0.14751959066189205
0.21813751946843776 0.05043892741974809 0.11704600563982291 0.21447257861471697 0.06458199561583836 0.03654108884642131 -0.08239085739799196 0.07931960840571127
0.010776633708666819 0.23785247156301764 0.09829156498148121 -0.2234733776568512 -0.22229124156891245 0.31341018719718156 -0.12003405607169472 0.25946963844466236
0.2007030543127948 0.22044032511655998 -0.06472913596829696 -0.019598892248912002
00000000: 8c24 7626 095a cebf 1c29 cc94 7808 bfbf
00000010: 7507 002c a7bb b33f 425e 5e9d 5f60 cebf
00000020: 178c a535 9625 b3bf 156e e0dd d98a bfbf
00000030: 5677 8fb8 2eb3 ca3f 6ef1 87ca 06a9 be3f
00000040: 98c6 5040 6be1 62bf 54c0 370e f5e2 c83f
00000050: 800d f2ad d9c7 93bf 45a3 6b48 79e7 cb3f
00000060: dcf2 92c0 c997 aa3f 68f1 2e4c 8568 b6bf
00000070: 20ab 8d57 e519 923f 223a 3d99 5f03 8cbf
00000080: 5fd5 89f1 ec02 b33f 7e59 7279 f9df c63f
00000090: 7cee 3d64 3810 c2bf 9862 172c f274 cdbf
000000a0: 58c6 169d 0cfb cd3f f734 b79d 1686 bcbf
000000b0: 1505 847d 9d75 d23f 4f98 65a5 3b6e 713f
000000c0: 240e 49ee ac1e c73f 4275 c94b 781c 8e3f
000000d0: ac19 349b ec12 afbf fee2 23e5 d483 b9bf
000000e0: fe2e eff1 baa4 bdbf 686b 9287 6799 cc3f
000000f0: f7bb 0025 3a41 cfbf d8ee 105a 3143 90bf
00000100: 959f 3196 4d68 c73f 30c9 3e6d d2f9 cf3f
00000110: 8336 693c 800e b03f a745 c6d4 6e83 d3bf
00000120: 3210 6bf9 6d82 a63f d6a3 d581 f922 b33f
00000130: 56a0 463d 1907 c9bf 4f72 06a8 33f6 a93f
00000140: 692e 18b3 2bf8 b33f 228e e5e0 149a d13f
00000150: 3341 5344 ec62 cbbf a061 f9c0 eff6 b03f
00000160: 8121 37de 7288 a7bf fbdc f5fd 2228 a7bf
00000170: 42a9 9aeb 8cad cebf 7da2 4648 6aac d03f
00000180: ed6a 299c 9e9d d7bf be45 4a9a bf97 d3bf
00000190: 6fc0 2264 85c2 bfbf 09c0 5a94 50bf c03f
000001a0: 3b21 b28a 840d cd3f 4416 5207 28a0 d3bf
000001b0: 9f26 a5f4 2d89 c8bf b266 ef1d 72b3 c03f
000001c0: 9d74 50cd 97fd b1bf 605e f02e ff27 c4bf
000001d0: 2680 4983 76da d53f a848 3650 3c44 86bf
000001e0: 23dc 5ec3 ff66 bbbf 66b2 2524 2fac d13f
000001f0: 4820 043c 9185 c43f 2791 5726 6712 d6bf
00000200: adf4 d6df 7f9c b4bf 894a 0e3f 6f53 c43f
00000210: 0264 046b e73b b03f 2c78 83c9 bd46 d0bf
00000220: a4d3 ed12 3600 c93f a82e 80dd d18a d0bf
00000230: a620 da58 6941 d0bf 0cbf 61eb fa57 cbbf
00000240: 5685 82cc 5d69 6dbf 9800 77b6 c281 c7bf
00000250: f4f3 a46e 7abd d13f b700 134b d622 b53f
00000260: 0cff 264a a2a1 c63f ca48 26f4 ad6a c63f
00000270: f9c5 6b6f e279 adbf c9c0 b404 ece1 c23f
00000280: 65e1 1224 eeeb cb3f 2020 6d8f 21d3 a93f
00000290: 77b8 591e baf6 bd3f e6fd 8463 d673 cb3f
000002a0: ca97 1417 7288 b03f e678 1c7b 83b5 a23f
000002b0: c486 0336 9117 b5bf efb7 0834 4a4e b43f
000002c0: 1bb2 b74a 0f12 863f 2e66 5125 f371 ce3f
000002d0: 5b70 11d1 a229 b93f ea0a 4890 c69a ccbf
000002e0: 38e4 5c16 0a74 ccbf 41b0 0f9a e90e d43f
000002f0: d9f1 3b49 8dba bebf 6b2f db8a 269b d03f
00000300: b989 3d3f a3b0 c93f 9430 8c79 6337 cc3f
00000310: 4609 15b2 1692 b0bf a6d4 fc64 bb11 94bf

W_xh f8 [10, 82]
0.1547227309014418 0.07623473785131497 -0.21204527962842154 0.14173290614328582 0.17133559772226997 -0.020164113312972364 0.12176718761868836 -0.13926227605804808
0.10069374078349952 0.27390573158932335 -0.09127482172426801 0.05641138524084323 0.1654622181652833 -0.09027762045536877 0.08738625787310951 0.14077441417424688
0.06289470872657527 0.0011724887957434741 -0.10330025368409385 0.07515748246650868 0.19679578773152936 -0.10504028067395019 0.25362779004947666 -0.237073604705644
0.27662425708569993 0.1330628582794815 0.004761655296809715 0.0751189771962148 -0.04666866434653924 0.18819358015736937 -0.04195795987790762 0.04671567481696526
0.12446109605424593 -0.024154024758790953 0.008506042440457209 0.2582203262157264 -0.09233302334288593 -0.09386594574342565 -0.039990076019041726 -0.008205262328956601
0.006616777654466902 0.04495358005404343 0.010580396789483646 0.1178855879176372 0.17523349667161325 0.13402965253626564 0.012423621654285387 0.24413004188360599
-0.2236555711577332 -0.1869177151442335 0.31695755327827646 -0.05283276821139128 0.061497201604958765 0.10078160906597457 0.05159076461808436 -0.13733154257139574
-0.04681543899826458 0.07871598637346983 -0.05159458903258063 0.06496393588162004 -0.17261800553732928 -0.28437696859128364 0.12765333320133393 -0.18203981287458157
-0.2512842575352133 0.15382783034780415 -0.31533848883690263 0.2752086808395605 -0.0741395817911836 -0.17376033625617046 -0.07204964897646374 -0.08212204748118575
-0.16401132444735655 0.01734183723831164 0.21581600545849938 0.19350788664598711 0.26103683337499944 0.16527632358338187 0.1672783425283424 0.25865331254680346
0.04333545312272495 -0.11766086792320696 -0.027041081222460402 -0.16608628824192562 0.2411404849385242 -0.16087101237656581 -0.3206056466637806 -0.01767481368740052
-0.09062347818158087 -0.05853981341200786 -0.255155522215348 -0.30315821225469314 0.07763099389648986 0.06669534146861883 -0.21249618179808274 0.19235725726964747
-0.14591120075621744 -0.12008987723295211 -0.12043187879403278 -0.09829644516377295 0.01245267993368465 -0.01068439380057699 -0.2187183067252058 -0.02169090249154639
-0.1853728300577421 0.11762205774692883 -0.15776717094395581 -0.19361435056043264 -0.05426170284743706 -0.11892916958682115 0.20398774511523002 -0.02154352220945331
-0.12955206974769107 0.07205631372760661 -0.04791077394498907 0.03212271137792679 0.04830589351955137 -0.19728410123867 0.08326922427821191 -0.08358795754723661
0.10138129502201072 0.0751042424036555 0.04857626735153592 -0.11910950351619264 0.027908120491390204 -0.1397627445607576 -0.2124309387897823 -0.15584102878574707
0.10609218142930033 -0.23381898531979897 0.2759814249034364 0.09593145981082513 -0.21822326149194568 -0.03997025107661209 -0.27179310552085806 -0.19119160867568602
-0.10321209610355749 0.12462599804057194 0.053944495557997144 -0.18218597450605645 0.04570157540218287 -0.18514026663919209 0.2129268916766278 0.2773828684987703
-0.16954863129686973 0.35924069546492904 0.10631259466644047 -0.05725404289641186 0.2156666682196057 -0.28591405162884703 0.27426515602405294 0.19116358348602017
0.13514356423984128 0.16290864864969182 0.015717022616284933 -0.2082580407734718 -0.3633456452501073 -0.16657462634694062 -0.16589759655389008 -0.23340479153160432
-0.20939008565274647 -0.19033365686348694 -0.04401855563388228 -0.008583963084156656 -0.01667365705568581 0.07470429019666455 -0.2866533226564516 0.04798346795251704
0.05988650795528237 0.07818655757912531 0.039385497680499426 0.06755176517980073 0.1700678680425652 0.2650969504712455 -0.04899034489622256 0.11080110781567457
0.08240067091430792 -0.23312596564510418 0.19546209703591685 0.02070075333614216 0.13149223234007956 -0.040663782671004 -0.008603226675608897 0.1238923631282387
0.23635413818264567 -0.029560730232422443 0.0998907803217368 -0.20106572379022494 0.14696793988032428 0.1903260612404312 -0.11351429631015025 0.1214577175410285
-0.19479295915885117 0.03375369635127305 0.07275275263078217 -0.005513782809462718 0.13666568257873843 -0.01663027156217761 -0.036730793516319006 0.11119528979815478
-0.1837791318053305 0.02811967037679157 0.0201463293191528 0.08499761635759456 0.011199965774181492 0.0788208566396054 0.08929256926945295 0.16945907466252375
0.19398180825398806 0.17508414838244896 0.04133572631923965 0.06697282617952922 -0.2516877342387276 -0.16473570790083203 0.25643590532097643 0.02770283455270158
0.18648442749567326 0.1490592848436011 0.09772692144059357 -0.20729581767488459 -0.10166223402896053 0.11903473367666391 0.04963518929079381 0.067662325727632
-0.2808100651921233 -0.13590856830509546 0.22237216665324883 -0.24909886251726684 -0.16702530695697643 0.30799953933918933 -0.31609066075691417 0.12173555597183029
-0.15428826549415106 -0.16554904813791718 -0.22216504409795482 -0.04782780391488229 -0.0996977255065888 0.08872491969923987 0.2379097504416296 0.164501782794835
0.21110150452405974 0.19838182985919026 0.13756971303450222 0.23298075445007627 -0.10601202710977231 -0.0787858797316789 -0.002589808372047351 -0.04145883529171533
0.1333396526750339 -0.04813804418618798 0.040687392095025476 -0.01000070558976559 -0.055138060534350164 -0.041162964899728566 -0.06316635491729485 -0.1642977968348566
00000000: 37b2 9556 f4cd c33f d9f9 e3a9 1e84 b33f
00000010: 3f3b a3ba 4c24 cbbf 7c83 53ca 4d24 c23f
00000020: 22cb 6d2a 53ee c53f b39f edbc e6a5 94bf
00000030: 6354 8c68 222c bf3f 0430 9ea4 58d3 c1bf
00000040: 5cb8 93a3 10c7 b93f ff3c d7e7 ab87 d13f
00000050: 9e03 4166 c95d b7bf 6284 76fd f3e1 ac3f
00000060: 4d2b dfaf dd2d c53f 5ea0 6a23 6f1c b7bf
00000070: e150 af1f f25e b63f 31f8 7e60 e504 c23f
00000080: 4474 121d de19 b03f 91d9 1642 c635 533f
00000090: 2cdf 3dab e271 babf 114c 3e51 853d b33f
000000a0: b713 26b8 9a30 c93f e6dc 417a ebe3 babf
000000b0: e6a1 e70d 703b d03f 3550 7a89 6d58 cebf
000000c0: faa7 5d3a 36b4 d13f 30b3 4f28 3408 c13f
000000d0: fbda 641c f580 733f dce0 5d4e ff3a b33f
000000e0: 1c97 3b86 f4e4 a7bf 42e9 0b2c ba16 c83f
000000f0: 5f09 f782 837b a5bf c04f 19ef 1deb a73f
00000100: 9863 2db1 aedc bf3f 2b85 9f29 d5bb 98bf
00000110: 5b1c cdb0 9d6b 813f 6593 108c ae86 d03f
00000120: 4637 9913 23a3 b7bf 6f16 2d3f 9907 b8bf
00000130: 442a 5549 9479 a4bf 0f1f ddaa ebcd 80bf
00000140: 90ea 17ba 311a 7b3f f828 57d8 2704 a73f
00000150: 452b 84d1 2cab 853f eca6 c6f8 bf2d be3f
00000160: 9424 af1c 0d6e c63f 5833 2b37 e227 c13f
00000170: d9cf 9f45 8e71 893f bc3b ee38 a73f cf3f
00000180: b667 d8e9 bea0 ccbf 1434 cb70 ebec c7bf
00000190: 5839 6355 0849 d43f b209 4087 e50c abbf
000001a0: 92ac 60ab 8f7c af3f a103 fad2 d2cc b93f
000001b0: 76e0 9ecd 1a6a aa3f 0ad5 067a 1494 c1bf
000001c0: 520f e476 31f8 a7bf bc7c 251b bb26 b43f
000001d0: 004b 1721 9b6a aabf 8def 07fc 79a1 b03f
000001e0: d3e5 3dc8 5818 c6bf a173 f574 3b33 d2bf
000001f0: 8a9d a9c5 f156 c03f 83e2 6ea1 144d c7bf
00000200: a941 0791 0a15 d0bf 757b 475e a1b0 c33f
00000210: 285f 2e7c 812e d4bf 6aff f1de 049d d13f
00000220: 2edb 21c7 cffa b2bf abf6 c758 c73d c6bf
00000230: 12cd 0a86 d871 b2bf 2556 3654 f305 b5bf
00000240: c467 56b5 52fe c4bf 0617 2aff 0ec2 913f
00000250: f6e4 b2de db9f cb3f becf 54ce ddc4 c83f
00000260: d768 99d5 d3b4 d03f a1ff 4b4a c627 c53f
00000270: 2881 3e71 6069 c53f 62ff 989f c68d d03f
00000280: 76c1 d683 1030 a63f 40c8 bfcb 051f bebf
00000290: ffeb fe3d a8b0 9bbf a813 28c4 5042 c5bf
000002a0: b2b9 4600 b1dd ce3f c210 84dc 6b97 c4bf
000002b0: 1d5e d58b cd84 d4bf fb48 00ab 5819 92bf
000002c0: 1e27 0aab 1933 b7bf 1fae 3c30 eef8 adbf
000002d0: 16c2 d3d3 7754 d0bf 7774 c9b3 f166 d3bf
000002e0: 90ff f0f3 9fdf b33f bc3c 6726 f212 b13f
000002f0: 557f ac2b 1333 cbbf d889 8fa0 299f c83f
00000300: 141c afdd 37ad c2bf bcd2 4bcf 35be bebf
00000310: ecf2 d0a4 9fd4 bebf 449d 4ab1 f429 b9bf
00000320: 1f79 8068 ca80 893f 16c7 9b0f b3e1 85bf
00000330: b6eb 3523 f6fe cbbf 85a4 49d3 2336 96bf
00000340: ad1d 5501 4cba c7bf 3ab0 4fab 7a1c be3f
00000350: 061a cbf3 b631 c4bf 48bf d8e3 5ac8 c8bf
00000360: c45d 4f9e 30c8 abbf 2474 ea5d 2472 bebf
00000370: 4d00 073b 451c ca3f 7c2d 524d 810f 96bf
00000380: 5004 5987 2995 c0bf cb2d ee56 4872 b23f
00000390: 9b86 70ce c287 a8bf 2372 a755 6372 a03f
000003a0: 4db6 bdd1 8cbb a83f aba0 6bfd 9a40 c9bf
000003b0: 17c8 09c3 2151 b53f ba3b 0138 0566 b5bf
000003c0: 9db0 8be2 1ff4 b93f 6520 ea18 083a b33f
000003d0: 58f0 450f fdde a83f 1fae 3ede f57d bebf
000003e0: f5a0 3643 f293 9c3f 4e38 8be0 bee3 c1bf
000003f0: 625e 61df ef30 cbbf 6a40 014d 99f2 c3bf
00000400: 00a3 9971 db28 bb3f d1f3 90cf c7ed cdbf
00000410: 1be1 90fe ada9 d13f 3c87 8bd2 f68e b83f
00000420: 67cc aa65 bdee cbbf ecb8 5f12 fb76 a4bf
00000430: 1962 dfe8 0e65 d1bf ca0e 4475 f778 c8bf
00000440: d5fe 50a1 1b6c babf 3fcc d049 7de7 bf3f
00000450: aa0e 71e8 9c9e ab3f 348e 25b9 de51 c7bf
00000460: 6dc3 7467 3266 a73f 9eab 311f adb2 c7bf
00000470: 9753 183a 3041 cb3f 9510 2b13 a4c0 d13f
00000480: 0135 4001 c5b3 c5bf b181 9aaf ccfd d63f
00000490: bec9 3e5d 4d37 bb3f db94 9be3 6650 adbf
000004a0: 2595 6b23 f79a cb3f c19d 4d73 6a4c d2bf
000004b0: af8f e370 8f8d d13f 891a a15d 0c78 c83f
000004c0: 2f66 5662 624c c13f 39ce 17cb 30da c43f
000004d0: 9f7e 8288 1f18 903f e923 2011 33a8 cabf
000004e0: 0f91 df17 0e41 d7bf ab73 403e 5152 c5bf
000004f0: 028c d7e7 213c c5bf ecd0 2d4d 35e0 cdbf
00000500: 8a1a fe58 4bcd cabf fd43 c76f da5c c8bf
00000510: 76b7 baa1 9989 a6bf 0171 bb05 7894 81bf
00000520: 841a 092f e612 91bf 3efc 4303 d21f b33f
00000530: 3859 862d 8758 d2bf 7c9e 3503 4a91 a83f
00000540: 3e77 47c2 71a9 ae3f a906 cac3 0804 b43f
00000550: 58e8 f200 562a a43f 1dfc 3b8e 124b b13f
00000560: fbef abad c8c4 c53f f0c5 2233 59f7 d03f
00000570: 804e 4c32 4315 a9bf e2cb 6d1e 765d bc3f
00000580: 40d3 beda 3518 b53f 72a6 2557 12d7 cdbf
00000590: 573c 30e9 e604 c93f 993e 530a 9432 953f
000005a0: 0812 caca bcd4 c03f 0e40 6821 e2d1 a4bf
000005b0: 12cc b189 919e 81bf 2025 dcef 68b7 bf3f
000005c0: ae65 e236 da40 ce3f 5e64 6006 2b45 9ebf
000005d0: 1f5e a732 7192 b93f 6146 038a 85bc c9bf
000005e0: af59 ac6f d8cf c23f a154 4db8 9a5c c83f
000005f0: 0cd2 47de 450f bdbf 6f7e af5c da17 bf3f
00000600: b306 8ac6 f9ee c8bf 464a e51b 2a48 a13f
00000610: 8741 3ea5 ec9f b23f 2592 80cd 9e95 76bf
00000620: 27a2 94d6 427e c13f 4fbf eea1 8607 91bf
00000630: 9d43 d1e9 60ce a2bf 43fe 2665 4b77 bc3f
00000640: fe44 6518 1386 c7bf ec0a 9222 67cb 9c3f
00000650: f6a6 3d46 3da1 943f 346b 7e5e 67c2 b53f
00000660: 0a3f bbf5 01f0 863f e382 8289 9a2d b43f
00000670: e8c1 c9b8 e0db b63f 98cd d7bf d5b0 c53f
00000680: 1d23 3c59 65d4 c83f 6ee1 ac49 2869 c63f
00000690: 1024 65d1 f429 a53f cd69 2992 2125 b13f
000006a0: e804 d7de a61b d0bf 1070 f546 0f16 c5bf
000006b0: 75eb b724 7269 d03f 5633 a4c1 215e 9c3f
000006c0: 5352 a7c2 b8de c73f d4c1 c8e8 5f14 c33f
000006d0: 2faf 86ab a104 b93f 446f c15a ab88 cabf
000006e0: ed86 6442 8906 babf 1db6 3a70 0f79 be3f
000006f0: 612e 7895 c869 a93f 0ae6 2b74 5152 b13f
00000700: add1 98c7 caf8 d1bf aceb 0eb4 7365 c1bf
00000710: aa7e a8ef b076 cc3f 4bc1 fdb5 78e2 cfbf
00000720: 8e06 7ed3 1561 c5bf c645 29b3 43b6 d33f
00000730: 1268 a152 d43a d4bf b1cd a8b7 0f2a bf3f
00000740: d71a 3ac7 b7bf c3bf c171 d111 b630 c5bf
00000750: d988 5b77 e76f ccbf a1ce 4ecb e27c a8bf
00000760: 7550 8946 ca85 b9bf 5ece 7224 adb6 b63f
00000770: d6ed c5a2 d373 ce3f c966 9ef8 640e c53f
00000780: 149b 08c5 5f05 cb3f 73d4 ae67 9364 c93f
00000790: 129f 3365 e29b c13f 24f1 7a38 50d2 cd3f
000007a0: 984c 6bad 9a23 bbbf dd8a d5b8 4f2b b4bf
000007b0: e2e2 58c8 3837 65bf fe94 6aab 173a a5bf
000007c0: 10e8 bf13 4611 c13f 9537 f2ba 8ca5 a8bf
000007d0: 40b9 d054 fad4 a43f 2c4b 8ffb 3f7b 84bf
000007e0: e811 854d 0e3b acbf 4cf9 19e8 4f13 a5bf
000007f0: 99ca 9394 ab2b b0bf adf3 1ad0 b507 c5bf

W_hy f8 [10]
0.31307472361341976 -0.1721531236678519 0.32084707649458627 -0.21141146647093575 -0.42676355618818196 0.2597371807330212 -0.5069288727851733 -0.3418200868183214
0.22123765518315253 0.4165157740565779
00000000: 99ed c790 6a09 d43f a661 0712 1d09 c6bf
00000010: efee 232d c288 d43f 23fc 3eeb 870f cbbf
00000020: 50fc 3c17 1850 dbbf a66d 33b2 889f d03f
00000030: b855 40e6 c238 e0bf 5b09 805b 61e0 d5bf
00000040: 00e3 d3f6 8351 cc3f 08d5 f5c6 31a8 da3f

b f8 [10]
-0.05876034785404694 -0.27928168909238266 0.25991599550885625 0.18042335785045457 0.2707830857495253 0.07077020061762435 -0.15573870863287956 0.19489135123524037
0.09343658493789085 -0.1772020307324081
00000000: d15f ab18 d615 aebf c57f 414e c0df d1bf
00000010: 92bd 1ab3 76a2 d03f 877b b3d2 1c18 c73f
00000020: cdaa 6694 8254 d13f 441e 2ff1 fe1d b23f
00000030: b555 26fa 3eef c3bf c80f ea25 33f2 c83f
00000040: 0fe4 8ec4 75eb b73f c2e6 635f 8eae c6bf
