models/FINAL/rnn/rnn___9/1/strategic/model.pt (torch, 9103 bytes, 4 tensors)

W_hh f8 [10, 10]
-0.2972876213415899 -0.13143682290613426 0.02568848231397013 -0.2661042004132914 -0.09172130704995891 -0.18413809504937725 0.20326730245574706 0.09416780662969593
-0.05144451471300811 0.13393138150466785 0.02980835725625448 0.20440992760836613 0.09153733935747253 -0.07709964891130824 0.01148007934086658 0.037441051873027736
0.05864028121466192 0.18629699108883982 -0.10437930724992808 -0.1801700742748499 0.1831803252002821 -0.11177963475115489 0.2468250936205101 -0.015022121366141356
0.17328003831707875 -0.03683615522687818 -0.055358176126625316 -0.11507255543810818 -0.15518951018647809 0.17224569925249222 -0.19599307823935497 -0.0825925661370492
0.19233722460323066 0.219635211984251 0.011696314978419718 -0.2640538607654654 -0.0455619132408971 0.012124537359614213 -0.1872439046511331 0.08350297466509266
0.14408367251502194 0.290019133427877 -0.15728427104981174 0.10008238642987315 -0.024175618122311646 0.021272376904652678 -0.2298890229259224 0.29025953706994945
-0.31449508042170804 -0.24012065987827608 -0.16633401428121886 0.15438256501503825 0.19630908848248993 -0.3084894637425461 -0.1768357537262394 0.0873551713856174
-0.04164331325521446 -0.15254807889431196 0.313405151561917 -0.05287621270628559 -0.04409054761055896 0.2856894424331869 0.21313463687596013 -0.3153935335967599
-0.06366738571915147 0.22190352492134674 0.0669536955541937 -0.2298366281279116 0.24591820148025334 -0.19576140145147095 -0.1827702848099072 -0.18825316870403602
0.05899925364129182 -0.14143040601223827 0.30875555448495456 0.15394473139835477 0.19691284201244622 0.213412980906065 0.003081080449586274 0.2186024409834945
0.17105434226827024 0.05654113039027653 0.07963741434013517 0.20055120757997605 0.06339300535785507 -0.011180565757426958 -0.07084312984940526 0.06947099748254679
-0.024300299629988413 0.19061368617981472 0.044765375085251316 -0.22543938115147286 -0.2669099572880481 0.2921301999029242 -0.12881502798118263 0.20497088802032712
0.20334262004141068 0.20221905627738293 -0.10699767923758882 -0.07358454586174781
00000000: 96bc caa8 c206 d3bf 619d effb ebd2 c0bf
00000010: 5d83 b0dd 144e 9a3f bc9c 86e9 d907 d1bf
00000020: 1d3e 202e 0c7b b7bf 03a8 174c d691 c7bf
00000030: a360 32b8 a904 ca3f 3883 cfa1 611b b83f
00000040: ea7d 8078 ef56 aabf 2f3e bcdb a924 c13f
00000050: 939c 40fe 1486 9e3f de1f 07c1 1a2a ca3f
00000060: ff37 e7b6 fd6e b73f 3e6e 9b76 cdbc b3bf
00000070: 3b97 982a de82 873f e41d a53a 792b a33f
00000080: 9126 1754 1906 ae3f 3dee 086e 94d8 c73f
00000090: ea7f 042f 9ab8 babf 453b 5d20 d00f c7bf
000000a0: e6bf 00f1 7372 c73f f572 9d13 979d bcbf
000000b0: 4953 77f4 f697 cf3f 4a7a dfff eac3 8ebf
000000c0: a98c cf50 0a2e c63f 4a07 0544 30dc a2bf
000000d0: 8264 0f28 e857 acbf 2c19 461e 6575 bdbf
000000e0: 8472 77f7 3fdd c3bf f442 95a6 250c c63f
000000f0: 1ce4 a31a 4d16 c9bf 3d8b 7352 c924 b5bf
00000100: 48b5 bc94 819e c83f 86dd 42b2 011d cc3f
00000110: 7f39 87d2 3cf4 873f 8bb1 172a 42e6 d0bf
00000120: e22c a01e e453 a7bf 1d67 82db bfd4 883f
00000130: fe0c 6db7 9bf7 c7bf 7427 4e71 7360 b53f
00000140: cb77 ab72 5571 c23f 145e 5269 ac8f d23f
00000150: 22c5 2a18 e421 c4bf 6b37 9fd0 ff9e b93f
00000160: 899d c844 7ec1 98bf a365 740c 6dc8 953f
00000170: bc8e 96e5 006d cdbf 7452 c4bc 9c93 d23f
00000180: 0a81 4af9 af20 d4bf 8eb4 a216 46bc cebf
00000190: 006e c6d7 6e4a c5bf 9df5 e7d1 cec2 c33f
000001a0: 7b4d 78fd a720 c93f fbd3 7b97 4abe d3bf
000001b0: 4444 82d1 8da2 c6bf 05da 3c94 e85c b63f
000001c0: 1674 0eb9 4552 a5bf e397 f508 b286 c3bf
000001d0: 8dce 167b d40e d43f dca2 9e48 9712 abbf
000001e0: 4ea4 1948 0993 a6bf 6508 045f bc48 d23f
000001f0: 8077 83eb fe47 cb3f e0bf 0a5c 682f d4bf
00000200: 834e 7c7b 814c b0bf 46c0 33af 5567 cc3f
00000210: 0669 c09c e023 b13f d0bb 9d60 496b cdbf
00000220: 5ca6 6c64 3f7a cf3f 15cf 86a8 b50e c9bf
00000230: 4c36 f845 0465 c7bf dee1 7909 ae18 c8bf
00000240: 6769 c171 2635 ae3f b2c4 3d3c 641a c2bf
00000250: 9128 3ea8 a6c2 d33f 0dac 5f01 76b4 c33f
00000260: 318d 4da4 7034 c93f 2947 c4d6 1d51 cb3f
00000270: 87de 8d78 7e3d 693f d5c8 6c2f 2afb cb3f
00000280: f9c4 f0d2 1be5 c53f 806a cf83 f5f2 ac3f
00000290: 69fe 201a 1e63 b43f d959 dd76 a9ab c93f
000002a0: bfa0 ce24 863a b03f b03d 3b22 d6e5 86bf
000002b0: 5377 d97d c622 b2bf e641 35ee d9c8 b13f
000002c0: ce73 c680 2de2 98bf d2f9 277e 0766 c83f
000002d0: caf9 f7bb 7ceb a63f c355 a398 32db ccbf
000002e0: e2d9 6180 0d15 d1bf b872 b0dd 42b2 d23f
000002f0: f1cc 34c6 027d c0bf 07f6 566e 7c3c ca3f
00000300: ecfb 7a87 2107 ca3f 996f ab64 50e2 c93f
00000310: 8ec6 122d 3364 bbbf aa9b f7d1 6fd6 b2bf

W_xh f8 [10, 82]
0.18247916671995312 0.18055552086286103 -0.32915874139813056 0.09736124006926222 0.22895132392062495 -0.05304405754657024 0.055763593147419216 -0.1847776110247571
0.22812435567593456 0.33771236546216493 -0.11310251341925083 0.0004324587015213403 0.328120270129893 -0.29094554280580104 0.059732649425629815 0.17751479069969142
-0.07622282046878705 0.06702162628588483 -0.20654035058953768 0.1518946531502797 0.15658035739713275 -0.06608310861209135 0.288094177406585 -0.2520960216571478
0.24081247298677858 0.2058578120361266 -0.07431464403281349 0.006830259478347249 -0.04539555786349756 0.07492958855497192 -0.13069070079296122 0.05515119225064016
0.0670926628508202 -0.05018742322585646 -0.01658033541010306 0.32569113000041233 -0.2097667251788194 -0.07156174818142962 0.04872877872944586 0.09815912310482892
-0.02347476279483481 0.13833939008364363 -0.07357025297376758 0.06251119040372326 0.18658710492926173 0.09340390494065656 -0.03771794880584015 0.22715261073049234
-0.40841480339514713 -0.21498994948268624 0.4446567669732433 -0.07205180911438339 0.05727395750831744 0.07032971326149443 0.12260863808934672 -0.11702901004289362
0.15104783720928952 0.09421283361648694 -0.013646365671337403 0.02891960071925919 -0.25630359192696095 -0.4187648923798434 0.2196757366784051 -0.44064419636208846
-0.24359603241259944 0.06987394039356962 -0.23626238195358729 0.49073482335328755 -0.11597693332878511 -0.24782835607627685 -0.03452849431308222 -0.052453807812185074
-0.15046922061452836 -0.06612946394183988 0.44443626746165443 0.43490091404370235 0.4226437074859431 0.4452075522820403 0.3393070315209812 0.16165607577480745
0.0071289823054378615 -0.09017724553711931 -0.3200709278171445 -0.4598879926639298 0.34647058262433444 0.06749995656114113 -0.300782564935596 0.35010121858945986
0.13715626796367664 -0.5205596330490135 -0.5509238259049827 -0.326849081709651 0.07942113532971583 0.6288215617649213 -0.4065259277714956 0.08135162550428458
-0.3439536116424418 -0.40809558414801 0.3829270344270593 0.3012518867441824 -0.3774244253161505 -0.044149101674978694 -0.0713005282892346 -0.5084839378459111
0.04338759556900544 0.06214197008675899 0.18030288445243695 -0.11973812097650487 0.5463939114347174 -0.2680538569462338 0.15708130463485678 0.24384605828561412
0.02108130263305676 0.5616626879150889 -0.006743865653156083 -0.7642513082950934 -0.1723724063394981 -0.02176876242595474 -0.1165854060718571 0.21731911832088166
-0.7430734183007827 -0.2829324377251364 0.30748516118521785 -0.4656928479904159 0.24319265602904416 -0.16670709159032185 0.16673541826392527 0.26484007023471157
0.07867750654310054 0.14770255725881062 0.20499404956967185 -0.06837521824195382 -0.022960040020104305 0.2405025964136376 -0.12188921511173148 0.4170956229328284
-0.18302309458901264 0.10900715365012958 -0.035422419870241764 0.10620118309541751 0.4426943490694491 0.19697115316485225 0.1348256357179686 0.11398714224551419
0.04649656788145397 0.24507350981919823 -0.12826397326876546 -0.04503953216703413 0.0847936533246106 -0.10001047562444308 0.5328429913899277 0.19804156711405066
0.1311217641142692 0.035421303010764675 -0.054730970202905536 0.3102945031040694 -0.16016331301934802 0.005508403927767567 -0.038678124174866484 -0.01009846478395939
-0.08991327864705992 0.2661605102631004 -0.42232862739972304 -0.630575564933065 -0.012174001254149497 0.1342617207003518 -0.3973462484928296 -0.016370853709661837
0.07164749909585377 0.05151552620263184 -0.032040190069417614 0.007776422402136255 0.2559137746963012 0.30155217429917464 -0.0869493328391031 0.06798774049610619
0.24172900071819559 -0.44731767047563764 0.15848904884511647 0.07772678094079458 0.008252119575806469 -0.0010978415777976626 -0.13887456001268797 0.15010807010792565
0.18222781533875726 -0.02748228554860033 0.09481581451945388 -0.21156385662391256 0.10598382411840349 0.2630806560745411 -0.1601850858839134 0.01894419919045172
-0.17430000015264033 -0.11169812174425023 -0.007241599193848403 -0.028414746991388136 0.04278758738228568 -0.025653640388048498 -0.09394060352442953 0.13315425600552455
-0.2936682262904799 0.023917217521648066 0.09606998894451478 0.1784646627096661 -0.022560593873296758 0.16786412612085508 0.007794942892681677 0.08239503738187542
0.2086636074821739 0.11293214567217451 -0.008115814237709464 0.03592479483882327 -0.4475549823502253 -0.14838969174151656 0.39405837089428725 0.04217434329971292
0.12490027790424509 0.10431534692550302 0.12108386416341668 -0.14165126046296175 0.09446880626294009 0.13624218363296023 0.11316871715887648 0.03904465790346681
-0.3868654458056527 -0.29029965824737475 0.3160145999880442 -0.5309346356424739 -0.1855297975389074 0.2143773325911744 -0.22436408167397676 0.36193321620447166
-0.21865165690356506 -0.24184209491131195 -0.2129865556471206 -0.032748926710580925 -0.11697418161011666 0.045020267751497645 0.49331339420542697 0.4322474171730205
0.3905034957078853 0.5105397932353332 0.31757252927575325 0.1258092820331772 -0.11375927444619964 -0.06426967625080694 0.1244733128750796 -0.30793984124681634
0.08910952789292415 -0.4562647773028688 -0.33929396513348636 -0.09062186957247384 -0.16476547519387405 0.1125991792850964 -0.13746662218559663 -0.29429860524695906
00000000: 5cbb a132 7a5b c73f 16ef 9b7c 711c c73f
00000010: e9d6 5fd3 ef10 d5bf 2cd8 fe8d aaec b83f
00000020: e2b7 4ee8 464e cd3f 1cbf d138 9728 abbf
00000030: a450 c0b1 0b8d ac3f 1432 31f2 caa6 c7bf
00000040: 8b4c 86cb 2d33 cd3f db58 4753 149d d53f
00000050: 4928 3b4c 49f4 bcbf 300a dbfa 7357 3c3f
00000060: 7234 5729 ecff d43f 0125 d10d da9e d2bf
00000070: ddb1 921f 4795 ae3f 4f44 4efe cdb8 c63f
00000080: 5950 1fb9 5683 b3bf b9c9 054d 5428 b13f
00000090: 6c10 8b09 ea6f cabf 13de dbb3 4871 c33f
000000a0: 11bc 1b3d d30a c43f 2a94 4e96 d2ea b0bf
000000b0: 8746 888f 2270 d23f ad06 1e5a 5722 d0bf
000000c0: 7d3a f96f f1d2 ce3f ab1f 297d 8c59 ca3f
000000d0: de1c bcd5 4806 b3bf 78b8 52d1 0bfa 7b3f
000000e0: 6d96 d028 163e a7bf c2a9 58e4 952e b33f
000000f0: 0907 e60e 79ba c0bf b493 1aee c63c ac3f
00000100: 83ee be18 fc2c b13f 91e3 d97a 2ab2 a9bf
00000110: 7f56 5f79 6ffa 90bf 53bd fc9b 1fd8 d43f
00000120: 624d 37d4 a2d9 cabf bb75 15e8 de51 b2bf
00000130: f7b2 087e faf2 a83f 230e 8acf f420 b93f
00000140: 35d1 f0a9 c409 98bf f933 14ea 1ab5 c13f
00000150: 4d14 7b06 80d5 b2bf 6303 6bbe bb00 b03f
00000160: 5664 c314 16e2 c73f a2ef 097d 51e9 b73f
00000170: 25c3 2f59 c44f a3bf 05ed 2435 5613 cd3f
00000180: 0c34 f2d7 7723 dabf 1c98 ff68 ca84 cbbf
00000190: 5017 06a8 4175 dc3f b28f c3c3 fc71 b2bf
000001a0: 8149 d21c 0353 ad3f 422a 65ca 2001 b23f
000001b0: 1e04 cd9a 4763 bf3f 9c46 d1fa 9cf5 bdbf
000001c0: dd03 7918 8955 c33f 920d 3f0f 551e b83f
000001d0: 5426 2432 a0f2 8bbf cedb 358d 199d 9d3f
000001e0: b41c 4b2e 4767 d0bf 3200 5f43 0bcd dabf
000001f0: 2315 61a4 551e cc3f 2508 23b7 8333 dcbf
00000200: 51e0 52a0 272e cfbf c641 d530 42e3 b13f
00000210: 0c03 e281 d83d cebf a0e2 5308 3368 df3f
00000220: 18cd bc0f aab0 bdbf 183d 2fee d6b8 cfbf
00000230: aca9 b503 b8ad a1bf 0a40 35ba 39db aabf
00000240: 7708 cc4e 9342 c3bf 8ca5 ee4c dced b0bf
00000250: 04dd 79d0 a471 dc3f 885d b4a4 6ad5 db3f
00000260: c9c9 6031 980c db3f ddf2 3ed1 477e dc3f
00000270: 80de ebd6 34b7 d53f fc84 5373 25b1 c43f
00000280: d09c b09d 4733 7d3f c4df 6c20 db15 b7bf
00000290: 3400 d8c5 0a7c d4bf 7f23 140c ce6e ddbf
000002a0: fd71 59f3 922c d63f 7e59 e959 ad47 b13f
000002b0: 91be e683 0540 d3bf 206a 08f1 0e68 d63f
000002c0: 3036 ac2a 568e c13f 5706 f2ac 6ca8 e0bf
000002d0: d02b db00 2ba1 e1bf d4ea 2a69 18eb d4bf
000002e0: 9f31 da8a f154 b43f 7299 5965 4e1f e43f
000002f0: e34b 3053 8504 dabf 8370 04cb 75d3 b43f
00000300: 951a 5602 5603 d6bf abb1 e3f0 3c1e dabf
00000310: 4595 6764 e081 d83f fb2b 5bfe b547 d33f
00000320: 0c72 dcc6 b827 d8bf 0602 af07 b69a a6bf
00000330: c795 305d c040 b2bf 0fdd 721b 8045 e0bf
00000340: 56ba 0a20 e636 a63f 8999 7682 12d1 af3f
00000350: e580 0c38 2a14 c73f 6bb7 ad51 28a7 bebf
00000360: 6a0f 8b15 0f7c e13f aba5 495d cb27 d1bf
00000370: e31f 1c7d 3d1b c43f 4030 ccfe 5836 cf3f
00000380: c5d7 7645 5696 953f 0352 7f07 24f9 e13f
00000390: 6cde dca6 749f 7bbf 39af e128 bf74 e8bf
000003a0: fb00 fb8b 4c10 c6bf a885 c6ea 8c4a 96bf
000003b0: 5afe 448a 8ad8 bdbf 3beb fde4 1cd1 cb3f
000003c0: 0b1f c4e7 41c7 e7bf f972 c0a7 901b d2bf
000003d0: 60ee d23d d6ad d33f 5865 0660 e9cd ddbf
000003e0: e4d4 22dc ef20 cf3f 8523 3271 a856 c5bf
000003f0: eda3 4310 9657 c53f fc04 15c4 23f3 d03f
00000400: b68f 8885 3524 b43f 0728 7bda eae7 c23f
00000410: 395f 63b9 3e3d ca3f f9bf 34ce 0981 b1bf
00000420: 5b3a 0134 d682 97bf 798e 1901 cac8 ce3f
00000430: c2d6 a3b0 2134 bfbf 9c47 f3d6 b1b1 da3f
00000440: 4315 d6fe 4c6d c7bf 2015 f58f e4e7 bb3f
00000450: c296 c62d e322 a2bf c2fa 3030 0030 bb3f
00000460: 8d25 d8ad 1a55 dc3f ec99 8cca 5936 c93f
00000470: 4d19 0968 f741 c13f 57e6 1be8 422e bd3f
00000480: 62ab daec 65ce a73f c60a e59a 915e cf3f
00000490: fbe0 3831 f46a c0bf 8c7d 5eeb 6b0f a7bf
000004a0: 3504 f06f 09b5 b53f bf7b 105a 499a b9bf
000004b0: 8685 bdbe 0c0d e13f 9d70 0013 6d59 c93f
000004c0: 0712 5514 99c8 c03f 27a0 06b4 bd22 a23f
000004d0: e31c 339e b205 acbf a179 bd79 dddb d33f
000004e0: 3ff3 b73f 3b80 c4bf 3114 91eb fa8f 763f
000004f0: cfa8 cd7c 9ecd a3bf cb32 e5ff 80ae 84bf
00000500: eae7 437f 8e04 b7bf a044 c417 c608 d13f
00000510: 172b b6a6 6e07 dbbf 676a a1ce ac2d e4bf
00000520: d0f9 fbc9 aeee 88bf 10a0 c1f1 7c2f c13f
00000530: 70c2 9df5 1e6e d9bf 7d92 2965 85c3 90bf
00000540: 30f6 7491 7d57 b23f f995 8d38 3e60 aa3f
00000550: a1f4 0261 9267 a0bf 6a58 5a7e 2bda 7f3f
00000560: 5da8 3a2b e460 d03f f7c4 a97d a14c d33f
00000570: 9ff5 f3bc 4f42 b6bf 9daf f501 a567 b13f
00000580: 202a 4ad4 f9f0 ce3f c068 674b daa0 dcbf
00000590: 972e c880 5e49 c43f 6a00 2afe e6e5 b33f
000005a0: 652d 9bbd 7ce6 803f 90a5 0f6b aefc 51bf
000005b0: f91c c03e a4c6 c1bf f256 fdc1 bd36 c33f
000005c0: 3697 a6b5 3d53 c73f 812f 9af6 5024 9cbf
000005d0: 2931 8166 d945 b83f 2d90 9b42 8614 cbbf
000005e0: e259 7e82 c121 bb3f 6439 833f 50d6 d03f
000005f0: 7ad4 96e4 f180 c4bf b439 e3af 1b66 933f
00000600: e397 2c60 764f c6bf da8a ea83 3f98 bcbf
00000610: 2746 55fb 5da9 7dbf a260 3564 c118 9dbf
00000620: 0a9c f630 41e8 a53f fbc5 f5a9 f244 9abf
00000630: c567 e7cb 7d0c b8bf e0f7 6edb 320b c13f
00000640: 1faf f2d0 75cb d2bf 5566 444c c17d 983f
00000650: 47ce a4f4 0a98 b83f 2c33 ea18 eed7 c63f
00000660: 18e3 74d3 1f1a 97bf 272b ee59 927c c53f
00000670: 7fa7 c50c 97ed 7f3f 0469 e856 d717 b53f
00000680: 2f2b 0035 7db5 ca3f bb3f 5400 1fe9 bc3f
00000690: 41da d925 069f 80bf c081 e515 bc64 a23f
000006a0: eec9 16a7 bda4 dcbf 66f2 8bf4 6efe c2bf
000006b0: 232f ed99 4038 d93f cfb3 6722 e097 a53f
000006c0: d92b dcf0 76f9 bf3f f713 841b 69b4 ba3f
000006d0: f2b9 a724 5aff be3f 9d13 90e5 a021 c2bf
000006e0: 8938 6491 1b2f b83f 3304 8545 6270 c13f
000006f0: 93ad 2003 a0f8 bc3f b4cb 8e51 a9fd a33f
00000700: e903 6c49 67c2 d8bf cd98 8d04 4594 d2bf
00000710: 8175 004d 9539 d43f 3fbd 0ca2 6afd e0bf
00000720: 577a 6ebe 70bf c7bf afcc 3d68 b770 cb3f
00000730: 2ae9 9754 f6b7 ccbf 9fcb bbef e929 d73f
00000740: a9fa ce09 c7fc cbbf e558 3888 aef4 cebf
00000750: 0efc 7eb9 2443 cbbf 7eef 66a2 77c4 a0bf
00000760: a2e7 7d1c 05f2 bdbf 98b8 4c83 e50c a73f
00000770: cea0 b257 7292 df3f 4a78 2212 f1a9 db3f
00000780: b17f c25f 02fe d83f 5113 688c 5756 e03f
00000790: 313b d6ba 1b53 d43f 74d0 eebf 841a c03f
000007a0: 2bf5 5ceb 531f bdbf 4929 9f3d fa73 b0bf
000007b0: 3af3 05a8 7bdd bf3f af97 d24e 49b5 d3bf
000007c0: 60e6 0fcc e1cf b63f 6948 352e 7133 ddbf
000007d0: 8d9f fe08 feb6 d5bf 2ebc 1dae fe32 b7bf
000007e0: efd9 bbfb 0817 c5bf 7dff 95c0 4cd3 bc3f
000007f0: ae13 4a9b 8198 c1bf 96d2 32d1 c9d5 d2bf

W_hy f8 [10]
0.16519241336655874 -0.12600673559221545 0.20255775772201493 0.0332683774042152 -0.07172647438224608 0.0839406176264326 -0.38092024995018414 -0.09072464730692067
0.05080243396650538 0.2120261617753206
00000000: 9774 7a66 0625 c53f 51de 381c fd20 c0bf
00000010: 6dcb 7ba0 69ed c93f 9359 e281 8d08 a13f
00000020: 2ea8 ba8d aa5c b2bf 32f6 82df 217d b53f
00000030: 56e4 fa53 ff60 d8bf fad5 1f01 bb39 b7bf
00000040: 7bfd e2d0 c602 aa3f 1357 5c5b ac23 cb3f

b f8 [10]
-0.14028113598856415 -0.3208616560369479 0.18808234229531554 -0.12365251128606881 0.22384450677433407 -0.14262444299763777 -0.13170646733990132 0.18363780079605238
-0.09295359148902924 -0.23603480612897332
00000000: bb86 a875 bbf4 c1bf 9b05 ce53 ff88 d4bf
00000010: c985 8e0a 1513 c83f 59bc 0ae4 b0a7 bfbf
00000020: fb14 fed1 efa6 cc3f 307d 248b 8441 c2bf
00000030: c0c2 f2ec c1db c0bf 773c 5d86 7181 c73f
00000040: 56ba 7d7b cecb b7bf 7c54 8576 6336 cebf
