models/FINAL/rnn/rnn___7/4/non_strategic/model.pt (torch, 9103 bytes, 4 tensors)

W_hh f8 [10, 10]
-0.24197721768773492 -0.11394637542412145 0.07479249779186603 -0.23238708948892142 -0.06562127169406261 -0.12868113022482677 0.21864979884419136 0.12609631337928082
-0.005216458563243085 0.19030808023328644 -0.0051923371975994845 0.21890171194288469 0.0630972442887455 -0.08413610463822346 0.015316451062062678 0.0016482969504163778
0.07301868061822185 0.18115804480411973 -0.12920019040848402 -0.21733698577915977 0.22992312427870987 -0.10385482093643726 0.2871246949438134 0.009280894185894976
0.18997287459704204 0.009695753855970872 -0.050265452177031135 -0.09289390461171648 -0.1176538631654606 0.22031649675189052 -0.25721511469849706 -0.04525843237496627
0.1600713315188482 0.23131068321796402 0.03211041428682556 -0.309489470802346 0.015171282222387918 0.0454676617065263 -0.2176973647609986 0.027688825955397494
0.08325638834430342 0.2663641578775978 -0.21148007305127708 0.0610667498866444 -0.056490060436825834 -0.038817619410528824 -0.25020631597168025 0.25373531372080854
-0.3660674896811673 -0.3020422703510714 -0.13302841350884062 0.13751617051165302 0.22178560482002188 -0.3048066361030162 -0.18355822498273366 0.12046065438152702
-0.06051190627873967 -0.15208299692142022 0.33570200708453274 -0.01849844029956619 -0.10147169970622373 0.2691040758400131 0.16310521866784813 -0.34899951672073465
-0.0897425239508934 0.16562196024194492 0.05414610381014995 -0.26022489573916074 0.1987245432837044 -0.2541846981666303 -0.2521022691197401 -0.22313339846074762
-0.003949537430642346 -0.19044799890689548 0.2657743730751674 0.08561028084378526 0.165387026878915 0.16702949969033526 -0.05737938335823059 0.14848748219565286
0.21345090443580375 0.05889373199350999 0.11540573299275585 0.21996242455901058 0.07477134715070739 0.030979304998194828 -0.07103108533195808 0.08664133467800376
0.008560159823372103 0.23420665579123057 0.09225144556542511 -0.21712827127818976 -0.22555436824648703 0.31718272532885866 -0.1117343686875919 0.25285136275288117
0.2097534864275944 0.22569417870091774 -0.0685465612316989 -0.02470600605259639
00000000: 4346 2c06 1cf9 cebf 40c0 f1f3 962b bdbf
00000010: 4891 00e4 9925 b33f a50b af32 dcbe cdbf
00000020: e711 d93f 8ecc b0bf 01c7 f68e 9f78 c0bf
00000030: 3109 a873 b7fc cb3f 531a 0e8b ec23 c03f
00000040: 318f e16e da5d 75bf fa1c 62e2 035c c83f
00000050: 0183 4167 8f44 75bf 19a3 eaa6 f804 cc3f
00000060: 3619 b018 2427 b03f 4481 d599 f189 b5bf
00000070: f5ff 3743 3b5e 8f3f 7fac c05f 7501 5b3f
00000080: d398 402d 5ab1 b23f caa5 ebd2 2f30 c73f
00000090: 2e80 38c0 a189 c0bf 96fc 10c7 b2d1 cbbf
000000a0: 9083 aff5 1e6e cd3f 0735 74c3 3a96 babf
000000b0: 0517 aa41 4060 d23f cf66 0c88 dc01 833f
000000c0: 64bd c2f9 0751 c83f 3c8d c50d 5edb 833f
000000d0: dd20 70b2 64bc a9bf cc18 4e1a e5c7 b7bf
000000e0: bb30 8b46 901e bebf dac9 28ba 5433 cc3f
000000f0: 0baf 6a62 3676 d0bf dc60 d6fd 1c2c a7bf
00000100: bf47 f3a6 377d c43f 2d7b d1a5 969b cd3f
00000110: 7b23 72b6 c670 a03f e65a e3ec acce d3bf
00000120: 6e4b de07 1f12 8f3f f438 1c90 8947 a73f
00000130: a274 09db 81dd cbbf abb3 c5a7 755a 9c3f
00000140: 2332 1f69 4a50 b53f 964b ba40 1c0c d13f
00000150: 0666 c16e c711 cbbf 60b5 451b 2444 af3f
00000160: 341e 40e4 43ec acbf 6beb c02b e7df a3bf
00000170: ef76 165a 6103 d0bf e55a 910a 333d d03f
00000180: b8cd 1356 a66d d7bf 5fb7 4a1a a954 d3bf
00000190: 37c8 ba36 1307 c1bf 1165 823f 219a c13f
000001a0: 3579 b67f 7863 cc3f 79a3 6ab1 f381 d3bf
000001b0: 2838 9bfe d57e c7bf b3fe 056b 82d6 be3f
000001c0: 4bbb f8a4 6afb aebf c30f 07a5 7477 c3bf
000001d0: d54b 6845 247c d53f 6a5f 7450 41f1 92bf
000001e0: 0130 b59f 0cfa b9bf 9300 3d4d 0039 d13f
000001f0: 811f febd a1e0 c43f bfa9 a811 0256 d6bf
00000200: 35f9 6db5 5df9 b6bf 5289 5eb3 1933 c53f
00000210: 700d 24c2 09b9 ab3f 4a80 3352 86a7 d0bf
00000220: 3974 284b ce6f c93f 593c 71e5 8f44 d0bf
00000230: 9877 478e 7122 d0bf 3b62 849c a28f ccbf
00000240: b23e 95e1 632d 70bf b966 729b 9960 c8bf
00000250: 7c41 1e84 7202 d13f 2de9 6c2c 8eea b53f
00000260: 9e55 d0ef 662b c53f d290 51ff 3861 c53f
00000270: 84fb f99d d460 adbf aba6 f247 a301 c33f
00000280: 293c edf6 5b52 cb3f aef9 b3b9 5127 ae3f
00000290: 238c f9e8 3a8b bd3f 7737 ea8d ba27 cc3f
000002a0: bdad b00a 3724 b33f cbbc 47f7 09b9 9f3f
000002b0: 8509 80dc 172f b2bf 437f ec62 202e b63f
000002c0: 3f59 eb33 fd87 813f a07e 90d3 7bfa cd3f
000002d0: 6254 b66d ca9d b73f bba2 16f4 dbca cbbf
000002e0: 5557 8b2d f7de ccbf b930 09c6 b84c d43f
000002f0: c837 5aa3 9f9a bcbf 3773 717b b72e d03f
00000300: 04d9 36c6 33d9 ca3f ba81 35fe 8be3 cc3f
00000310: 0150 be76 448c b1bf 95ef 0a00 884c 99bf

W_xh f8 [10, 82]
0.14444879776033082 0.06249879072417859 -0.23834856974614216 0.06760136094821495 0.14362175396728033 0.026477178461172104 0.0612229405745698 -0.14157100435039838
0.08599385476671566 0.27907155247708854 -0.14226467166158904 0.04086728882927834 0.1917652992258407 -0.108089115122277 0.05598800768315846 0.1404405246639933
-0.018522885567746453 0.05899127627875795 -0.10359276530523515 0.10265090260198408 0.14967546608708845 0.024279397888364786 0.2551710428807292 -0.2728167031355301
0.2455954986557339 0.10027443438296162 -0.0044767580025381415 -0.0009265404723738822 -0.04098338582396088 0.1000201034015727 -0.05165614327014382 0.045766648378670206
0.11565762165502588 -0.10184742682982655 0.00831332312133975 0.243800949048501 -0.10626053243124141 -0.09461365286076485 -0.04227967714104595 0.03335003822341802
0.0025352497238100274 0.06106908934638833 0.042130640071801694 0.05167550888100543 0.191897369152077 0.14464739260501283 0.05027385035228913 0.23476916030049114
-0.23912890339180026 -0.1884600273573079 0.2806309736782056 -0.05333740709878051 0.04806376338484292 0.09277830792245638 0.02465360494210569 -0.1414112875891718
0.02771650120967543 0.03815049335622587 -0.05173499969031205 -0.018386504302696963 -0.15196255155836116 -0.2684890610136628 0.12030744278198133 -0.16912421245044532
-0.27369398770455544 0.10617960344889031 -0.29768107452173753 0.2617860336526336 -0.0734034152895903 -0.18016152119528941 -0.06103791675779955 -0.0810041241118366
-0.17347893014215912 0.01751506525575553 0.20242146464046618 0.1803546644455945 0.24887923027448133 0.15672331286945027 0.16377592961079646 0.237674680952967
0.14278949823330647 -0.046837818277573225 -0.04758142017171622 -0.1674139518702599 0.28114365030682364 -0.1276869433140668 -0.32329831021975114 -0.06808383475520224
-0.05650915742992883 -0.06903554557363642 -0.2287057357506362 -0.29825974858199356 0.16169124628919673 0.04667225737791337 -0.25249913403024343 0.195647984221978
-0.11244848282521873 -0.1070712321579125 -0.10474941215297012 -0.09928646820476782 -0.0001143368158106416 -0.030728667263080982 -0.21729446464884672 -0.11391176604153266
-0.21334880928393649 0.1524877730042307 -0.17012076998630155 -0.15171151669700128 -0.034231073175382244 -0.10850431977395103 0.20367672786506158 0.11018745760279379
-0.12468732255016537 0.060213598692937194 -0.03221966804888649 0.045896726547271366 0.03566819910771999 -0.19780061513625055 0.07888309878597258 -0.0954176592466787
0.07823626405324532 -0.023024947141823047 0.08105724495399022 -0.08200343709577552 0.0063496251297083224 -0.03477250044482598 -0.20439986580610714 -0.15066874923737306
0.05897075274710611 -0.2647865327418975 0.2738090982159854 0.12390700076837499 -0.16447208402427063 -0.026822563117268088 -0.2796702598952739 -0.18953004411747218
-0.057605456693791315 0.08933570056079157 -0.061217332859785305 -0.17343735720706402 0.05826067532318248 -0.09051958160598225 0.15598049875728712 0.2331941397188189
-0.1503637634647408 0.34793077530862493 0.10571836095113003 0.018694793818705764 0.18559127349130253 -0.27386370964520224 0.26003662275271133 0.17150324054276797
0.12948271483655915 0.11051004569814281 0.016043601934259417 -0.23394506916135366 -0.35320432359268744 -0.15583298208110843 -0.15379344725647068 -0.2246194505978762
-0.19242872590989762 -0.17987087306467153 -0.13359175088553352 -0.06571955949763503 -0.02566282445212083 0.0559672314185 -0.3175555420231457 -0.021209876069339672
0.029132886041019112 0.1271562678594202 -0.02012275347558409 0.06360261448526695 0.1631739194536441 0.2673384962821851 -0.10275883848787387 0.10451974836625315
0.11330274124333176 -0.25144729887703215 0.1664139675694503 0.021734058009098348 0.020190341666990907 0.03301271358620681 -0.010307396692482769 0.16081317757137395
0.18899281800603512 0.1454770413350729 0.10184318772005228 -0.23815117765028618 0.12034156638872484 0.16015999554796337 -0.12616559428165908 0.04465109025406936
-0.19267314231718372 -0.06386991046662097 0.06414847646438099 -0.00794227184125882 0.13489798595937716 -0.12448133694260442 -0.0383321681027971 0.09221103958300489
-0.20122837822691156 0.026037311010136514 0.018967051992802044 0.12875233619574802 0.01147238548489143 0.09024307752155043 0.11060315951126086 0.1453150059283759
0.21145841789524294 0.1939563884577033 0.07223051401101792 0.04720173291698556 -0.2670770053106803 -0.16668717715191428 0.22126105912691907 0.028506860389910574
0.17103451872628783 0.131860364575701 0.06946259083251251 -0.20504177690181463 -0.02540798534695714 0.07015642083951068 0.050912949965708484 -0.015381212137049266
-0.2663271793227795 -0.1239623211070779 0.21155658970893776 -0.24055350082591487 -0.20919173389908088 0.27250695726776775 -0.2994351420487121 0.11169756910079787
-0.15541902857070572 -0.17017338464866305 -0.21361717147746415 -0.05033980809943859 -0.11275369353111359 0.08884582420180884 0.22776583168717818 0.15482924186504435
0.2031606317612326 0.19288693285636885 0.13431323171144133 0.205931244472289 -0.012770758198092645 -0.008954680290443029 -0.024646944174174044 0.0035527622365544046
0.13453573904778285 -0.027112794337264625 0.07452383944133803 -0.05775700692034237 -0.00637080206021612 0.004676802567975011 -0.05544630218773533 -0.06180765392601451
00000000: b0df 2957 4c7d c23f aa58 666c d7ff af3f
00000010: c4d4 0db8 3482 cebf 740b 70a2 524e b13f
00000020: e64d 2498 3262 c23f 3409 535e d51c 9b3f
00000030: d2c1 10ff 9c58 af3f 4898 dfa8 ff1e c2bf
00000040: d348 e179 b103 b63f c783 c8ed 4edc d13f
00000050: 73d3 1490 ba35 c2bf 8cf1 fea9 8eec a43f
00000060: bf60 57ec c38b c83f 55f6 806e baab bbbf
00000070: 1d4a efcb 75aa ac3f e982 3b82 f4f9 c13f
00000080: 51ce f6ce a9f7 92bf 89ae bbc4 1a34 ae3f
00000090: 8493 1633 0e85 babf 4995 945d 5447 ba3f
000000a0: e7c5 edcf 9028 c33f eaa0 96cf b2dc 983f
000000b0: c4c5 03ed b854 d03f d241 7130 d475 d1bf
000000c0: 53b6 625d ac6f cf3f 53ba 4cd8 95ab b93f
000000d0: a97a 6893 3856 72bf 9875 7d83 625c 4ebf
000000e0: 7026 963b c6fb a4bf 1563 0de1 ea9a b93f
000000f0: 152c f78b ac72 aabf f55d 11e4 b96e a73f
00000100: 469e 8ae6 bc9b bd3f ab75 6a47 ac12 babf
00000110: 1dfa 6a57 9306 813f 53d3 7297 de34 cf3f
00000120: 95d1 a5e7 e333 bbbf e1c5 cab0 9938 b8bf
00000130: ed63 368d aea5 a5bf 26d8 fa96 4113 a13f
00000140: fca3 d4d4 cdc4 643f 4017 149b 7244 af3f
00000150: d32e 89b2 2592 a53f 9ad0 4b59 3675 aa3f
00000160: 842a 59ce 1790 c83f 8d58 5846 ce83 c23f
00000170: 2dd3 367e 7ebd a93f 81cc cc74 ea0c ce3f
00000180: d84d cca1 c69b cebf eb2b 0d4b 751f c8bf
00000190: 6952 8c9d dbf5 d13f 0b10 4966 0a4f abbf
000001a0: 489e b847 d09b a83f 7b1f 4eb6 51c0 b73f
000001b0: a7c3 d16b cb3e 993f 0189 bddb c319 c2bf
000001c0: 0b39 05e9 b661 9c3f 6d1f 9522 7688 a33f
000001d0: c2f8 7487 027d aabf 04e0 ab6a e9d3 92bf
000001e0: c976 9446 8273 c3bf a9cb 18be ec2e d1bf
000001f0: c6c8 36f4 77cc be3f 91dc b7b8 dca5 c5bf
00000200: 9462 93c9 3384 d1bf 17b3 5024 962e bb3f
00000210: 4860 edeb 340d d3bf 839b 4535 1ac1 d03f
00000220: 0a60 15f4 90ca b2bf 3904 c460 880f c7bf
00000230: 2dd9 94a0 5c40 afbf 4cc6 e6af afbc b4bf
00000240: e1b8 c0bd 8e34 c6bf a2d5 d721 78ef 913f
00000250: 0cd2 5151 f2e8 c93f f2c8 bc94 dc15 c73f
00000260: d05d 574d 46db cf3f afc4 a56f 820f c43f
00000270: 7c72 c612 9cf6 c43f 7ede e3ba 1f6c ce3f
00000280: 19e9 8f20 ed46 c23f b9b3 6f63 20fb a7bf
00000290: 85cb 1187 975c a8bf 25a4 1604 d26d c5bf
000002a0: 80ef e2ef 41fe d13f e77e d4b6 0b58 c0bf
000002b0: b9bc 4f65 ebb0 d4bf b4ec a833 f16d b1bf
000002c0: 0610 2cae c4ee acbf be12 8042 50ac b1bf
000002d0: e371 bac3 3a46 cdbf b0dc 770e b016 d3bf
000002e0: 4c48 6e7b 4cb2 c43f d123 2316 6de5 a73f
000002f0: e567 bb20 f228 d0bf 0680 e13e fe0a c93f
00000300: 0b19 387c 6cc9 bcbf aaed 7530 0569 bbbf
00000310: 2ce4 7883 dbd0 babf 4ff4 df85 d66a b9bf
00000320: 36e2 dd89 03f9 1dbf de44 c7f3 5577 9fbf
00000330: 4c62 a215 4ed0 cbbf 1a2a c74d 5229 bdbf
00000340: 1bed 4187 034f cbbf d1e8 0b27 b884 c33f
00000350: 8c12 bb73 84c6 c5bf 5ef1 5171 486b c3bf
00000360: f52a 9737 bc86 a1bf 7062 e768 f0c6 bbbf
00000370: 6a80 913a 1412 ca3f c758 d5c6 3e35 bc3f
00000380: da29 9424 82eb bfbf 913e 521a 51d4 ae3f
00000390: c9aa 1da9 187f a0bf 1c29 0797 c67f a73f
000003a0: 0d89 5929 1a43 a23f c7c6 91d2 8751 c9bf
000003b0: 022e 7ec9 ae31 b43f 32e4 ecad 4a6d b8bf
000003c0: f64b 78b3 4a07 b43f e972 dd0b da93 97bf
000003d0: 5666 2ee8 2ac0 b43f 2967 7c60 2dfe b4bf
000003e0: bd20 6284 1002 7a3f 56dd 6b80 b3cd a1bf
000003f0: 9cd5 7859 c629 cabf a07a 4013 1d49 c3bf
00000400: 174b f01c 6a31 ae3f 3d0d a336 43f2 d0bf
00000410: 8ed5 8b98 1686 d13f 96ad 0b84 5eb8 bf3f
00000420: 519e fed6 6b0d c5bf 8bc4 88bd 5f77 9bbf
00000430: 557f fa16 1ee6 d1bf 8b07 8c3e 8542 c8bf
00000440: 3a57 2461 767e adbf f21a 4658 b4de b63f
00000450: 1789 29d5 e057 afbf 09f4 8d00 3233 c6bf
00000460: c2d7 4fde 57d4 ad3f 2e32 a592 4a2c b7bf
00000470: f3f7 7c42 2bf7 c33f 0108 db39 4ed9 cd3f
00000480: 41d2 4aab 1e3f c3bf ec3c 4e71 7f44 d63f
00000490: 0d30 dfc6 5b10 bb3f e22a 3a60 ba24 933f
000004a0: afb8 0871 74c1 c73f 4a31 1fa7 fb86 d1bf
000004b0: 440d 9fa5 70a4 d03f d304 a574 d1f3 c53f
000004c0: 8066 cfbc e392 c03f 472a 27e8 624a bc3f
000004d0: d282 78e6 bb6d 903f 6ae2 8d7a e9f1 cdbf
000004e0: adba a84e e69a d6bf 0998 d6cc 55f2 c3bf
000004f0: 4b1f 27f1 80af c3bf c682 2e85 54c0 ccbf
00000500: d206 4c26 81a1 c8bf e469 a83e 0206 c7bf
00000510: a7cc 88d4 8819 c1bf 64f7 bf3e ffd2 b0bf
00000520: 75b9 fafe 5a47 9abf 5d24 2ea9 bca7 ac3f
00000530: 2bca e97a d452 d4bf 23b5 47b0 0ab8 95bf
00000540: 3318 23e3 02d5 9d3f 1e04 f815 a846 c03f
00000550: 3719 5520 0f9b 94bf 5981 27cd 4248 b03f
00000560: 7788 ce0b e2e2 c43f 769a 9fec 121c d13f
00000570: 5c2c ae3a 674e babf bbea 0465 cec1 ba3f
00000580: 4af0 2f90 6801 bd3f 7f0a 5669 b617 d0bf
00000590: 7179 278a 0d4d c53f 040c 6ff1 7341 963f
000005a0: d081 9ee4 c6ac 943f 3df2 68da 0ae7 a03f
000005b0: a4e0 9b5d 0b1c 85bf 89aa 37b5 8695 c43f
000005c0: fee4 41aa ea30 c83f 642e 6ddf fd9e c23f
000005d0: aff8 9328 6512 ba3f cd84 c1df bc7b cebf
000005e0: 302e fd73 b4ce be3f e1c4 806b 1f80 c43f
000005f0: 08fa a8b6 3126 c0bf 2573 bef8 81dc a63f
00000600: 19f1 8876 83a9 c8bf d20f a748 c759 b0bf
00000610: b4b3 80d8 086c b03f 3460 83ae 0944 80bf
00000620: 0bf3 fe52 5644 c13f e77e 2147 02de bfbf
00000630: 87c7 c520 46a0 a3bf aed3 5687 249b b73f
00000640: 817f c1fb d9c1 c9bf 21a9 0e5d 86a9 9a3f
00000650: 07df 0a50 196c 933f 5d46 9fe0 f47a c03f
00000660: debb b783 d57e 873f 553c a59a 2b1a b73f
00000670: 1f65 ef18 7d50 bc3f 394b 0a9f ae99 c23f
00000680: d677 a9c6 1111 cb3f 7e57 a31c 90d3 c83f
00000690: fb59 73ef b27d b23f 3bce 6256 d32a a83f
000006a0: dfab d426 ca17 d1bf 08d8 4363 0156 c5bf
000006b0: 500a 6a4a 4852 cc3f 0160 5804 e730 9d3f
000006c0: 1050 3588 75e4 c53f 06e2 bee8 cce0 c03f
000006d0: 49cb ebe3 4cc8 b13f e6b2 0d17 cf3e cabf
000006e0: cd5d 7d08 8d04 9abf 4030 1c6d c5f5 b13f
000006f0: 2e59 171e 4311 aa3f d0cc cf58 2f80 8fbf
00000700: 848b 4e27 810b d1bf 9d55 17a3 febb bfbf
00000710: 88ce 064d 4914 cb3f 9428 7e05 75ca cebf
00000720: c554 d873 cbc6 cabf 2a71 5905 c170 d13f
00000730: 4dd4 9703 f229 d3bf f8a3 543e 3698 bc3f
00000740: 1692 714e c5e4 c3bf f899 dbd0 3dc8 c5bf
00000750: b70b aeb6 ce57 cbbf bdb0 f2aa 23c6 a9bf
00000760: a426 3812 6ddd bcbf 2e3b 5595 99be b63f
00000770: d60f 1f47 6e27 cd3f f12d 23d1 71d1 c33f
00000780: 8ee5 9fe6 2a01 ca3f 25d0 38de 84b0 c83f
00000790: 7273 cf0c 2d31 c13f fad4 1d7c f45b ca3f
000007a0: 5f8c 7226 8e27 8abf 93de f2d7 d456 82bf
000007b0: e999 b26c 0c3d 99bf c614 bab3 ae1a 6d3f
000007c0: c93c ad93 7738 c13f 7749 edd3 74c3 9bbf
000007d0: 4a43 2c8d fe13 b33f 22e9 ac8f 5392 adbf
000007e0: 8278 f727 4518 7abf a3d1 44a1 fb27 733f
000007f0: 9831 292d 7563 acbf 716a 82b8 40a5 afbf

W_hy f8 [10]
0.29301924289461845 -0.12286582982679664 0.29534816989444673 -0.1356679364462351 -0.3614136499235676 0.2202594699973439 -0.4762175569140945 -0.31921179357819496
0.20083924002402426 0.3717965872775388
00000000: 3230 55c8 d3c0 d23f 02e9 e690 2274 bfbf
00000010: 9153 a802 fce6 d23f 6481 1323 915d c1bf
00000020: 58fb afb7 6621 d7bf e7ed 225a 7631 cc3f
00000030: 1088 2e34 597a debf 4a9d 7a4d f76d d4bf
00000040: 0a0e d4a7 19b5 c93f a7c5 c7e9 83cb d73f

b f8 [10]
-0.05655394323124675 -0.2731536034340213 0.2625889818183394 0.15720899489833973 0.2684358569234567 0.07088707423755164 -0.15740976541496227 0.19053753932934142
0.09643780330627469 -0.17605799284516813
00000000: e2ad 4671 a3f4 acbf ba27 6240 597b d1bf
00000010: fdc7 4c04 42ce d03f e8d9 dca1 6c1f c43f
00000020: bdd6 a396 0d2e d13f 6435 8fc1 a725 b23f
00000030: 2a9f 43d1 0026 c4bf 0a38 0aba 8863 c83f
00000040: 7e6c 4cdb 25b0 b83f 4515 bc7c 1189 c6bf
