models/FINAL/vanilla_II/vanilla_quad4/spam/Quad/2/non_strategic/model.pt (torch, 1215 bytes, 2 tensors)

w f8 [15]
000000 6e 29 3a cd 4e 18 e7 bf 5c ec ae 46 bf ea 03 40
       -0.7217172630637785 2.4896226427204464
000010 9e de c4 66 38 e3 fc bf 1b ab cc e1 82 0d ff bf
       -1.805473710481159 -1.940798646954767
000020 ab 20 f3 d6 1b ad ff bf 8b 14 b0 c0 34 b6 fb bf
       -1.9797628780816392 -1.7319839026324952
000030 34 21 ab 49 04 eb f1 bf 2a 64 72 c5 38 5c f4 3f
       -1.1198771360087223 1.2725150788085196
000040 ad c0 a2 51 70 48 f4 3f 61 e8 30 43 45 96 ec bf
       1.2676852406403143 -0.8933435737919916
000050 54 3c 3b 85 c2 c1 f6 bf 30 20 89 93 c7 5c a6 3f
       -1.4223046497679848 0.043676602134440023
000060 3f 0a ef 56 a7 92 d1 3f b6 a0 d8 fa f0 b6 ff 3f
       0.2745760296785739 1.9821634100608612
000070 3c 2d 07 da 30 ef ea bf
       -0.8416980989799536

b f8 [1]
000000 dc cc 36 3a b7 1c de bf
       -0.470502669191047
