models/FINAL/rnn/rnn___12/11/non_strategic/model.pt (torch, 9103 bytes, 4 tensors)

W_hh f8 [10, 10]
-0.24050733929903773 -0.12424484270621007 0.07521671499327771 -0.2389811345349104 -0.07502275264996613 -0.12650389452693359 0.20828995673666892 0.12077811880768267
-0.0044114604117895095 0.18994257550834284 -0.011246248213600905 0.2218528544853126 0.057536814141858385 -0.08471005877794739 0.018431127469202103 -0.0054501470601203235
0.07659505876484574 0.17898824512092962 -0.13539719482829538 -0.2213590416326091 0.22898618047837968 -0.11344509293165878 0.2854102740189551 0.0016581725969857107
0.18070898116012052 0.009700508045842045 -0.05943525061361289 -0.09874308183555161 -0.11918959628065137 0.21748290370135273 -0.20366573827551993 0.011139175681038305
0.21686299460198752 0.26945536641058226 0.08394870063693206 -0.2645888077651049 0.06421478594055804 0.09878074697577979 -0.15657608605426088 0.0889048541985755
0.08140006571109555 0.278233337504045 -0.21210420336570054 0.06780162710188939 -0.04574223450475614 -0.04192778696391967 -0.2395132654480807 0.25984206313026026
-0.366764333586355 -0.3016055734410537 -0.13474708934603155 0.12252889391249193 0.21910974429434502 -0.3126148200029363 -0.19665835082809144 0.12012078709596995
-0.07401313514023203 -0.1608676771651603 0.3330193237044173 -0.022069102364568566 -0.10372476558246424 0.2774731841097847 0.1616299097515827 -0.3442025079086434
-0.0817608687735808 0.16202708349785644 0.06124638497869655 -0.25619271058430176 0.19710881979087663 -0.25421019582475557 -0.2547210710955819 -0.2156328536676132
-0.005865455710347575 -0.18648034695508237 0.2728683750118185 0.0817809853124168 0.17184766329492718 0.17025509822438634 -0.0595499763861758 0.14785480737401235
0.21188291966081296 0.047768238691608275 0.11320633541151354 0.2114154542910197 0.0640625705938001 0.030527325558520883 -0.08183030545685425 0.07977662300848289
0.006583366645543697 0.23106077674059844 0.09202586515112625 -0.22822936017141907 -0.2267809192547692 0.3093667857298384 -0.1222028151501027 0.2533485779442996
0.1984763967702768 0.21938152346663137 -0.06946296816139425 -0.0267833909645885
00000000: 3e61 5eca f1c8 cebf 99ad 1e90 82ce bfbf
00000010: e538 0213 6741 b33f 071e 980e ef96 cebf
00000020: 8666 16ed b034 b3bf f5a7 e794 4731 c0bf
00000030: b776 22cc 3ea9 ca3f 53f5 5996 50eb be3f
00000040: eec6 2363 c011 72bf 6992 f6ce 0950 c83f
00000050: 92ac 3de2 4508 87bf f6f2 44a1 ac65 cc3f
00000060: dd51 1c1e 7775 ad3f 0bf1 17f4 8eaf b5bf
00000070: 2da3 d506 9cdf 923f 4b10 1bb6 e452 76bf
00000080: 4822 6ed8 bb9b b33f 6dd7 9439 16e9 c63f
00000090: 4cfb e0fd b154 c1bf e433 3e3a 7e55 ccbf
000000a0: fffe 314e 6b4f cd3f dc7c 08d4 bc0a bdbf
000000b0: d5a4 3674 2944 d23f 42b3 cf44 e12a 5b3f
000000c0: a68d 16ce 7821 c73f 5ee7 7d26 dcdd 833f
000000d0: 62e5 3a13 4c6e aebf 4aa0 3003 3a47 b9bf
000000e0: d680 0c9a 3583 bebf 0d10 6bd3 7ad6 cb3f
000000f0: 44c2 9a0a b811 cabf 4d21 09da 22d0 863f
00000100: c79a c3a6 2ac2 cb3f fbc4 9db8 c13e d13f
00000110: 49fe c67b a97d b53f c947 0fe5 05ef d0bf
00000120: 56ca 8855 6170 b03f d244 bced b149 b93f
00000130: 6028 7868 af0a c4bf 4e10 3df1 77c2 b63f
00000140: 7d14 1f7c a2d6 b43f ca27 4f33 93ce d13f
00000150: 6760 6604 3b26 cbbf e6a8 048b 725b b13f
00000160: 33df 7cb2 866b a7bf 457d 9b13 8f77 a5bf
00000170: d761 07e5 5ea8 cebf b441 d19a 40a1 d03f
00000180: a3ed 851c 1179 d7bf 291f 8e76 814d d3bf
00000190: 7577 fc82 643f c1bf 1b51 2bb8 0d5e bf3f
000001a0: 4754 fdc0 c90b cc3f 1a15 0a97 e101 d4bf
000001b0: 875e a5d0 192c c9bf cf9f 2564 3cc0 be3f
000001c0: 72d7 e65a 86f2 b2bf 6934 34e2 4f97 c4bf
000001d0: d1c6 0f48 3050 d53f 15b0 a163 4899 96bf
000001e0: 6042 f6cb b48d babf 4e2f d1e2 1ec2 d13f
000001f0: 1620 38f4 49b0 c43f b2cd aaf4 6907 d6bf
00000200: a89e 79c1 47ee b4bf 5443 58b0 4dbd c43f
00000210: f7a4 f6a8 af5b af3f 0bb9 5b1c 7665 d0bf
00000220: f2a2 609f dc3a c93f 1822 58d7 fa44 d0bf
00000230: 9149 7d9b 594d d0bf dc07 397b db99 cbbf
00000240: 7db7 3b47 6006 78bf 6e68 c287 96de c7bf
00000250: 8a75 b2ea ac76 d13f 05fb 5941 99ef b43f
00000260: 2474 dfae 1aff c53f cced 6c47 ebca c53f
00000270: e5c5 1ca2 557d aebf 5427 1d05 e8ec c23f
00000280: 9018 43c1 fa1e cb3f fe9a ef1d 1475 a83f
00000290: 7cde 4a24 17fb bc3f c442 065f a90f cb3f
000002a0: a41a 9995 6766 b03f 1efd a123 8e42 9f3f
000002b0: eb45 c2b5 d4f2 b4bf 8187 cea2 3d6c b43f
000002c0: f201 0b07 29f7 7a3f 049f be47 6693 cd3f
000002d0: 3bcf 35d1 018f b73f 0d2d f6a2 9e36 cdbf
000002e0: a92c c73b 2807 cdbf 3169 cb58 aacc d33f
000002f0: c27f 8c06 af48 bfbf 6391 30f4 dc36 d03f
00000300: 4a00 94b0 ac67 c93f 2663 519a b114 cc3f
00000310: 7c49 8938 53c8 b1bf c557 13f1 1a6d 9bbf

W_xh f8 [10, 82]
0.12746044291223352 0.128144395732232 -0.22923987126146542 0.09935048574047775 0.2032676301411024 -0.054229324108316275 0.09247556489489873 -0.11613584817146066
0.1889914854814027 0.30582106372033296 -0.19989621014366651 0.07927586423257327 0.1826575548899443 -0.045147523995231385 0.039747430927556913 0.11501476437404667
0.024568766725020164 -0.03465026952682362 -0.10158486447961901 0.0858097646165292 0.22794674745591884 -0.013213328002133347 0.22151058825604858 -0.27411629928818954
0.3058065570254741 0.13864007862905792 -0.01820044527432503 0.10009011064046833 0.012129063200399054 0.06822135832380218 -0.013227310785675177 0.07197119339273479
0.061386049546298636 -0.0636618343878871 0.035358043405337915 0.3004467486323854 -0.06763882708630412 -0.06871083086712468 -0.027051630878254733 0.10389758676957325
0.11677308624652627 0.1111770215915877 0.026684870718985836 0.05262340770447471 0.14954332659675387 0.13445762732365424 0.014410989310338532 0.2489842412439322
-0.17510730035991404 -0.1547975648778862 0.2851047443759755 -0.07861258080444149 0.044830039606566875 0.11072368253136032 0.07919431934251912 -0.1628220486265073
0.018134286239997164 0.157201570414778 -0.04847134562758896 0.16013376795811257 -0.14460388254550074 -0.2774022798271673 0.20014587148540988 -0.18963576087965633
-0.28925825384730997 0.2024114230891973 -0.3176686087683642 0.30023417462988544 -0.05195466913155218 -0.267060428174258 -0.03208104512798998 -0.04737226626962008
-0.05696809028641493 0.033797440673480714 0.24031637049886623 0.21695318270343678 0.28446101463209544 0.2150888206707909 0.24000659182464057 0.25765494872749545
-0.020845316540667333 -0.050500184135333144 0.008210101390637003 -0.1868295066453212 0.2392890648656147 -0.10292211614018122 -0.33292960415757833 0.020743545537577682
-0.011061298418465934 -0.06813759197851663 -0.281360887428 -0.33376099755879907 0.18137045769046117 0.0494528540536003 -0.2106460392828827 0.10525542343663173
-0.17838567201331662 -0.10735165348996428 -0.13522275616700963 -0.044455307323474816 0.003725813436148097 0.0023679367239621517 -0.22221331188759993 -0.09764215280384417
-0.15705782169368016 0.13318298711643706 -0.22353301366072567 -0.21978270629476956 -0.02194172879625835 -0.2054915148887905 0.15146636899983745 0.1575950260939842
-0.10515045226307139 0.060210832404624166 0.007678993650396875 0.02120955366942442 0.03284954123024669 -0.21190405618800703 0.042635556203355636 -0.09528209714627399
0.0764790384562913 -0.02973601695802047 -0.05335140280186653 -0.1385660007203723 0.042548478733331535 -0.026247647228016518 -0.15313382964376088 -0.1353527662211715
0.08033391958258963 -0.29219036943015897 0.18275396694552312 0.06761387976094328 -0.1889163188737444 -0.027078484367291437 -0.23068683899850764 -0.2021429622074347
-0.031870268887683635 0.0890695548403689 -0.01470487895172496 -0.29767393943999576 0.07482732081883903 -0.24287783984435773 0.19257358335286107 0.27132950622202967
-0.28162032532431724 0.382927377752468 0.1513544651673875 -0.07988775008544553 0.2415886653103396 -0.32818810850122004 0.2631423513179767 0.3713362669639474
0.06635205786251312 0.1274948844549862 -0.15527082354089522 -0.26042675347908867 -0.40646023451253194 -0.20709564816938206 -0.2041733192350741 -0.30486884349318366
-0.317695665165515 -0.2278202791917274 0.06266516403468107 -0.043192668467607324 -0.038764442230497936 0.1260183134363724 -0.3090496480474748 0.008008251172606142
0.09025835018685115 0.05276713829188103 0.022477817145247776 0.09217198865841514 0.25472669610586995 0.2967652559430201 -0.15356329311547273 0.13767863747013726
0.10479754506875141 -0.20173782453874528 0.14345168806701392 -0.003307740078555557 0.10530375028977541 -0.06065757886075581 -0.005463235136709467 0.1394435133911101
0.26847625799689817 0.04755939717306103 0.06796625429422148 -0.24306791970276406 0.1823824599797727 0.19532716407949743 -0.13794350137177078 0.14605577368811135
-0.14128594058123814 -0.07774697097390641 0.10199923341429487 0.019703558518306286 0.07669319262539619 -0.04512241207812789 -0.013467386082582076 0.14728471725038314
-0.1654509740723001 0.05356064783720418 0.040561628760941854 0.198867740843591 0.10495169518458493 0.13367484787430148 0.09458248709213925 0.14966423130917572
0.17912182289558798 0.19959252624622592 0.05148813895370812 0.07536724217964746 -0.21742498901277527 -0.13280846250604872 0.2263915819501622 0.004227116339341311
0.16963893957157594 0.16984273080792497 0.1185717872735195 -0.23330708290554 -0.03703721204441684 0.18922178199758063 0.043834845510057806 0.1621181097684143
-0.26094549430026587 -0.13215622105743682 0.28894136400108833 -0.26021075028193114 -0.17034620284758842 0.350857572576737 -0.3046855870354845 0.14446738752709332
-0.1327215215966411 -0.24539381435050592 -0.18565613653467064 -0.023608774305990392 -0.010372268425249987 0.10447998099810221 0.2604353675435681 0.18604943125503898
0.23182289794582367 0.2414275078690564 0.19996548460079408 0.23834093797720748 -0.1628276984051145 -0.008130985786166889 0.053275768817272126 -0.09055846031021773
0.1650164696768037 -0.06848047081866954 0.002435277223213953 0.013392004310374305 0.003794597435045268 0.042939508969093945 -0.1591715247849425 -0.1823822272513831
00000000: 6abd ebb0 9f50 c03f 8bf5 6a1a 0967 c03f
00000010: 61ed 006b bb57 cdbf 56d9 188f 086f b93f
00000020: 854e e577 ac04 ca3f e10d 0f2b f2c3 abbf
00000030: 6118 e786 7aac b73f 2c26 ca35 14bb bdbf
00000040: 0ebb ae7c df30 c83f 31d5 c682 9292 d33f
00000050: 77a8 94f2 3296 c9bf b0b4 3d4c 6c4b b43f
00000060: 3950 4fa0 5261 c73f 131b 1c86 931d a7bf
00000070: fb24 de77 c659 a43f 602e 8b8b 9b71 bd3f
00000080: 5d1a 5906 8e28 993f 43a1 d41c aebd a1bf
00000090: e863 b536 7701 babf 6e98 b4f4 a0f7 b53f
000000a0: 45c0 c6e8 5b2d cd3f f1b5 1fdd 960f 8bbf
000000b0: 7e83 237e 755a cc3f 9792 2f17 1f8b d1bf
000000c0: cee9 54aa 5592 d33f cc36 d045 f5be c13f
000000d0: d448 e734 23a3 92bf ce94 da67 819f b93f
000000e0: 30f3 364e 1fd7 883f 89b1 e376 f476 b13f
000000f0: 3c74 e899 eb16 8bbf 253a e041 b46c b23f
00000100: 2bc7 7606 fe6d af3f 2908 b358 244c b0bf
00000110: b527 2710 731a a23f 4033 e4ff 843a d33f
00000120: 8a85 4636 c750 b1bf be8d 7473 0897 b1bf
00000130: 0ec8 b337 6cb3 9bbf fe02 4f41 0899 ba3f
00000140: 6858 7b4a d7e4 bd3f 3f74 cde7 1876 bc3f
00000150: 9ee5 245c 4753 9b3f c088 308e 74f1 aa3f
00000160: a9b7 8858 3c24 c33f d2c3 0654 e835 c13f
00000170: 68c8 533e 8283 8d3f 1658 ae32 b7de cf3f
00000180: 5318 2b80 ea69 c6bf a452 5317 68d0 c3bf
00000190: 4fdf 41f8 273f d23f bbf6 9b3f f41f b4bf
000001a0: 6528 fa83 f6f3 a63f b768 5d23 6358 bc3f
000001b0: d3e7 9a33 1446 b43f b893 f556 5ad7 c4bf
000001c0: 492e 5959 cb91 923f 18d9 e759 2e1f c43f
000001d0: 85f7 8678 3cd1 a8bf aac3 2e68 437f c43f
000001e0: a12a 3449 6182 c2bf b362 ec7d f5c0 d1bf
000001f0: d9c8 3a42 619e c93f 66aa 900f fc45 c8bf
00000200: 26d3 170d 3583 d2bf 46a1 4015 9ee8 c93f
00000210: 740f 68b7 ae54 d4bf 8252 4b66 0937 d33f
00000220: faca 9669 cd99 aabf c61b 449f 8417 d1bf
00000230: f8dc 4a3f ed6c a0bf 9d18 bb7c 2d41 a8bf
00000240: 6236 64e9 eb2a adbf 861f c3ec e54d a13f
00000250: e036 fed3 afc2 ce3f 48b8 3c34 1fc5 cb3f
00000260: a93c b5f8 9b34 d23f ab14 42cd 0788 cb3f
00000270: 500a 5b37 89b8 ce3f 43fa 9b2e 6b7d d03f
00000280: 5c8a 4483 7958 95bf 7941 9bfe 28db a9bf
00000290: 66cd c127 75d0 803f 9117 7c7e 07ea c7bf
000002a0: c6b1 f129 06a1 ce3f f170 db92 1a59 babf
000002b0: 9287 6ef8 b74e d5bf 7178 bfc6 cb3d 953f
000002c0: 853a ab57 4ea7 86bf 2609 2d19 7771 b1bf
000002d0: 731d 7818 d101 d2bf 1281 4c16 575c d5bf
000002e0: cadb 1eac 2537 c73f 3b49 b56d e251 a93f
000002f0: ab3e e00c 73f6 cabf 2710 63f9 04f2 ba3f
00000300: 82a3 af79 57d5 c6bf 1c32 e9e0 657b bbbf
00000310: e0c5 b4b1 fa4e c1bf 4208 2d96 d8c2 a6bf
00000320: 1d01 7fdb 9885 6e3f b8b1 3a59 ec65 633f
00000330: f783 a55d 7c71 ccbf 5ae8 007d 13ff b8bf
00000340: 7eaf e07f 781a c4bf 5c3b 06df 230c c13f
00000350: c1e3 9fd3 ba9c ccbf 9b96 e1f7 d621 ccbf
00000360: 66f9 637e e477 96bf ddc3 06c4 8b4d cabf
00000370: 702a a6fe 3f63 c33f b7ff 8ae5 122c c43f
00000380: f726 a1d9 23eb babf 99e9 1548 f4d3 ae3f
00000390: c5ab 8329 0274 7f3f 97e2 7d0d f5b7 953f
000003a0: d886 8bb2 a7d1 a03f 69ce 9b0f ac1f cbbf
000003b0: c992 14df 53d4 a53f ef35 2353 6864 b8bf
000003c0: f5d1 ff58 2194 b33f ef59 6451 1e73 9ebf
000003d0: 6ba0 7504 e050 abbf c53b b7dc 87bc c1bf
000003e0: acf4 4e09 eac8 a53f dbdd c3c9 a9e0 9abf
000003f0: 9497 1dab e399 c3bf 8fe9 2b4c 3d53 c1bf
00000400: 21e1 5d85 c390 b43f fe27 3a3c 3fb3 d2bf
00000410: 8f65 9f63 7b64 c73f 9b34 54aa 244f b13f
00000420: 0929 9ff1 682e c8bf e18c 2153 76ba 9bbf
00000430: e5df 8e76 2587 cdbf 5914 e611 d2df c9bf
00000440: 31b6 2cc5 4c51 a0bf 55d1 1b29 43cd b63f
00000450: 64ae 8371 971d 8ebf 820a b1fe 160d d3bf
00000460: 80a3 c31f e227 b33f 84fe 86fd 9e16 cfbf
00000470: 127b 494d 40a6 c83f e675 ea6e 765d d13f
00000480: 6409 ca41 1106 d2bf 2027 0cd5 e181 d83f
00000490: 18ae ff46 955f c33f 7dcf f709 8673 b4bf
000004a0: 27cd 4b9c 60ec ce3f cab9 3cb2 0801 d5bf
000004b0: b09b 4604 53d7 d03f c272 9b30 f9c3 d73f
000004c0: fbb2 8ace 72fc b03f 821b 929b c051 c03f
000004d0: eec8 9012 eadf c3bf 8f8d 4cf9 d4aa d0bf
000004e0: adc5 96c9 7103 dabf 8305 0436 1c82 cabf
000004f0: e84a 6af0 5922 cabf 20d8 179c f882 d3bf
00000500: ede0 fd32 2055 d4bf 4f3d 3f04 3729 cdbf
00000510: 4b9f 20fe d20a b03f b79d fd74 591d a6bf
00000520: f45d 41d7 eed8 a3bf 8901 743b 5e21 c03f
00000530: da11 cd2c 78c7 d3bf 2e73 1347 a166 803f
00000540: 2952 3ed6 2b1b b73f 5bc6 885a 4b04 ab3f
00000550: 02e4 18c6 6c04 973f 402a e55c 9598 b73f
00000560: 8657 4c33 714d d03f 5d51 37b3 33fe d23f
00000570: aa04 e644 f6a7 c3bf de62 a51e 749f c13f
00000580: ba78 c50c 03d4 ba3f de4a 6187 8bd2 c9bf
00000590: 84e3 66fa 9f5c c23f 860a c16e d518 6bbf
000005a0: 4507 a4c3 2ff5 ba3f 0b48 ec9a 820e afbf
000005b0: 2862 e103 9e60 76bf 62bb d3f8 48d9 c13f
000005c0: 3f58 f60a b72e d13f 6298 f38e b459 a83f
000005d0: 84e0 6c87 3c66 b13f 8f41 ea7e d91c cfbf
000005e0: 5613 7df6 4e58 c73f 83f5 de02 7b00 c93f
000005f0: c332 8bf5 21a8 c1bf fef2 b0a1 f4b1 c23f
00000600: 912b 175f a815 c2bf 5b2c b2b9 39e7 b3bf
00000610: 6a41 bb2b 9f1c ba3f 3dc5 cd6d 2b2d 943f
00000620: 3fe3 2642 2aa2 b33f 5767 62e8 481a a7bf
00000630: 9f61 4cf6 c994 8bbf 933f e5c1 39da c23f
00000640: 03ae 5d5d 7f2d c5bf 6371 a01d 4d6c ab3f
00000650: c460 006a 7ec4 a43f 4689 9385 7f74 c93f
00000660: e940 7a42 1dde ba3f bf7d f5e5 411c c13f
00000670: d1c7 d5d0 8e36 b83f 3c4c 6d91 3228 c33f
00000680: f010 abc1 76ed c63f b874 6076 3f8c c93f
00000690: 074c e041 a75c aa3f a4ee 5980 444b b33f
000006a0: c74e 9200 95d4 cbbf 0c3a 8c21 deff c0bf
000006b0: 3d67 483c 66fa cc3f 4315 f1e6 7350 713f
000006c0: dc44 cb90 bab6 c53f 7345 2417 68bd c53f
000006d0: c26a 917c b85a be3f fb91 80a9 01dd cdbf
000006e0: b77b ee9c 8af6 a2bf eb6a af5a 6b38 c83f
000006f0: 7325 c857 8571 a63f feb7 c545 49c0 c43f
00000700: 7db9 03bb 54b3 d0bf 2bcb b3bb 7eea c0bf
00000710: e129 36eb 037e d23f 39d3 a1fd 4aa7 d0bf
00000720: d134 1d85 e7cd c5bf 9658 f151 7374 d63f
00000730: 6351 f8f9 f77f d3bf f43a 6248 e87d c23f
00000740: b1d0 5dd1 04fd c0bf d957 a383 1069 cfbf
00000750: 65eb 5b8d 94c3 c7bf 1ee7 2b06 e62c 98bf
00000760: 4dcf 5f4d 0e3e 85bf 9a3a 7935 33bf ba3f
00000770: 3e91 941a f9aa d03f 7203 57bf 77d0 c73f
00000780: c014 926a 5fac cd3f 2f81 53b9 18e7 ce3f
00000790: c737 5810 7898 c93f 317d f4b2 f481 ce3f
000007a0: a936 c4bb 89d7 c4bf 0060 4970 faa6 80bf
000007b0: ee97 7a29 f646 ab3f 6793 68d9 d62e b7bf
000007c0: 7f18 487a 421f c53f c4b3 94a6 ef87 b1bf
000007d0: 6e04 f980 25f3 633f e6dc 5364 446d 8b3f
000007e0: d1f5 51fc d815 6f3f 7205 75d5 2afc a53f
000007f0: a6f0 b386 bb5f c4bf 504a b502 4d58 c7bf

W_hy f8 [10]
0.34517847111914 -0.17708403923906652 0.3268282758877158 -0.23070654444027947 -0.4562311046855297 0.2733342130394689 -0.522133478423968 -0.3489077512659558
0.22381520685293266 0.45961630598614867
00000000: f25b 2f71 6717 d63f 9272 9696 b0aa c6bf
00000010: aa21 1625 c1ea d43f cb0d acc3 ca87 cdbf
00000020: 15b5 82f2 e332 ddbf 8079 78c8 4e7e d13f
00000030: 0649 bf44 51b5 e0bf 1186 402d 8154 d6bf
00000040: f0f1 e308 faa5 cc3f 3cce ba82 5a6a dd3f

b f8 [10]
-0.0616268247384505 -0.27334140122241696 0.25672769696102876 0.21275858552207694 0.27369676495110357 0.06210441460233878 -0.1538899485614852 0.19318663028119681
0.0894487057903874 -0.18242772955804676
00000000: 11ae 9d19 8d8d afbf 7928 b9ee 6c7e d1bf
00000010: 7b33 9b01 3a6e d03f 5c59 615f ac3b cb3f
00000020: 711a 9f6f 3f84 d13f 77fc 4e5b 26cc af3f
00000030: 0c9a 2074 aab2 c3bf fe84 8ae9 56ba c83f
00000040: 9d0b 0a42 1ce6 b63f 88ec 2ab6 ca59 c7bf
