models/FINAL/rnn/rnn___10/9/strategic/model.pt (torch, 9103 bytes, 4 tensors)

W_hh f8 [10, 10]
000000 4b db 30 02 95 3c d3 bf 00 b4 c7 59 8d f3 d2 bf
       -0.3005726357836706 -0.2961152436026282
000010 80 67 44 5e 0d ce 8a bf 8d 8e a9 20 dd ba da bf
       -0.013088325919443866 -0.417655259987648
000020 fc a4 c3 9f f6 6a d2 bf 22 1d b9 1c 66 bb c9 bf
       -0.2877785263249988 -0.20103145983214527
000030 4d f0 bf 2e d1 bb 6a 3f a5 33 a3 92 56 fa b4 bf
       0.003263386306569449 -0.08194485740678077
000040 45 9e 24 12 ef 24 b6 bf 69 68 9a 96 25 fa c0 3f
       -0.086501066140607 0.13263387540502272
000050 5d 2d da ae f1 dc b2 3f 12 a7 96 af 9b da a4 bf
       0.07368383902410387 -0.04073034780897279
000060 c7 60 40 61 41 f7 bb 3f 45 2b 76 31 68 3a ce bf
       0.10924156784347182 -0.23615744032971456
000070 4c 88 65 11 0d 32 cc bf 41 80 1d 1c 9e db b2 3f
       -0.22027743672794242 0.07366359888465103
000080 b6 78 d2 95 83 e2 c5 bf 87 8a 06 16 aa 12 a1 bf
       -0.17097515883955844 -0.033345523060480046
000090 de 01 f5 2c 90 c9 ba bf db 56 90 d4 96 7b c2 bf
       -0.10463811013779131 -0.14439664248555215
0000a0 e2 31 48 dc e9 eb b4 3f 0e c4 f3 c8 c4 8d cf bf
       0.08172475460032261 -0.2465139371120419
0000b0 70 c7 af 27 0c 2a bc 3f 29 ba f7 04 f7 c6 cc bf
       0.11001659363662752 -0.22482192747652732
0000c0 3c bf 79 08 5d 4e 98 bf 0e 47 23 ef 7f 3a c2 bf
       -0.02373643268805313 -0.14241027046824012
0000d0 c8 b4 f5 98 e3 14 d0 bf dd 8b c0 35 5e 66 d3 bf
       -0.25127496659736126 -0.3031230473445115
0000e0 eb 31 f9 04 f0 b9 d1 bf 91 02 8c cc fe 6c b1 3f
       -0.2769737289970908 0.06806938642331263
0000f0 1c 4a 63 12 d8 d2 b3 bf 5d 78 8d d8 cc 73 b6 3f
       -0.07743597458765134 0.08770447050980708
000100 7e ca 1d 66 af ea d6 3f 2e da 4b 3a b4 cd df 3f
       0.35807404491712436 0.49693017666814654
000110 b9 98 c7 e8 a5 f7 d0 3f 63 6d 2a 7c 47 75 be bf
       0.26511523945226717 -0.11897703915967876
000120 66 76 98 c6 95 2b cd 3f 9e a6 34 e6 45 28 d0 3f
       0.22789261052178061 0.25245807152769284
000130 a0 72 ea 7a 50 83 9b bf f0 08 13 dd ef 0b ca 3f
       -0.026868112089334262 0.20348928732534644
000140 de 40 5e e5 18 42 ad 3f fb c1 fb bc 2e 12 d4 3f
       0.05714490699676998 0.313609776071672
000150 75 52 24 22 cd 3f ca bf 4d 89 fe 5a ed 98 c0 3f
       -0.2050720612247862 0.12966696684913828
000160 d7 29 03 1e c3 b7 a3 3f 11 cb e2 d2 67 fa a8 bf
       0.03851136914598257 -0.048785442822369636
000170 36 cd 3b 67 ab 8d c4 bf a8 98 21 8d 22 ff d5 3f
       -0.16057341137602926 0.34369720251414515
000180 70 82 37 e5 8f e4 d7 bf 0b b5 33 73 ec 2c d5 bf
       -0.3733253229566236 -0.33086692094987374
000190 18 b1 e1 48 49 77 d1 bf 58 fe 7b ec 39 75 bf bf
       -0.27290565602631167 -0.12288248084586806
0001a0 27 c3 f0 b4 3f 5a ac 3f 7c 07 1d f8 a6 5f e2 bf
       0.05537604411836688 -0.5741762968029742
0001b0 4a 92 0a a5 d4 f0 de bf 75 c6 9f 77 8b 06 a1 bf
       -0.483449135945453 -0.033253057816080046
0001c0 19 ec a3 26 e8 1d d6 bf dc 20 66 32 56 b4 db bf
       -0.3455753686282051 -0.43288187906047226
0001d0 57 3f 35 22 a7 d7 c5 3f e5 56 54 e6 78 a3 c4 bf
       0.17064370317757024 -0.1612387776046297
0001e0 28 6e 8d af 71 2f c5 bf 91 95 a3 d7 b6 c8 d7 3f
       -0.16551037856957973 0.37162562426086604
0001f0 ec e4 51 d5 38 f2 c0 3f f0 50 7e fc 06 dd d1 bf
       0.13239202896128377 -0.27911543519554893
000200 9c 8c df c9 50 b0 a3 3f 1d df 7d 0d f1 78 be 3f
       0.038454556124429135 0.11903292254816873
000210 36 df 8e a1 e5 ff c5 3f a0 fa ec ab bc 20 c2 bf
       0.1718718565805319 -0.14162405390557797
000220 5a f2 bb 25 5d a2 c4 3f 3f 8e f0 79 ee 60 d4 bf
       0.16120495169151888 -0.31841623218699405
000230 df 73 1b d1 26 6f d1 bf d8 54 b9 ce 0e 23 d1 bf
       -0.272409156996046 -0.2677647608555396
000240 6f d9 06 8e d2 02 8a 3f 3d ef 9a 4b 0d d8 c2 bf
       0.012700695952713585 -0.14721838180218497
000250 52 db 5a d0 da 70 d2 3f 3a f2 4e 01 56 ff b2 3f
       0.2881381067958745 0.07420861751501998
000260 d9 ba 25 04 a6 6f c8 3f 19 67 97 39 1f c6 c8 3f
       0.19090724184521582 0.1935462027748194
000270 4a 24 be 9d b6 0b b1 bf b2 df 75 5c 8f 32 c0 3f
       -0.06658498145238059 0.1265429688899054
000280 84 bc 03 65 fd 49 ba 3f 26 de 93 34 50 b5 c4 bf
       0.10269149509598391 -0.1617832428671459
000290 f3 d6 a5 04 12 f4 97 bf 58 d8 72 d0 d3 95 9a bf
       -0.023391992124252203 -0.025962171170896248
0002a0 71 87 a8 6c c1 d3 c8 bf 4c ba ff da ba e3 b6 bf
       -0.19396226697522992 -0.08941238257077905
0002b0 89 07 3d 81 f3 2c d5 bf 21 15 36 73 e7 16 c5 bf
       -0.3308686029523576 -0.16476147771405983
0002c0 b9 3f d3 57 d0 d4 bf bf 01 b6 a8 9f 3e 35 bf 3f
       -0.12434103149575905 0.12190619848180263
0002d0 c8 5e 2a f2 e1 cb b0 3f cf c2 cb e5 d2 b8 d8 bf
       0.06561100160831324 -0.386280750665759
0002e0 95 c2 56 20 07 f3 d1 bf c1 37 8d 51 42 38 c5 3f
       -0.28045824201675745 0.16577939016354828
0002f0 88 37 65 59 b9 d9 d3 bf 11 b5 71 45 22 11 cb 3f
       -0.31016381959931794 0.2114603842814309
000300 61 15 c5 dc 39 bb 93 3f c3 02 de e4 ef 75 a5 3f
       0.019268898105356928 0.0419154135588591
000310 6f 7c 27 b8 de 27 be bf ae 1a c8 de ad 8f a9 bf
       -0.11779586788132844 -0.04992431015494013

W_xh f8 [10, 82]
000000 5e c3 58 a3 17 2e d5 3f b0 fd 22 30 f9 79 d9 3f
       0.33093825294331747 0.39806966496322627
000010 e9 89 74 49 29 83 e0 bf e1 f8 e4 6b 8b 61 99 3f
       -0.516010898082013 0.024786165676453534
000020 09 34 de 4c 55 63 dd 3f 75 f4 b4 01 da 36 c5 3f
       0.45918781763686006 0.16573643763868842
000030 da 4b aa 48 cf 9a d0 3f 7e 54 3d 8c 0d cb d4 bf
       0.2594488343831337 -0.3248933667685562
000040 14 d2 16 8b 32 07 da 3f 73 6e 09 78 29 04 e0 3f
       0.4066892965595639 0.500508055159527
000050 d3 6d 70 45 73 cd b6 bf d7 ee f3 c3 ca 1b 90 3f
       -0.08907242245952966 0.015731018266690846
000060 61 6a 36 89 ca db df 3f 6c b7 c5 bc 5c f9 d6 bf
       0.49778998756088383 -0.3589698642234598
000070 4b 1a 1c b2 77 dc 7a bf d4 21 82 07 3f 49 d2 3f
       -0.0065579105009932566 0.2857205937694094
000080 ed 4c ef 91 df 6f b6 bf cf 30 54 32 c5 84 b1 3f
       -0.08764455139980827 0.06843216398937389
000090 9c 98 19 52 fc 47 d3 bf 88 1f f7 16 91 6c d1 3f
       -0.3012686540372529 0.2722513889570952
0000a0 0d 84 ff df 26 b7 c6 3f 7b 0e 9d b6 a5 96 b8 bf
       0.17746435105712557 -0.0960486956437822
0000b0 f8 6d be 31 a8 47 d6 3f 50 34 73 5e 2f ea dc bf
       0.34812359674262394 -0.45179352019915076
0000c0 31 ab ed 64 3c ff cf 3f aa df 62 82 f9 1e ce 3f
       0.24997668197769365 0.23532027117266568
0000d0 f2 9f d0 ef 53 f4 c5 bf d7 06 c2 17 55 45 c1 3f
       -0.17151879510606666 0.13492835674337897
0000e0 93 2a d2 8c a4 b5 c0 bf 41 a2 0e da b4 73 be 3f
       -0.13054329753898183 0.11895304034863675
0000f0 da 85 5e 5e 0a 6e a1 3f 16 02 65 3e 32 41 ae bf
       0.03404266740768565 -0.059091158024333776
000100 7c c0 b9 73 6a 28 b5 3f b1 96 39 c5 93 05 ab 3f
       0.08264794659931057 0.05277692587405392
000110 21 e3 f4 c5 ed 64 b1 3f d1 55 71 fa 65 4b e0 3f
       0.0679463012974222 0.5092039004763881
000120 84 dc 6f 58 4b b0 cf bf 73 65 36 10 0d 78 c3 bf
       -0.24756757562838427 -0.15210116664529102
000130 e2 d9 a8 c6 f5 2a b9 3f ef cb 76 cb ff 7f 90 3f
       0.0983117685326316 0.016113278192005195
000140 72 b1 64 85 5b 05 ca bf 0e 45 d8 22 9b ca c6 3f
       -0.2032884980520851 0.1780580444470065
000150 18 d5 64 97 62 b1 a9 bf c4 40 92 b0 d0 fa ac bf
       -0.050181466084192106 -0.05660106807147394
000160 ee 12 cd d2 2f 43 d4 3f b4 7c 27 a0 4b 38 c3 3f
       0.3166007574657631 0.15015549964934893
000170 0b c8 ee 4b ad 8e c0 3f 6b 38 34 99 e5 5d c6 3f
       0.1293541546597797 0.1747405050340974
000180 06 96 9e 44 32 69 df bf 57 9e 2d 72 97 f7 d3 bf
       -0.49079567624207276 -0.31198679113592703
000190 43 a1 73 43 9b d0 d9 3f 9c 1b c5 7e b6 42 b4 3f
       0.40335733019903247 0.07914295763940377
0001a0 13 87 13 23 8b 46 cf 3f 86 f2 a6 66 f6 c7 b0 3f
       0.24434031689366317 0.06555118566661564
0001b0 c9 1b c6 1f cc 3a cd 3f 25 4b c9 3c 7b 1e b2 bf
       0.2283568530221756 -0.0707776091960964
0001c0 fb d0 c3 d9 6d f5 90 bf bd 39 c1 6d 31 89 ce 3f
       -0.01656123773223415 0.23856180056686851
0001d0 11 68 04 4c 9f 54 ba 3f 00 ea 2e b2 1c 28 c6 3f
       0.1028537331189059 0.17309912395815275
0001e0 c9 45 d5 71 66 0c d8 bf 22 85 1d b5 ae 3c e0 bf
       -0.3757568465854005 -0.507407525769086
0001f0 71 87 96 0b f2 53 d2 3f 41 3b a9 35 4e e7 e0 bf
       0.28637362605706246 -0.5282355354373537
000200 f7 54 6c aa 1e df d7 bf 8b 97 ab 09 c9 0d c9 3f
       -0.37299315112006987 0.19573319408590026
000210 5f 12 08 92 17 9a d7 bf fe e8 d3 3e 86 30 e1 3f
       -0.36878003369228013 0.5371733882050476
000220 ba a8 57 16 98 86 d3 bf 05 b6 44 3a c2 fe d6 bf
       -0.305089971369522 -0.35929923715852424
000230 f4 61 eb 35 ee b6 bc bf 5a c9 f7 18 1f 66 ba bf
       -0.11216629806893491 -0.10312075004165902
000240 17 4f a5 8b d2 55 c6 bf 42 ae 9f 8b 40 a4 b0 3f
       -0.17449409311904482 0.06500628861220384
000250 e9 fc 3c ed 23 18 e0 3f 60 4f 6a 6f 55 6e df 3f
       0.5029468186911831 0.49110923653028316
000260 8e ad db ac 36 ab e0 3f 97 b0 ba 8a b3 78 df 3f
       0.5209000946173761 0.491742024877348
000270 5a 56 23 77 f9 4c dd 3f 5b 23 02 1d 7d 83 c4 3f
       0.45782314905713906 0.16026271740363537
000280 96 ba 8d e3 fe d7 b4 3f 1e 8d 91 04 a6 1d b7 bf
       0.0814208322096682 -0.09029615031754587
000290 d2 c2 2b 80 32 e4 be bf 0e 41 56 02 5e 93 c7 3f
       -0.12066951398061157 0.18418479074581068
0002a0 10 96 d4 a8 8c 1f c8 bf 84 20 b3 33 74 41 e1 bf
       -0.1884628128402004 -0.5392399797210747
0002b0 f3 2e e1 2d 61 a1 c0 bf 23 55 63 d8 df ba 98 3f
       -0.12992491474357556 0.024150369245792846
0002c0 18 b2 ca 92 1e 26 c0 3f fd fd d1 2b 14 38 d3 bf
       0.12616331260268576 -0.3002977779323997
0002d0 e7 cb 0e 3f b3 b5 c2 3f 3f ec 71 b0 c0 73 b7 3f
       0.14617004946703036 0.09160999591578987
0002e0 e3 f6 cb 5a cb 51 d4 bf 97 1a b3 05 ce 2f c5 bf
       -0.3174923311888575 -0.16552138593961693
0002f0 45 10 51 b6 94 34 d0 3f 23 44 1e e9 58 39 dd bf
       0.2532092838703231 -0.45662520184947847
000300 0f 97 52 44 df 09 d3 bf 48 57 77 c9 45 72 e3 bf
       -0.29747754737978566 -0.6076992926489106
000310 91 5e f3 12 8c 68 dc bf 3a 27 f9 09 d2 9d df bf
       -0.4438810525002533 -0.49400759672117867
000320 de de 5d 31 21 d6 d5 3f de 3f da 0a b1 ec d7 bf
       0.34119443722691567 -0.3738215070707137
000330 ae a1 86 f3 54 fc e1 bf ee b3 32 f0 ee 59 c6 bf
       -0.5620522266736339 -0.174619548114975
000340 28 dc 91 7f 91 21 d3 bf c2 d4 1a 8c df 30 d5 bf
       -0.29892384965882224 -0.331107985325911
000350 85 58 4b 6b cb a5 dd bf c8 7b 62 26 78 ce b5 3f
       -0.46324429967842945 0.08518172204138275
000360 55 89 56 15 f7 09 db bf da 6a 19 2f d8 d0 b7 3f
       -0.42248322566787994 0.09303046369442872
000370 82 f3 34 d6 0c 81 c6 3f 2f df 75 c5 2e e0 cd bf
       0.17581329783743277 -0.2334040130770005
000380 82 f2 a6 f3 49 2a c4 bf c7 0a 17 82 a3 4d c5 3f
       -0.15754055401875539 0.16643184520770246
000390 f5 f0 e6 b8 e1 68 cb bf 1a ee 58 5e ab d6 d8 3f
       -0.21413823631690546 0.38810238088237414
0003a0 44 8d 59 5d 10 5c a2 bf c1 21 99 3a 68 43 b6 bf
       -0.035858642001381585 -0.08696605139369408
0003b0 4b 07 2d ff 1f e5 a9 bf 19 a3 56 1d d1 94 ca 3f
       -0.05057620992603392 0.2076665299657854
0003c0 6e ce c8 34 30 42 dd 3f 9d 10 d3 e5 b9 e1 dd 3f
       0.45716481356360006 0.466902231634103
0003d0 fc e5 5f 00 d9 2b d7 bf 53 9c 02 b6 10 68 df 3f
       -0.3620512488992913 0.49072664045747166
0003e0 8c a2 28 e8 4b ff c6 bf c4 df e8 ef 80 d4 7c 3f
       -0.1796660312259245 0.007038596783381427
0003f0 38 c3 87 2a ca 7a bf bf c6 4d 18 97 23 6a d5 bf
       -0.122967372306232 -0.33460321193089404
000400 a4 0f 00 4f f0 56 af 3f 20 81 4f d3 6c 2c dc bf
       0.061210164683898755 -0.4402114928798415
000410 77 c1 0e 59 e9 13 d9 bf 87 35 e2 82 55 30 c2 3f
       -0.3918403024390708 0.1421000374870511
000420 ea 4e 63 87 dd e6 a1 bf c7 d1 ce fa 7d 82 e0 bf
       -0.034964487816663795 -0.5159292124358722
000430 d1 06 e9 eb f5 2c df bf 65 6a e5 0f ec d2 d8 bf
       -0.48711917913543085 -0.3878736644016157
000440 5c 54 19 d7 b0 22 a4 bf 08 9b ff 2f 9c e6 a4 bf
       -0.03932716966361546 -0.04082191549223607
000450 f6 cd 64 ad e9 51 bd bf 4c 27 a6 b5 d0 53 df bf
       -0.11453114016767771 -0.48949067820705205
000460 0a c9 10 7c f8 0c b1 3f e2 27 21 72 b0 51 d2 bf
       0.06660416630692026 -0.28623591561756545
000470 35 41 d5 84 77 51 d4 bf f9 e2 6a 45 57 06 d1 bf
       -0.31747234317755907 -0.2660120180039907
000480 9d 3e 3c d8 17 1c d7 3f a9 2d dc 13 68 3f d5 bf
       0.36108966938716397 -0.3319950288721097
000490 c3 1d e7 fe 1a 47 b4 bf 1a ab f3 fc 7a 42 db 3f
       -0.07920998309338416 0.42593264295889954
0004a0 6d 98 e4 f8 b1 10 c2 bf ab 14 b4 03 a4 b4 c4 3f
       -0.14113449719406237 0.16176271611053514
0004b0 ab bf 64 ac d6 43 c3 bf f4 01 ee e7 41 74 ca bf
       -0.1505077687993411 -0.20667289566701152
0004c0 20 9e 5c a9 3a d1 c9 bf 90 b0 99 7c e9 c0 b4 bf
       -0.20169766683214707 -0.08106860439301244
0004d0 d9 ad 38 fc d9 d7 c2 bf db ef f6 d0 37 6c d8 bf
       -0.1472122651624506 -0.38160510451029744
0004e0 75 d4 e2 02 c0 28 bf 3f 06 0b 28 94 57 81 d3 3f
       0.12171554632625876 0.3047694155540487
0004f0 5b 42 51 78 e3 0c c7 3f d0 d5 c2 94 b6 51 c9 3f
       0.18008082747339213 0.19780618919109694
000500 38 67 98 fc 98 21 d1 3f 3e 1c 3a 47 0a b7 de bf
       0.26767563502800185 -0.47992188411484793
000510 61 f5 bd b0 25 0e d5 bf 14 37 c3 c6 0d 81 de bf
       -0.32898847827876493 -0.47662681970983667
000520 ed ce 30 a0 39 1e c4 3f 1d 4d e8 9e f5 d0 d6 3f
       0.15717239686784215 0.3565038730459536
000530 04 2f 7e e0 65 ef e0 bf b3 7b 5e 6a ec b7 8c 3f
       -0.5292233833910989 0.014022681232573086
000540 19 0f 04 83 1c 79 d1 3f b3 bf 0e cc 29 3f ce 3f
       0.2730170516444886 0.23630259002447715
000550 38 dd 03 80 e5 d1 c6 3f ef 2a 69 db ff 83 c4 bf
       0.17828053236710573 -0.16027830327433132
000560 47 bf a2 27 51 d7 d8 3f 9a 7a 99 f0 71 80 da 3f
       0.3881419074123084 0.4140896653752094
000570 28 82 5d 56 f4 e1 9d 3f 99 da f2 ee f4 40 c6 3f
       0.029182260295217116 0.17385732333578544
000580 ef f8 2b 59 7a 25 d7 3f 6e 0e 77 2c 65 a7 dc bf
       0.3616624708955802 -0.4477169927815571
000590 3c c4 91 02 1a 33 cc 3f f9 6a 45 d6 a6 28 cc 3f
       0.2203094971223737 0.21999059164485127
0005a0 93 de 28 a6 22 61 be 3f cc 46 d2 50 68 95 bb 3f
       0.11866966778404224 0.10774852727106604
0005b0 d7 30 9d 42 43 60 ce bf 34 45 63 eb 46 e8 d5 3f
       -0.23731270554197323 0.3423020647724855
0005c0 2e 0c 88 4d cf 42 d1 3f fb 90 ea bb 0b da 9b bf
       0.26970274516515047 -0.02719896635484618
0005d0 1f 20 07 55 c6 40 cb 3f 5d a0 be f1 07 23 d8 bf
       0.21291426803350164 -0.37713812454103907
0005e0 1a f5 fc 92 4b 91 c4 3f 57 c8 bb 94 12 c3 c9 3f
       0.16068405797151614 0.20126564276103195
0005f0 98 42 39 bc 8c be d0 bf 68 46 15 6c 52 ba ba 3f
       -0.2616302335855294 0.10440554751155562
000600 47 5a 28 db 14 14 d2 bf 71 24 c5 e5 9a e9 a0 3f
       -0.28247567560302794 0.033032265232187615
000610 ef b5 20 ee 3a b1 ca 3f 58 86 96 1f a0 86 c7 bf
       0.2085336363538057 -0.183795943664381
000620 fb 89 35 7f ab db c2 3f 4a 37 49 da c4 bd a3 bf
       0.14732879363425852 -0.038557197233429166
000630 1b 0b 52 97 73 25 91 3f 50 3f 62 78 b0 1c c4 3f
       0.01674442874037672 0.15712552908052624
000640 75 ad 3d 47 dc e4 d4 bf b9 93 67 6f b6 19 91 3f
       -0.3264685340606868 0.01669964842757896
000650 8e a5 85 cc f9 a9 a2 3f 5b 10 8f ad 95 3c a0 3f
       0.03645306226355692 0.03171222442281937
000660 0c 57 3b d2 84 9d c9 bf 0e 2c 26 df 53 05 d5 3f
       -0.20011959328865492 0.3284501723471188
000670 19 d0 2f 2c f4 05 bf 3f b7 d6 a5 a3 0d a9 8b bf
       0.12118459776667158 -0.013506037289271118
000680 88 cb 7e 2d 42 0d d5 3f c9 20 76 95 ce 8b ca 3f
       0.32893423502826424 0.20739157007142797
000690 88 d9 5b ba ef f7 cc 3f eb dd 4f d1 ae 4c aa 3f
       0.22631641959715076 0.05136629395559197
0006a0 5c 7d c5 ee 33 08 de bf 35 da 87 37 23 38 d3 bf
       -0.4692506629707702 -0.3003013651172382
0006b0 1f 92 7a 02 53 b4 d2 3f 2b c6 b3 b1 e3 fd cb 3f
       0.2922561191756205 0.21868559052340805
0006c0 ab 08 29 81 2e 31 d6 3f 0c a5 b0 d9 c8 54 b9 3f
       0.3467518102007811 0.09894995989511218
0006d0 2b fc ac 60 5c da d1 3f e3 5e 6c d8 e2 bc cb bf
       0.2789526886080604 -0.2167018467669016
0006e0 5c 65 b6 d1 e7 1e b5 bf 79 57 4f e6 bb b4 d3 3f
       -0.08250283117231078 0.30790612689212754
0006f0 ad 0f fc 02 2b 5d d0 3f 94 50 9f a3 38 93 c7 3f
       0.25568652430978994 0.18418033589717153
000700 1d 56 11 98 6a ec d9 bf e8 a6 92 76 f6 d7 d0 bf
       -0.4050547108684855 -0.2631813199937896
000710 98 70 89 12 8a 85 d3 3f 47 aa 41 f2 58 aa dd bf
       0.3050255948089755 -0.4635221830164124
000720 f6 f6 d5 b5 df b4 8e bf b3 1a d3 d6 f1 f4 d8 3f
       -0.014993427025497646 0.3899502370735874
000730 c0 30 be d0 14 8f aa bf 9f 18 d8 46 4d 87 d0 3f
       -0.05187287376529204 0.25825817030307435
000740 db 77 e5 46 1c 61 c4 bf 9f 01 04 d3 93 7b d2 bf
       -0.15921357595192273 -0.2887925682735161
000750 f0 14 d3 76 56 ec ce bf 04 f4 9d 2d 7b d9 a1 3f
       -0.2415874557683888 0.03486237460945321
000760 66 4c b7 2c d0 a2 b4 bf c6 85 19 e0 a5 88 ac 3f
       -0.08060933200549555 0.05573004112808237
000770 3a 10 fd 22 50 0e d9 3f df 09 2f 62 c6 cd d4 3f
       0.3914985982594349 0.3250595053506497
000780 d8 ec 44 a9 82 ed d5 3f 44 21 90 69 da 49 d9 3f
       0.3426214840907966 0.39513263996970616
000790 54 bf cb 33 79 94 d4 3f 99 ca a9 a2 b7 ca c6 3f
       0.32156210001175123 0.1780614418272151
0007a0 31 8d 0a 6c 52 79 a9 bf 33 40 21 8e 86 91 a4 3f
       -0.04975373810637008 0.040172772264327604
0007b0 0e 1a d7 b4 bb be c6 bf 4b 85 12 31 e3 6c ba bf
       -0.17769571619119556 -0.10322399089866001
0007c0 d1 be 3c a3 1f d9 c9 3f 6f c2 77 f7 db 41 b0 3f
       0.2019385859543861 0.06350493232435793
0007d0 25 9a 91 96 64 c9 9d 3f 17 29 d2 a5 42 77 9a bf
       0.029088565530765238 -0.025845567103297187
0007e0 9d 9b ee 80 4e 56 c9 bf a6 f6 8e 11 d0 40 cb 3f
       -0.1979463700820049 0.21291542870851748
0007f0 ee 26 98 11 bf 87 ca bf 5c 42 09 35 4a 48 c1 bf
       -0.20726765021418408 -0.1350186118093174

W_hy f8 [10]
000000 01 c1 a6 95 39 7e c6 3f f4 1a cd b4 69 06 91 3f
       0.17572707946010982 0.01662602582953361
000010 7d 8e 88 e7 a7 b7 b6 3f 79 8d 09 ad 22 a6 8f bf
       0.08873986628219117 -0.015453596978835847
000020 93 bc 47 f7 26 a3 c2 bf be 5f 46 cd ad 13 bf 3f
       -0.14560401033620404 0.12139402639002037
000030 06 d8 29 46 4b 51 d6 bf b3 b8 cb 91 1a 59 b9 bf
       -0.34871179439448985 -0.0990158658930536
000040 f5 84 e9 79 16 d3 be 3f b2 c6 43 7c 0b 20 ce 3f
       0.12040844417926506 0.2353529316674688

b f8 [10]
000000 02 18 3f a7 66 80 c8 bf 70 70 12 2f 24 14 d5 bf
       -0.19141848722773608 -0.3293543300330901
000010 a5 5e 20 ec 7d 34 b1 3f d6 49 52 bf 85 d7 d6 3f
       0.0672072125893189 0.3569044464467458
000020 60 19 98 1b ff 94 d3 3f bb 7e 7c 17 84 7c c2 bf
       0.3059690255617138 -0.14442492625038547
000030 7e 6c 56 56 f3 74 c1 bf c8 69 41 1c cb 1a cb 3f
       -0.13638154712393552 0.21175516967453079
000040 f3 03 2f f7 50 33 b7 bf 57 ff 1c f0 d7 e1 d1 bf
       -0.0906267741656988 -0.27940939377366675
