models/FINAL/rnn/rnn___3/4/strategic/model.pt (torch, 9103 bytes, 4 tensors)

W_hh f8 [10, 10]
00000000: c9d4 4e97 5698 e6bf 04d2 af79 7a88 ca3f
00000010: 80d4 9caf e12c d8bf 33a6 b3ba 1515 e1bf
00000020: e906 8f03 7e7b c33f ddfe a0b4 2119 ddbf
00000030: 10a6 8985 1b58 e33f 10d3 1718 5b11 d43f
00000040: 1c78 82ed 6391 d8bf c204 8095 abff d4bf
00000050: c4ce c0f1 6ef3 93bf dc0d 5975 6ec7 d33f
00000060: 2e9e 6c51 624c b43f eaf3 a17e d64c b23f
00000070: 68b2 caf8 0895 c83f edbc 496f df8c a93f
00000080: 4334 d84c 322f d13f b886 ae8a e21d d63f
00000090: be1d c02e e342 b9bf c4b3 e83e 93d3 cfbf
000000a0: 50db 17fb 5670 d43f 9de6 4b5c 0f34 e8bf
000000b0: cf0b b4ae 6d7b db3f e23d 0ceb 7825 a73f
000000c0: 2949 3628 7205 d4bf 5f30 ecf5 8e2c b93f
000000d0: 810b a3fe 377f e9bf 14ee 86dc d04e e1bf
000000e0: 76da 2cb4 6e8d 91bf a172 b996 7e4d dd3f
000000f0: 8ae0 6d63 411f cabf fe8f 5c62 b037 d3bf
00000100: 32d6 fb6e 7ccf a73f 7d03 1c0b 071c d5bf
00000110: c9a6 dce5 391f d1bf 11ed 9fd5 d66d c9bf
00000120: 188c d856 3afe 73bf 0ee3 7261 890d c2bf
00000130: c5b7 43e8 41be d1bf 2a09 5ba3 2cb6 b3bf
00000140: 1c2a 9efd cd0a 70bf 0e29 c04a 6fac d63f
00000150: e06f 3dfe 5ccf d6bf 94ce 6432 f8f0 bbbf
00000160: 1300 f0c1 0f27 b1bf e575 4a50 b5a2 c3bf
00000170: 5dc3 34ab 88fc bdbf cae8 e682 f449 ce3f
00000180: dd4c 0419 dfd2 dfbf 2a1e 487f 7e2d dfbf
00000190: 2b0e b286 0342 d5bf 3daa 13db 4bf7 d2bf
000001a0: 1d63 dcf7 0178 a13f 9ea2 c64e 0a69 e2bf
000001b0: 4b5b cae6 702f e4bf 85bc dbeb c2de bbbf
000001c0: dc37 903d f632 e3bf bc83 6881 797e e2bf
000001d0: d147 3b2d 2986 c03f ad98 26e4 6786 c5bf
000001e0: b55e d404 6994 d6bf 675e 4d8e ef2c ea3f
000001f0: 2046 6ae1 a5d0 c4bf d92a 0952 3391 e1bf
00000200: 169e c841 5007 d53f 851e 341a 2e3c b7bf
00000210: 1b71 7e11 cf7a e73f aa2a 5e86 3191 ba3f
00000220: 13e3 8329 0cbd b3bf 78e1 ae0d 4aed e5bf
00000230: 18e8 56ff 8b49 d6bf f51f 6a36 d21d c3bf
00000240: 6132 1c92 2778 c1bf 2e9f a42a 107e d3bf
00000250: 4e03 da4b 2049 cf3f 827b 0762 aff2 a7bf
00000260: 921a aa26 c29b d03f 4b6a 0d79 a395 c13f
00000270: d9e5 e690 a2bd c7bf e0a3 deaa feea 95bf
00000280: e3c1 e255 e026 c23f 5051 47bd ba62 e2bf
00000290: a514 7133 3734 b23f 55d6 46e6 9857 b33f
000002a0: 2185 9c00 e77c dabf 5342 bf66 a9fd 9bbf
000002b0: 9c04 837d fa66 e8bf cef4 5009 d3f6 d6bf
000002c0: 1abe 32bd 780c aebf fd0e 715c 74da d03f
000002d0: 459d 325b 025b bb3f 53b3 e8dc 5319 e4bf
000002e0: da66 96f0 f77a c7bf beee 38b6 1af6 d13f
000002f0: 93a6 1456 9708 dbbf 7c66 4c18 1999 d13f
00000300: 6bca d248 63c1 d0bf 15d3 26af 3297 a7bf
00000310: 350e 5808 8b90 a8bf 56dc df71 6c17 b43f
-0.7060959773285954 0.20728999082315636 -0.3777393546072929 -0.5338238379019401 0.15220618413700684 -0.4546589149431222 0.6045053108366023 0.3135593161853629
-0.38387392229367534 -0.3281048736535689 -0.01948331213516387 0.30904733142616947 0.07929052818200752 0.07148495284668824 0.19204818866764417 0.049902899107900335
0.26850564483976685 0.34557403128756503 -0.09867687121742727 -0.24864426204422163 0.3193566753465591 -0.756354980722978 0.42940847454900405 0.0452077662395103
-0.3128323929496611 0.0983361578366284 -0.7967796300293771 -0.540871077267584 -0.017141084429761887 0.45785488814525804 -0.20407883982602854 -0.3002739868700245
0.0465048680761523 -0.329835663651515 -0.2675308937783539 -0.19866452628034684 -0.0048811224819784935 -0.14103810556641644 -0.277237393208335 -0.07699851024793661
-0.00391655411830041 0.35427458095422615 -0.35640644863246784 -0.10914565306011986 -0.06700228199770235 -0.15340296192600458 -0.11713461093746731 0.23663193122576437
-0.4972455734543482 -0.4871517413125469 -0.33215416101322387 -0.2963437690183673 0.03411871100087736 -0.5753222979156651 -0.6307911403299412 -0.10886781938801178
-0.5999709322365976 -0.5779387977128105 0.12909426411221017 -0.16816424026655366 -0.35280824157369334 0.8179853228893535 -0.16261743074987667 -0.548974666811172
0.3285713808458878 -0.09076202525840855 0.7337413160017009 0.10377797632660682 -0.07710338605455673 -0.6852159754990188 -0.34823894439216607 -0.14934756905518012
-0.1364793265751301 -0.30456928409920436 0.24441913322155034 -0.04677341529508451 0.2595067384321875 0.13737910662423966 -0.18547470164575833 -0.02140424650102435
0.14181141084328805 -0.574551934895263 0.07110924726392172 0.07555537816991749 -0.41387343463618903 -0.027334830185113578 -0.7625706149484759 -0.3588149634341108
-0.058688901038632404 0.26333340671065725 0.10685744024759909 -0.6280917467716826 -0.1834402012580572 0.28064601702838476 -0.4223993626243125 0.2749693620004121
-0.2618034564176585 -0.04607542408067481 -0.04797777630667747 0.07848241596353608

W_xh f8 [10, 82]
00000000: 3d41 f6f8 aeec c6bf 96fa b990 db82 ac3f
00000010: 28a9 3428 d309 e1bf a02c fcde 19c6 e63f
00000020: 5c54 9770 5414 e33f 3772 85ec ba7a b2bf
00000030: 6605 d9aa 3a3b c5bf 1716 22d9 fe06 dcbf
00000040: 2c79 803c d823 9e3f c98b fc3e 4887 e53f
00000050: 2981 49e5 87cf e1bf c90b 0d4d 821d ce3f
00000060: c04e bb30 875f ca3f 3630 542b 4217 e0bf
00000070: c4e9 9eba 847b d13f c0f9 ed81 82fc df3f
00000080: 8763 ee6b a3da d33f e518 1e9a 0c76 be3f
00000090: 2613 b0d6 839d e8bf 3613 5dc2 c1dd 90bf
000000a0: 9143 be89 14bb e83f ddc6 e595 434d babf
000000b0: 82c9 ce98 a45f e33f 591a 37b9 76ba e1bf
000000c0: d0dd 65ef efd6 dd3f a7fc 82b8 9941 dc3f
000000d0: 2885 b899 8a25 a8bf 8d72 a76b 3286 d43f
000000e0: 686c 00f1 5d6a bcbf bd55 99b4 9786 b13f
000000f0: f4f1 cbbb 64e6 b23f 84a7 a866 f4ac 96bf
00000100: 7f67 8b5f d564 d43f fdac a6e5 ae04 d1bf
00000110: 090f 2d09 c52c c33f f944 c3f7 2888 de3f
00000120: e306 b629 3cb9 d5bf e1df 4e97 eaf6 c4bf
00000130: 950a dbf2 324a cdbf 85e5 fc51 9068 ce3f
00000140: 367e 327a 469b a3bf a300 72e6 0637 d6bf
00000150: 2a70 0814 f75c d13f f1dd d2af f498 d83f
00000160: e2ea 7c7e 1714 79bf 7327 82ef 1130 9b3f
00000170: 73f8 c462 d030 d53f 1124 b770 9114 df3f
00000180: ea70 6038 881d e3bf 3f38 38d4 cc8f e3bf
00000190: 9c02 9fce fa78 e63f 666e cff5 a80a de3f
000001a0: cdae e42b d7c8 df3f 9861 e0a9 4f9f cf3f
000001b0: 5cac 5a91 7410 d1bf d431 8cdd fbdc debf
000001c0: 509b 5b60 9c2c 953f aa26 6a62 6fb0 c43f
000001d0: c00e 6f85 505e d83f cfe0 043c a816 cbbf
000001e0: d069 4768 c3b4 adbf 7e67 6720 3c48 ccbf
000001f0: 683a 7205 7dfd d13f 64ef d906 6850 b73f
00000200: 15fd 021f f849 d0bf 22ab 3af4 c80c ab3f
00000210: b32f 2f4d 2081 dbbf ecff 30c7 6caa c93f
00000220: 6c8d 6751 9fc4 903f e8a9 6db9 0091 d6bf
00000230: c4f1 374d 86f3 c3bf 12e9 331e d6e0 ccbf
00000240: 940e 075b 1ec8 c23f 850a d785 f8a8 d13f
00000250: be06 79a7 107b bf3f d081 2bfa ec05 c03f
00000260: bb2f da94 4cf7 d03f c4f1 2489 913d c63f
00000270: a5bd 13ea 1047 cf3f 7cf9 0d99 6356 de3f
00000280: 3a4c 4549 ec2f d9bf 0105 fc9c 7fa4 b53f
00000290: 7528 b677 b7b5 e0bf f5ba 11c3 e28b eebf
000002a0: df76 5d26 234f e23f 1665 62a6 3d84 b73f
000002b0: 58f1 98e1 1b6e eebf 6d85 bf43 21aa bb3f
000002c0: 8622 4bdf 1750 e2bf 5830 66f2 bd16 d2bf
000002d0: 3589 b8f4 6c2f ecbf 4a90 a8c9 8fba f3bf
000002e0: fe58 53ec 2fbd c6bf f2d9 7042 bf01 d03f
000002f0: a1f0 a702 ff5b ecbf 2a4f f02a 70fc c73f
00000300: 102f 4165 6726 b13f d04a 8b44 82c8 e7bf
00000310: dcdd 0442 5728 d53f 2f16 9ca5 c11a ec3f
00000320: b47d b986 7a72 bbbf bb92 5290 9a17 de3f
00000330: 53fa 8dba 4e96 dbbf b093 1504 45e2 8e3f
00000340: e408 e5d6 6f8d b9bf 9f6c d8df 8bdc c13f
00000350: e404 4d5b 514e c33f d2f6 68f7 dc39 e0bf
00000360: 5150 60f5 ef33 b73f d6a4 fff1 c6df f1bf
00000370: e1e6 439d 8e31 d43f 53b5 4dae 52f3 cd3f
00000380: e8bf 14eb 5aa6 8ebf 6678 1859 8c39 ea3f
00000390: b9e9 a604 91d2 973f df2a 6f61 c4cd e1bf
000003a0: ecd3 9e27 efc3 bb3f c90f e897 d9b8 e6bf
000003b0: 5946 58f0 5cd1 d13f 4bec 0b1f 04d3 c1bf
000003c0: d37c acc2 5fb0 dbbf b535 4659 4009 cdbf
000003d0: f7fb be2a 3ef5 8bbf 9c44 8741 fb80 e1bf
000003e0: 0534 c5db 1067 cb3f 8e67 3d77 b0ad 913f
000003f0: 00b6 2b16 4344 d03f e78c 252b d386 e3bf
00000400: 688a d998 8dbd e03f b5ee d8f4 413c d6bf
00000410: 51c1 3703 a9e5 cd3f b6de d921 34a3 b63f
00000420: c72b 46f9 9d06 e2bf ec92 c48e 95ee b43f
00000430: e9e8 8a3e 4832 ddbf c049 3c91 438e d5bf
00000440: de19 ce29 b9cf debf b4d9 fefb 1519 c23f
00000450: 9647 16a6 6b31 d9bf ea11 ef66 239a edbf
00000460: 43a9 f3a8 a1d8 ca3f 70e4 2f10 e9a3 e5bf
00000470: f101 064e 4552 bebf 2db5 49e3 c9dc c23f
00000480: a791 89ab 46ab d2bf 4b07 42c4 b463 e13f
00000490: 314e 3d2d ac42 c03f 7843 7bda 61f9 cf3f
000004a0: eac2 1153 0253 e33f f724 0eb7 0973 e7bf
000004b0: d2f1 5ff3 19b1 e93f a434 3285 cc5d c5bf
000004c0: 8c98 5a79 a1bd d4bf a992 607f de76 d3bf
000004d0: c560 1d8f 4b26 d7bf e6ce a069 e1a0 d1bf
000004e0: 0fdb d010 1933 e9bf 9d56 1570 b602 e5bf
000004f0: 29ff 1c37 9f66 e4bf 1f2e e355 6486 e7bf
00000500: b74f 1dc4 9e7c d8bf 58f6 e426 1c18 cdbf
00000510: 58fb d6f1 c8ac ba3f 00fe 9c2d 1a55 ba3f
00000520: aee8 aee7 2a43 c53f 4060 14cc e01d cf3f
00000530: 26a6 dfa5 5ccd dfbf 2bd6 af20 b344 d8bf
00000540: d125 47b1 b7d2 c43f f7e7 104f c989 d93f
00000550: ac37 7cd3 43b5 c73f eb80 7804 bb0e ad3f
00000560: 0378 11ae 91a6 d43f 1085 9028 2dae db3f
00000570: 44ac cfb8 e31d b83f 3d1e 693a 26af ac3f
00000580: b2e0 26a4 1fce d33f 08f4 dad1 c944 d8bf
00000590: 4c4d a219 5b70 b93f 3a91 8d3a 7561 83bf
000005a0: fe5b 455d 8c65 9abf caca a269 1de9 b23f
000005b0: b827 afd4 587f b2bf 5dc3 9b4e fa70 e03f
000005c0: 69c5 2dad 606d c4bf 9e70 0e35 e4b1 c23f
000005d0: f41a e984 3664 d93f 9c42 1649 cfaf d1bf
000005e0: a0b5 936e 9fcd d83f d2c7 f880 c254 c33f
000005f0: 3fba 17a6 8ed4 c0bf bee2 739c 7483 d83f
00000600: def4 a3e8 9052 d1bf 5392 282f 9bea d53f
00000610: a251 f83b 05a0 a0bf ada8 8eb3 cc6f c63f
00000620: a1bc 29b9 c370 c03f 3324 c5ea 4c21 aabf
00000630: b215 9863 0c20 c43f 5fee 774d 2046 d13f
00000640: d9c4 e454 8a2a cdbf e466 095c bd63 993f
00000650: 368f fcdd 100d b73f 0cc8 0d8f 9da2 b3bf
00000660: 18bb 4435 88d1 d3bf f2d9 b752 7c88 d53f
00000670: 9342 c13f 8b57 a63f 5694 ea16 db32 963f
00000680: 99bc 640c 7276 e33f fada 56c2 12e4 cf3f
00000690: 3db6 79c4 0432 c2bf f617 b168 1b29 c23f
000006a0: 03c4 72aa d132 dabf a817 7a77 bd6c d9bf
000006b0: 0782 a406 6daf cd3f 6a50 4718 fdef c0bf
000006c0: a303 ec7a 1c46 b83f c673 3764 c2e1 c03f
000006d0: 5c5b d4bf 2825 d33f fc41 91d2 2742 cfbf
000006e0: 6f0b 7dd8 8b20 96bf 7f37 3b07 36bd ce3f
000006f0: d406 5f95 2e13 b1bf 0dc3 519b 6481 c73f
00000700: c1d9 aae0 7b45 d5bf 83f1 8e43 baac d5bf
00000710: 7ea4 40bf 75ed d23f 3e92 dfb9 ec67 e1bf
00000720: bd81 215c a3b7 e0bf cac7 1483 abab ac3f
00000730: 8058 875d 1cd3 d0bf 3ba9 87ef e7ec da3f
00000740: 495d 452e f39d c4bf 6ac1 32fb acdb cfbf
00000750: 19bd 680a 2e8c c0bf cd84 a9df d068 ac3f
00000760: dc97 ace6 5dab b8bf c762 ff87 adc1 b4bf
00000770: 0ab5 382c b445 e23f ed25 93e6 8c12 e03f
00000780: 3baf c7d3 4fe5 dc3f 1999 74f4 af6e e13f
00000790: db2a 798d 0720 d93f cf9b abea 4627 cd3f
000007a0: 6807 d46e 1a46 c9bf cba3 3981 67e9 bcbf
000007b0: 30fd 71b9 e565 c33f 05f3 c629 1aa0 d93f
000007c0: 9606 0222 ded5 e2bf 23e8 9148 fdda d03f
000007d0: 146b 91f5 66b9 d83f 5f3c c235 c00c eb3f
000007e0: fceb 67a6 d444 d33f 3a48 d63b 2598 b9bf
000007f0: 7b47 f7ff 2af9 d73f 9932 afe1 6976 da3f
-0.17909800678581603 0.05568586484604514 -0.5324493203418443 0.7116822581459878 0.596231670288613 -0.07218521379895369 -0.16587003080534685 -0.4379269714775957
0.029433611576785854 0.6727639417844041 -0.5565833547844125 0.23527554285291633 0.20604028586841672 -0.5028391691462335 0.27316396927531295 0.49978697479664547
0.31021962680966236 0.11898878824840471 -0.7692279046173993 -0.01647093533326257 0.7728369417474018 -0.10274145516975915 0.6054251656080825 -0.5540116898999471
0.4662437284345886 0.4415039350387339 -0.04716141821360004 0.3206907321271409 -0.11099803098515937 0.06845997008470923 0.07382802567366992 -0.022144144788547773
0.31865438776514304 -0.26591083933699605 0.14980376194045444 0.477060548740226 -0.33943084786743166 -0.1637852896508312 -0.22882687433419294 0.23756603244127575
-0.038294031540541715 -0.3471085787241554 0.27129914242118736 0.38433568163188087 -0.006122676633647047 0.02655056022971487 0.33110437055063996 0.48563037879336074
-0.5973549939258451 -0.6113037247575973 0.702268031651403 0.4694006348124503 0.4966333321233208 0.24704929156065414 -0.26662935442681657 -0.4822377837706686
0.020677989369598138 0.1616343718090339 0.3807565024437558 -0.2116289418279451 -0.05801973960815909 -0.2209544332716255 0.28109670192581016 0.09107065360325134
-0.25451472309573947 0.052831916630870404 -0.42975623643428235 0.20051345564024758 0.016375054687057952 -0.3526002703498805 -0.1558692814868562 -0.225611462352227
0.14673213429170018 0.27593815870583455 0.12297157372179421 0.12518083777741973 0.26509394203526043 0.1737539214754077 0.24435626439615735 0.4740227694200241
-0.3935499873670697 0.08454129774692733 -0.5221822107425981 -0.9545759019800629 0.5721603154485954 0.09186158477895776 -0.950941029186235 0.10806472686774322
-0.572277008171185 -0.2826380603007741 -0.8807892589286782 -1.2330472829135197 -0.17764853514990614 0.25010663498269914 -0.8862299968600561 0.1873913011228237
0.06699224683796623 -0.743226179003921 0.3305872101513765 0.8782661661686627 -0.10721555508779695 0.4701906594657818 -0.43104904382918113 0.015080012499945145
-0.09981440540744618 0.13954304151488814 0.1508275695614777 -0.5070633728243712 0.09063625088339335 -1.1171330884047186 0.3155247245591522 0.23398812781253273
-0.014965734767059716 0.8195249309681116 0.02326418486493662 -0.556368055630937 0.10845846860213698 -0.7100646941112184 0.2784035060040871 -0.13925220027872096
-0.43264001856910034 -0.2268448291692217 -0.013651357345109345 -0.546994808182848 0.21408282023404027 0.01726413467199666 0.2541663853179159 -0.6102081148823374
0.5231388078066859 -0.34742783461454546 0.23357117325896096 0.08842778994027864 -0.5633077496180413 0.08176550612968086 -0.45619398219754587 -0.3368081014933999
-0.4814284237149006 0.14139056019275886 -0.3936413881248141 -0.9250657091548053 0.20973606824493105 -0.6762585941461463 -0.11844285158986857 0.14736293409388548
-0.2917038607759203 0.5434211571848463 0.1270346852203246 0.24979804199258715 0.6038829443405949 -0.7327927184389001 0.8028688195623153 -0.16692501548496808
-0.3240741429421028 -0.30413019599135765 -0.36171235061693735 -0.275444367554185 -0.7874875381884027 -0.6565811337593065 -0.6375270916396164 -0.7351552655686112
-0.3826062121563569 -0.2272982778467163 0.10419898895541502 0.10286105741123919 0.16611229241045095 0.24309930767845067 -0.49690929602238254 -0.37919309799267137
0.1626805892577026 0.3990348121766369 0.18521926714350678 0.05675301007818397 0.3226665687451488 0.43250588380222244 0.09420607816689236 0.056023783331110334
0.3094557860417907 -0.3791985082023648 0.09937066436605341 -0.009463229989429157 -0.025778001015478218 0.07386955098153716 -0.07225566093907687 0.5137912307091984
-0.15958794075008179 0.14605381575245685 0.3967415140108834 -0.2763555730571541 0.3875502185681743 0.1510241632218468 -0.13148673162455002 0.3830234077318372
-0.27066443175119825 0.3424442253620203 -0.03247085911803828 0.1752868534798088 0.1284413007847194 -0.05103531232686755 0.1572280393885826 0.26990516248017643
-0.2278607286948844 0.024794539206005065 0.0900431196174026 -0.07670006506467092 -0.3096638221931456 0.336455422191107 0.04363665726908041 0.02167837455148843
0.608208679395733 0.24914774407599066 -0.14215144723441311 0.14187948810484813 -0.409351746037885 -0.39726196925800616 0.23191607307764192 -0.13232387242772187
0.0948198127844209 0.13188962834729362 0.2991430161795756 -0.24420640737163513 -0.021608529175192567 0.24014926293460445 -0.06669894358403933 0.18363626083330367
-0.3323659605042871 -0.33866745564935047 0.29574340512278485 -0.5439361219728835 -0.5224167632514348 0.05599723792182905 -0.2628851807943491 0.42070959464639984
-0.16107024916957816 -0.2488914705804846 -0.12927794941195073 0.05548718195201161 -0.09636484986967225 -0.08108028955701761 0.5710087646199622 0.5022644523061764
0.4514960830845102 0.5447616362114643 0.3925799256873412 0.22776113947403906 -0.1974518815186983 -0.1129364672175505 0.1515471606726151 0.4003968627910555
-0.5886068977562953 0.26336605154904386 0.38631605130437774 0.8453064966178195 0.3010760903413823 -0.09997780524125313 0.37458300587342536 0.4134773925732503

W_hy f8 [10]
00000000: eb5d 134a cd7b c0bf 7d47 4e01 1a2a c1bf
00000010: 1bf2 0fde 9819 d13f 9974 7d80 2631 c43f
00000020: 60dd a7e9 11a8 c1bf a705 bc1f d3b3 b53f
00000030: 0847 ff7d 5591 d5bf a5bf dd99 13f2 b5bf
00000040: c73c b427 5ea4 c63f 8d3d c740 2276 c13f
-0.1287781345078963 -0.13409733833082874 0.2671873253418952 0.15774995111397486 -0.1379415884873465 0.08477515721099015 -0.33699548057948947 -0.0857250452661434
0.17689110697435792 0.13641765749933335

b f8 [10]
00000000: f7ee 2269 d661 c7bf 9c94 e50f 4e36 c8bf
00000010: 0b69 1d59 7205 a83f 0b81 df66 1af1 9a3f
00000020: 02a5 3d42 9cca cf3f a301 05d3 e4c6 cfbf
00000030: 08f3 47f9 7708 b6bf eace 5153 daf7 c43f
00000040: 9ecd 7c9f 089b cabf f915 8fcb 235c d5bf
-0.18267326482406762 -0.18915725494585878 0.04691655481174636 0.02631036045920702 0.2483706782761957 -0.24825725845040578 -0.08606672130549609 0.16381386822069227
-0.20785625255085177 -0.3337487686042944
