models/FINAL/rnn/rnn___6/4/strategic/model.pt (torch, 9103 bytes, 4 tensors)

W_hh f8 [10, 10]
00000000: bf2a 44bf f204 e0bf 9691 3f94 c06f c4bf
00000010: 360c 7168 7136 c8bf 6896 af02 f186 d5bf
00000020: 790a ad1a 0f99 a63f 0695 3c72 252e d6bf
00000030: 7b5c 849f d344 d43f 97d4 ef16 9748 c83f
00000040: 7ecf 7a5e 3f31 cfbf 7a4f 90aa 30aa b0bf
00000050: b05b 92a9 d29c d13f 304a 1bd3 f156 583f
00000060: 15bf 7b05 59b2 d53f f960 0301 2888 d0bf
00000070: 55a3 f5b6 abe6 e6bf 3c56 81ae 5905 d23f
00000080: 5433 7f1d bdc5 e4bf c9f0 df42 1b33 debf
00000090: 062d f4c7 43e8 b93f 7889 24eb 930f b83f
000000a0: 7c5b 65ed 6c79 d13f f4a3 dc8f fed6 cebf
000000b0: 8dc1 1893 87bd d33f aca0 1dbb 7d91 c6bf
000000c0: ea11 328b 25c5 cbbf 7d66 c97b a7bb a53f
000000d0: c34c 9fa5 9b7d dfbf f319 7b21 cbd1 dcbf
000000e0: 0648 bc71 3411 bcbf 3c68 948a 90fe d13f
000000f0: fbad f053 a002 d53f 0ecb 2430 f33a b0bf
00000100: adc0 e87f b017 e53f 6689 5faa c400 ca3f
00000110: 928d d60f 5a30 dfbf 9b8f ebe7 e533 d23f
00000120: 15bd c4cb 2e51 dabf 27fc 6748 f9e7 d5bf
00000130: 4241 f272 8b60 d13f 3c63 3eb2 bde2 e13f
00000140: ec3a d693 abe3 89bf abb6 dafc 9314 cc3f
00000150: e234 193c c376 d2bf e89d b907 930f ba3f
00000160: 6b16 7aa4 4321 a63f a07b 9a85 f3f8 c1bf
00000170: cd35 4d63 df7b b2bf 05d6 b250 3b7d d53f
00000180: caf9 7c4b 5986 dcbf f465 b1a1 0db7 dabf
00000190: 7eb9 d40a 340f d1bf 1ddc 0150 a3c3 c1bf
000001a0: 3ddd 2236 2fce b23f 5bb6 34d7 7683 e4bf
000001b0: fcc2 f72c 7dd6 e5bf a589 e28d b034 93bf
000001c0: 2738 9f1b a2d7 e1bf 7ed6 369e e317 e3bf
000001d0: 7e61 c7d8 7d86 c63f 3269 c4d6 5655 c2bf
000001e0: 151a 714e ce7d d5bf ca6c db1a 9e1d d33f
000001f0: a9e0 4caf a3c9 a8bf d72b 6922 c975 d1bf
00000200: 425a 722a 9eac d33f d523 1702 a323 aebf
00000210: 1f81 369f 6c9a df3f 6651 bc73 2b18 b63f
00000220: b32a 5cea 217a 6f3f 45b4 4c5e cb7b e0bf
00000230: 5005 670f 8979 d6bf 92cb 16a5 ebe2 d4bf
00000240: 94c8 f380 fac1 b6bf cee1 63cc 4f99 c9bf
00000250: 0ebd 8ffb d69f d03f 910f 71e8 d4ea 9abf
00000260: 6694 0915 350c ce3f fb85 1a6e f0a9 c33f
00000270: f7fd 5422 f537 c3bf e16d f1e5 3abf a03f
00000280: a0f0 c98a b4dc ba3f 51ee 35b1 1b2d c2bf
00000290: e205 dbf5 3734 87bf 57de 7791 1be7 b0bf
000002a0: 868c 1f56 f788 d3bf cd62 dce2 79b0 b3bf
000002b0: d9a9 703d 3695 debf c087 187f 735c d0bf
000002c0: bbf1 2fe4 14c7 bfbf 3627 36a7 6e00 c13f
000002d0: c9a5 025e dbe4 bf3f 1838 fbfa aa96 d4bf
000002e0: 0520 a6b3 9e9c cbbf 1880 9770 6526 c53f
000002f0: 49de 9ff9 1766 dabf 4ead ed03 a29a d13f
00000300: 4765 227f 420f bfbf 6cbc 95cd fc96 a2bf
00000310: fb17 af65 53a9 b1bf 1982 5329 6639 943f
-0.5006040321034887 -0.15966040838897005 -0.18916146850287568 -0.3363611723164923 0.04413649750360533 -0.34656654506609674 0.3167008455070072 0.1897152769085195
-0.24369041550891873 -0.06509689487603323 0.2751967102025743 0.0014855729645445563 0.33901048217283974 -0.25831031893677864 -0.7156580518177217 0.28157655755544275
-0.6491380287276152 -0.4718692925523667 0.1012003291290747 0.09398769846715094 0.2730362242049791 -0.2409361078692026 0.3084429680339092 -0.1763150371218719
-0.21695393845233407 0.04244731317585335 -0.49204150365876503 -0.45030477780929273 -0.10963752533669444 0.28116239102530804 0.32828529546051727 -0.06339950490363952
0.659141778776776 0.20314844435695106 -0.48732615992249706 0.28441760681584477 -0.4112050046851022 -0.3422835547534668 0.27151762223458686 0.5589283448526667
-0.012641277741548738 0.219377993072546 -0.28849869603148026 0.1018001455173515 0.043222535922763004 -0.14040988944631483 -0.07220264601092836 0.3357685363838246
-0.4457000004948922 -0.4174226836235839 -0.26655293519697654 -0.13878289610485775 0.07345862456974302 -0.6410478785744077 -0.6824327352788653 -0.01875568262097151
-0.5575724162570211 -0.5966661539193436 0.17597935757545352 -0.14322934614831123 -0.335803581813168 0.29868271467939833 -0.04841338648697164 -0.2728140674632277
0.3074107565420584 -0.05886563683049643 0.4938003115476181 0.08630630088402355 0.0038424169932843254 -0.5151116220273556 -0.35116793159621285 -0.3263501274297421
-0.08889737747429854 -0.1999912021635865 0.25975584570456156 -0.02628643673621373 0.23474753882615856 0.1536236322036045 -0.15014518905989835 0.03270896965906523
0.1049301947441017 -0.1420015921865905 -0.011330067816177573 -0.06602642346830954 -0.3052347508475538 -0.07691156185718313 -0.47785717010506584 -0.25564277087880427
-0.12413149424532481 0.1328256908857896 0.12458582921194429 -0.32169603834052074 -0.2157171609107992 0.16523426053663637 -0.4124813020457379 0.27506304153094596
-0.12132659534326705 -0.036308193298162234 -0.06898995621222064 0.01975021006808406

W_xh f8 [10, 82]
00000000: 3196 2ff9 46f7 d63f cb8f fad4 82d3 e13f
00000010: 3e9a 471e f41a dabf ff6f c232 904b d03f
00000020: 3ec8 3ec7 118f e43f c5b0 d378 1dfa c63f
00000030: def0 0870 f2ef d23f c160 f923 401c cabf
00000040: 5715 d99a 5eba d73f 2dad 3e44 791e e03f
00000050: ae7c e4f5 c311 d8bf dd2a bdde b270 bf3f
00000060: bb2e 0946 6629 d93f ab6f b3cd 8992 cdbf
00000070: a32b 394f 7eba b83f 3c55 7aa0 eb15 d93f
00000080: 957d e5b2 c225 c13f 6666 0e3e a6ed d13f
00000090: e57a ba46 c104 c6bf 96df eb68 8c79 d53f
000000a0: 3dd3 99f9 5263 e03f 7448 8f72 0963 b0bf
000000b0: 8c97 4dc3 098a e33f 585a fed2 3d11 dbbf
000000c0: ae9f 78ae c972 dd3f d1fb cce6 1967 d93f
000000d0: b89c bd8d 3876 cbbf 1a7d 92d0 c2e5 acbf
000000e0: 248b 840c a542 743f 512c 3f12 56d8 d43f
000000f0: 0895 578b 226a b83f e36f 6a0c 7f38 a9bf
00000100: c5a6 c14d df86 923f 1e81 6a05 680c 77bf
00000110: 8a3f 4068 21e8 a8bf d521 93c3 7223 e63f
00000120: e1a6 7843 217c ccbf f2a6 005f a666 a83f
00000130: 953b c50a 8847 b2bf e20a c93e f034 81bf
00000140: ab5e 8d77 9c7f c7bf fefc c0f1 5b3f d23f
00000150: 6dda 3be8 9e6e 763f 9852 e2b0 ff63 96bf
00000160: 390d 17ca 79c0 d33f 4760 5b25 af28 d83f
00000170: cb47 211c cdf0 bb3f 9a81 ebe0 845c db3f
00000180: bd66 a1c1 33ec d6bf d9b1 e09f c23c e2bf
00000190: 34b1 d88b f824 e23f 0364 7ada 1ab9 b33f
000001a0: e55a 1fb7 809d d83f 8ebf db6a cef0 d73f
000001b0: c291 5298 72af d23f 5a0d 19ac 568b d7bf
000001c0: af33 2430 57cc 833f da23 4c96 3cb0 d73f
000001d0: a466 d03c 4aec 9e3f 4c98 3cdd 7d48 b23f
000001e0: 4f7f a2f7 369c d0bf 27ab bf15 4ec1 d8bf
000001f0: 5cfa d556 60f0 cb3f 39f1 b967 6ad2 d2bf
00000200: 1251 7552 445e e2bf 69de 67ae 8b1f ac3f
00000210: 7244 c344 9870 dbbf f8be 6bd3 5fe3 d83f
00000220: 32b0 17c2 0a9e d3bf 5b67 34af dbaf cfbf
00000230: 25d4 2e20 394e c2bf 563a 6bcc b532 bfbf
00000240: e129 8da9 ec96 d0bf df33 f269 b7a5 bb3f
00000250: 3991 763d 3b30 d53f a890 1656 1d09 d53f
00000260: f9dd 9781 0b81 db3f 3e33 075d 2ed7 d43f
00000270: ef70 6fa5 d084 d43f a3e4 1e8d d654 db3f
00000280: 094c e94a ace7 813f 4991 b9c9 9fdf b93f
00000290: 4fcd aebc fd4b debf 162a 15b9 a91d d9bf
000002a0: d580 df65 5355 c73f a7c0 e995 ed43 ddbf
000002b0: 62ed 46cb a510 dfbf 7cec f96d 1cb1 dabf
000002c0: 0ca0 ae95 95e7 e1bf 1b25 f8fb da39 b4bf
000002d0: bb3b 8668 4999 b93f fb02 8040 fe24 ccbf
000002e0: b32b 30ec bbd3 b4bf 8660 d454 ac9e d6bf
000002f0: 5735 9d51 32e1 bfbf 67cc ab8d 79d8 b5bf
00000300: a4d3 58ae a663 cc3f 672d 1988 e54a be3f
00000310: deaf adf2 c2c7 dbbf 9d29 88a9 1545 e9bf
00000320: 84ce 4ff3 4978 8ebf 12be 4879 e885 e9bf
00000330: 6540 e862 5343 d2bf 7c02 07e9 5992 90bf
00000340: e355 0dcb cf92 d8bf 58e1 46ef 10ad d73f
00000350: cee9 b760 b4ec e3bf f0e6 f595 2709 82bf
00000360: 2e7a b6cf 173c d9bf 8ffb 0df0 3ca5 d53f
00000370: 7724 b506 1c20 b2bf 1725 f15b 0295 cfbf
00000380: 5cdb c3fd db2f ccbf d742 b7a8 de9d bfbf
00000390: 1621 1d32 ce3e ce3f f4d5 2bd5 ecd6 92bf
000003a0: 35d2 e251 5109 ca3f 746e 1a92 ffc9 d6bf
000003b0: df14 10a0 d116 c3bf 6fb1 6674 3cb7 843f
000003c0: 456c e9f1 df15 d63f 5fc8 7dfe acd0 d63f
000003d0: 8016 d1f2 e27d c63f 2b95 47d4 2410 9d3f
000003e0: ff06 8b28 1b76 bc3f e0fa 8000 4213 c03f
000003f0: 3862 3a89 714a d2bf 43f1 adea 9283 e2bf
00000400: ea4f 14e0 ef3f b2bf c379 719c e38f dcbf
00000410: 3bd2 978a cd1d 9a3f 7adb d07b 70a8 d43f
00000420: 4357 b9ba 4455 b03f 49ca 690b 1e13 b8bf
00000430: 3c01 e9fb 69f0 e6bf 59b6 0c31 a2f9 e2bf
00000440: 2d59 882e 4e85 a7bf e9b1 5578 8f02 a43f
00000450: f6cd babc c497 bd3f ddbb 0770 110f dbbf
00000460: 68f1 495c 4ca3 993f 4341 03d6 5068 d63f
00000470: 730b 7918 a5e1 d5bf 0be2 6230 ed94 d2bf
00000480: 68a0 3d78 39cb d43f b75e 3823 7c87 d4bf
00000490: 7281 3773 1067 c43f 95f5 6ac0 1bbf d33f
000004a0: cbd2 e861 79ed d13f 5919 13ba 441b c83f
000004b0: 93e3 1dc6 5e90 ce3f f615 2de1 4fe6 d8bf
000004c0: 2691 c320 f10d aebf 7eae 2bb3 8349 a6bf
000004d0: adf3 b47e e59b c0bf cce5 cf0c ef76 e2bf
000004e0: c92e 1657 8271 c63f 0a90 100e cc41 d43f
000004f0: c4d5 a2fc 7f58 ba3f c3f8 5b68 8768 d03f
00000500: 5ccd 5381 285d d93f d8cd 17e8 d428 e1bf
00000510: 9f40 05a2 59c8 9cbf 4909 ce06 362a cebf
00000520: 6f35 7300 8f0d bf3f ae1b e3fc 2a01 d63f
00000530: cb9a 75e8 7ec3 e1bf 1d4e 036f de9d 973f
00000540: 0f96 a358 841a d23f 6f23 57ae 8be3 c13f
00000550: 9b3a 9c4b 6903 c43f e2ad 764e 3e5b 853f
00000560: 0e60 585c f7d4 d63f 347a 1b44 d18c e13f
00000570: 9226 141b 5475 cabf e09e 12c5 11c9 b43f
00000580: b37e 9526 6092 da3f e7a5 3abe 94a1 e0bf
00000590: 9236 4c44 dcae c83f c12f 8e0a f815 bb3f
000005a0: 7932 6d3d abca a0bf 023b 17a8 9c11 aa3f
000005b0: 3100 3308 6c71 b1bf a0c4 4add be89 d23f
000005c0: 9f52 d6a0 2d30 d73f 90ea 5504 bee1 a33f
000005d0: 1cca d659 525e d13f 7253 947d 47c2 d8bf
000005e0: 7f90 3034 6cdf c53f 3dff 677b f6fc d03f
000005f0: 2d1e 56ab 227d cfbf 9bd1 847f 0f82 d03f
00000600: 128e 5a01 3b81 c3bf 19b7 c888 a02f a53f
00000610: 80bc 75b8 07d3 a7bf f3c7 8606 e98f 9abf
00000620: 19a6 c922 a56e 85bf 9300 6991 0212 abbf
00000630: db4d cf72 bddb af3f 2ec1 234b c2df d13f
00000640: 23c9 31ee e2b3 d4bf 9d53 8012 ebac a23f
00000650: 70b9 a66c da67 c23f 0b75 1572 5e94 ce3f
00000660: 9f31 7b86 aa11 c4bf 2395 0c00 650d c63f
00000670: 1b34 56e2 c57e a5bf 72ef f1bb 0d72 c83f
00000680: ff3c 65a3 df7d d43f a818 9e50 a39a c73f
00000690: 66ed 64c3 cb80 bbbf 9064 7dca d434 c03f
000006a0: 346b 02b9 7507 e2bf 021d 9c4e 0250 d4bf
000006b0: a241 b234 121d db3f 2283 1716 4f67 a6bf
000006c0: 5094 a68c 1ad0 d53f c832 86a1 e7d8 bf3f
000006d0: 60ba 4ecf fe61 c73f 09e0 2b89 b006 d4bf
000006e0: 5779 99ac 193a 773f 9e33 a79c 7746 c53f
000006f0: 7dba 0775 62b9 963f 2fdb 2dbc 1164 c23f
00000700: f813 836f a2f7 d9bf 3b24 359e 586f d5bf
00000710: 0e45 2885 bc57 d53f 39d0 ea35 39a9 e2bf
00000720: 88ac 9dc4 436a c5bf 63d2 d19b bda9 cc3f
00000730: c4dd a69f 83db d4bf 1e2f 20bc 4725 dc3f
00000740: 3755 3f99 ac38 d1bf 8375 977b f6f7 cdbf
00000750: bde5 f1be 469f c7bf d2a0 698a 8c2b 98bf
00000760: cebc 5496 7c4a b7bf de97 9bb4 785a 80bf
00000770: ecea 2a61 fecf e13f 475e f5dc 9178 df3f
00000780: 684c adbe 920c e03f bb8e a63d 6106 e33f
00000790: 4eac 7e00 54fe d73f e472 304e 1a71 c93f
000007a0: 66d7 f6b5 993d b1bf 3c77 96fb 248e 523f
000007b0: 8e62 d8ae 6c1d d2bf f1be 8a85 571d c8bf
000007c0: 0c73 b923 d1ad be3f 8f8f aa0b 82e5 d13f
000007d0: 3172 3dc1 8264 d2bf 7e2b 46fd 5b5b d1bf
000007e0: 5500 0102 af90 d3bf e2cd 72a2 2b2c ce3f
000007f0: 9a6d 216b 6d0e cfbf 1c68 41b1 d888 bbbf
0.35884260496672754 0.5570692214719143 -0.40789511639596643 0.2546120162676288 0.6424645320423747 0.17950790786506424 0.2958952039805477 -0.20398713833379215
0.3707500946223567 0.503719933787044 -0.37608431828443656 0.12281339586221969 0.39315182532730447 -0.2310344938658749 0.09659566339648377 0.3919629161039955
0.13396486029794788 0.28012996730976736 -0.17202011064087866 0.33554373022297435 0.5121245265023401 -0.064011183231999 0.6106003584397839 -0.42292733769264634
0.46013109243585404 0.3969177965081459 -0.2145453159421089 -0.05644043727920174 0.004946369859939268 0.3257041147414315 0.09536949064166234 -0.04925915743407907
0.01809262191856111 -0.005627065975801563 -0.04864601514429896 0.6918271846598666 -0.2225381450128259 0.047658156487455985 -0.07140398276281552 -0.008401753345542887
-0.18358188474188827 0.2851171360852759 0.0054765899001184394 -0.021865840121409436 0.3086227868590928 0.3774831642927023 0.10914308487670536 0.4275219151004649
-0.35816663655496567 -0.5699170229541394 0.5670130473495534 0.07704322656572064 0.3846132076554752 0.37407265124692735 0.2919584739231845 -0.3678795509951748
0.009667092472705223 0.37013163259012816 0.030198249780460387 0.07141863490377992 -0.25953458960610915 -0.38679840206048016 0.21827320327789124 -0.294092751784564
-0.5740071878922512 0.054928174056780694 -0.42874724116433705 0.38887782713480545 -0.3065211196360479 -0.24755426459233373 -0.14301218100959648 -0.12186752548880384
-0.2592116981292332 0.10799738251280598 0.3310688114381893 0.3286813107208766 0.42975127845372146 0.32563361248758216 0.32060638576309847 0.42705310612979924
0.008742662464248612 0.10106848406718884 -0.47338813234383265 -0.3924354846427901 0.18229143594999778 -0.4572710002894475 -0.48539109088206633 -0.41706000079984284
-0.5595195697287649 -0.0790078034553016 0.09999522020210254 -0.2198789420072201 -0.0813558055526034 -0.3534346416868249 -0.12452997677356357 -0.08533439358488835
0.22179111016307929 0.11833033154214477 -0.4340674753100283 -0.7896831809205654 -0.014877870309624848 -0.7975962036925373 -0.2853592363253539 -0.016183285568106318
-0.3839606745653709 0.3699381195724718 -0.6226446045905563 -0.008806523574765163 -0.3942927864499407 0.3382103294642826 -0.07080245174178566 -0.24673490037302123
-0.22021055117485389 -0.12350265139617576 0.2362916702934476 -0.01839799929708437 0.2034093522867281 -0.3560789992131739 -0.1491338759953242 0.01011512022235969
0.3450851309223178 0.3564865575091342 0.17571675163542366 0.02838189645435311 0.1111771558744543 0.12558770203209857 -0.28579367066552974 -0.5785612662871603
-0.0712881013935768 -0.44628229406034964 0.025504314025925217 0.3227807244433546 0.06380109366122348 -0.09404170778888345 -0.716847412120877 -0.5929728467942353
-0.04593891447091134 0.039082034529972116 0.11559705360087222 -0.42279468479585863 0.0250369960144651 0.35011692905120045 -0.3418972720139017 -0.29033975339146484
0.32490383856066396 -0.3207693427989215 0.15939527154752003 0.30853933134843575 0.28011927186461766 0.1883321674888048 0.23878082917852037 -0.38905713071684944
-0.05870011830282555 -0.04352962076322074 -0.12975758253915384 -0.5770182848202068 0.1753390240886488 0.31651593564515734 0.10291290204880627 0.25637993995031766
0.39631092671989676 -0.5362343342844111 -0.028108025087306584 -0.23566317875163126 0.1213006378267971 0.3438212842560756 -0.5551142254087947 0.02306315949029002
0.282868467866451 0.1397566415091904 0.15635410491855314 0.010427939195173989 0.3567484285172221 0.5484396295758587 -0.20670558283045587 0.08119307576509582
0.41518405693021093 -0.5197242465412132 0.19283631644104965 0.10580396897984114 -0.032796241043432546 0.050915618437661805 -0.0681369323747283 0.28965732203057293
0.3623155661273731 0.03883165171551639 0.2713819386800951 -0.38685786498654473 0.17088081882787162 0.26543962527647463 -0.24600633016619736 0.2579382653523454
-0.1523813015565883 0.04137899083830927 -0.04653190733630996 -0.02593959905943417 -0.01046494495786292 -0.05287178063417843 0.06222335840689271 0.2792821630273633
-0.323479397403519 0.03647551155896809 0.14379434876668595 0.23890286036013494 -0.1567891270300494 0.17228376867675718 -0.04198282611751144 0.1909806411457527
0.320182714048272 0.18440667568592528 -0.1074340202366578 0.12661228072355302 -0.5634106267419612 -0.31738336254825594 0.42364936014294063 -0.043756934592016586
0.3408266423742292 0.12440345471822944 0.18267808077276282 -0.3129083003582314 0.005670643129262429 0.16621298932150536 0.0221915611199912 0.1436788719981563
-0.40573941125722923 -0.33492103052100547 0.333480005299024 -0.5831571629592026 -0.16730544186006946 0.2239300738180133 -0.32589808073995763 0.43977540370609514
-0.269084119468363 -0.2341297248339452 -0.18454822848779698 -0.023603626201663293 -0.09098032636824202 -0.00798506070300314 0.5566398523145302 0.4917339952275807
0.5015348171385883 0.5945287899125654 0.37489795730897846 0.19876412217936157 -0.06734619801031058 0.0011325226936160357 -0.2830459315751249 -0.1883954431591444
0.11983973619630833 0.279633056061578 -0.28738469000907957 -0.2712011311893362 -0.3057057876176306 0.2357229750829069 -0.2426277897928742 -0.10755686118628244

W_hy f8 [10]
00000000: 214e fe8f 4295 bdbf d2c2 63f1 13e7 b43f
00000010: ff77 8481 3ded c63f 466d c763 1ee8 c73f
00000020: a02a 1483 ef7b bdbf 2111 258e 9e21 c53f
00000030: 7744 bade 927e d1bf 656b 78d2 10d8 bcbf
00000040: 912d 433c 711e b93f b497 e851 162a ad3f
-0.11555877700293894 0.08165096896460547 0.17911499809355289 0.1867712008669093 -0.11517235708394447 0.16508848133720114 -0.2733504462312974 -0.11267190111577248
0.09812076302767127 0.05696172475681696

b f8 [10]
00000000: 6806 75a2 570d c6bf 9990 c788 3e4f d6bf
00000010: 5906 0b4a d0aa ba3f c55b e5df 7e08 d23f
00000020: d617 e69e 20cc d23f 13ae e50e e00e ccbf
00000030: 3063 dbfc e1bf bdbf f3bb 8c24 f7c4 c53f
00000040: 3dd5 5a4b bb29 c2bf 816c 3cd1 74cd d2bf
-0.17228217537381174 -0.3485866866815371 0.1041689091462329 0.2817685305103022 0.2937089492555719 -0.21920395591165284 -0.11620914862886589 0.17007340702681936
-0.14189854793009174 -0.29379005845266454
