models/FINAL/vanilla_II/vanilla_quad4/fraud/Quad/1/strategic/model.pt (torch, 1279 bytes, 2 tensors)

w f8 [29]
00000000: b9f3 cc52 f642 d9bf 24b2 5f26 1081 c23f
00000010: 1630 c29f 7bb5 c7bf 5664 6f97 e250 f23f
00000020: 9148 8385 0103 04c0 db5f 227f 5077 dc3f
00000030: a284 1d5d ac6d c03f f838 0f7c 1b47 ec3f
00000040: 87a7 982d 413d d13f 0c91 ba60 4e25 f23f
00000050: 8347 b3cf 1934 fb3f 1197 e1ac d344 f5bf
00000060: 816b 9965 e51d f83f 5197 33e6 71ed e1bf
00000070: 7f3c f0ac ac6f ff3f 081d 2a83 7c84 bebf
00000080: a177 2813 bfd4 eb3f 7625 4ca5 555b e33f
00000090: 2df2 4a8b 479a bebf cd00 665a bdf9 d53f
000000a0: f030 c4cf ca35 d7bf 3690 62ba 2a0b bc3f
000000b0: d380 ec32 f082 a23f 45c2 f649 316c d2bf
000000c0: e56a 67a7 0566 e63f 3d0f 27a3 44ee e6bf
000000d0: 5c64 0974 6f49 bf3f cd33 8976 e687 d8bf
000000e0: af9d 9c4a 4b01 c93f
-0.3947120483970213 0.1445636927959565 -0.18522591877661004 1.144747344535309 -2.501467745846704 0.44478237548309857 0.12834696337362056 0.8836800978695285
0.26936368420376094 1.1341079500644495 1.7002199281018597 -1.3293034318134611 1.507298848030331 -0.5602349754451358 1.9647642856032517 -0.11920908167131838
0.869720017831913 0.6048992374864344 -0.11954161787702651 0.34336789920781713 -0.36265821733174075 0.10954539347091061 0.03615522977475085 -0.28785354826962745
0.6999538678749927 -0.7165854631971126 0.12221428473402923 -0.3832946927621464 0.19535199301865933

b f8 [1]
00000000: 9ab8 dbe7 7c54 04c0
-2.5412538637093123
