models/FINAL/vanilla_II/vanilla_quad2/fraud/Quad/0.5/non_strategic/model.pt (torch, 1279 bytes, 2 tensors)

w f8 [29]
00000000: c92a e4ec 325e f2bf 6d9a 9d95 a927 e03f
00000010: 6545 7830 2a2b f6bf b2eb ad2c 1a71 fa3f
00000020: 2fa0 ba6f aaa7 08c0 47d0 7d06 2d17 c4bf
00000030: 05e3 0efa 20c7 f43f 1c79 1103 7826 ed3f
00000040: d80b 9d64 a442 f33f 2876 4dd8 1e4d f43f
00000050: e67a b725 2b20 0140 ce8e 293f 3bec 01c0
00000060: 3fe5 6178 03d5 0340 9d77 9471 384a dc3f
00000070: 34d3 d5eb 8131 0940 38ed bbc6 12ea aa3f
00000080: bb11 50f6 ea91 f53f 0a55 5b94 7b12 ee3f
00000090: c460 60ca 7a96 a23f 5061 07eb f90f b13f
000000a0: 1da5 db11 c3c7 eb3f c819 8c29 4b3d e1bf
000000b0: a23b 8d1e 325b ac3f 05b7 fa8e ab0a efbf
000000c0: e773 9721 47d1 afbf b7f2 458d 62ce b13f
000000d0: 44e2 333f c9ab d83f 73f3 f25d 1776 e1bf
000000e0: 2ba6 3a9c ec9e dbbf
-1.1479977849545995 0.504841606348078 -1.3855382817603978 1.6526128526008788 -3.0818680504635476 -0.15695727173772608 1.298615433492331 0.9109458980490532
1.2037700586522444 1.2688282441444105 2.140707297002666 -2.2403473791654056 2.479010525214704 0.4420300587825013 3.1491735863332 0.05256708789780834
1.3481244680016136 0.9397561929314702 0.036304318622741444 0.06665002811440002 0.8681350086964447 -0.5387321292371832 0.055383268575148095 -0.9700525085988551
-0.06214353833249913 0.06955543469480117 0.38548499271522396 -0.5456654391233385 -0.43157496697185377

b f8 [1]
00000000: fe4a caa0 d3e6 f1bf
-1.1188541680209592
