models/FINAL/rnn/rnn___5/12/strategic/model.pt (torch, 9103 bytes, 4 tensors)

W_hh f8 [10, 10]
-0.9384391727473305 0.4619183300050874 -0.6028072484108853 -0.9869746152615311 0.4201389654282953 -0.8453361569376822 0.7453328611978435 0.5251891013472637
-0.6554710393960723 -0.5616750384424657 0.1202164245594254 -0.10784353012261472 0.40665835368969766 0.33246192374191913 -0.291386248104583 0.5027559351955693
-0.21323676249214593 -0.0986681451448051 0.23370806865646943 0.15588380135182997 0.5615636518719447 -0.7539773629293737 0.4262379603947945 0.10884033356497236
-0.40000606989624 0.09117352193676968 -0.7567371075583541 -0.5897570231632927 -0.03679333681934801 0.45828986319452103 -0.2606498599246759 -0.20300318517142377
-0.13638913893331878 -0.43595242666870204 -0.0520796699828768 -0.670600044893049 -0.08775793215432608 -0.03751829225031418 -0.535258431081961 -0.25043203290116267
-0.4038259895053728 0.6513573072169392 -0.5004318475253888 -0.19883629375264983 0.2408600403531996 -0.25133307370842506 0.20797328996320438 0.46815872730380326
-0.5918684871251688 -0.6912848401658612 0.11639841271692182 -0.31598355696409486 0.2039233160820395 -0.302861373354624 -0.5315539000465163 0.012035990369353327
-0.5020968932962439 -0.4356273677870921 0.27511813620978515 0.03568831972273242 -0.6380330951284786 0.8545911957681946 -0.21084964429253303 -0.639358043934598
0.4564336688908986 -0.16114988459856336 0.7271720343304211 0.19577263911668463 -0.11349139714328983 -0.7437231652413815 -0.6752194633567392 -0.11304628988892931
-0.19234852705025773 -0.3624495895105447 0.28970976946961535 -0.015145929825354105 0.3521870409804901 0.14199172540931648 -0.19525166662041166 -0.11572696934794421
0.38237612264063164 -0.41987260771437435 0.0279836766911493 0.11816727909373613 -0.3110686636511577 -0.12235921788005484 -0.5515664974938599 -0.23237869486743365
-0.1161800877890669 0.2139627532859959 0.34444148449991496 -0.6772673402576909 -0.16362199965709717 0.3005763081024353 -0.5083529359158574 0.24558074086283332
-0.2897334525927415 -0.09113898207245225 -0.052513423444647135 0.1057009446968832
00000000: c485 8796 b107 eebf c6dd 32e6 1190 dd3f
00000010: 92ed 366d 324a e3bf 84f9 d0c9 4b95 efbf
00000020: 228c 128b 8ee3 da3f b18e 8569 fe0c ebbf
00000030: b352 ef4c c4d9 e73f 6d11 d05f 59ce e03f
00000040: decc b566 9ef9 e4bf bbe0 22ee 3df9 e1bf
00000050: 99be eceb 80c6 be3f e839 f632 a29b bbbf
00000060: 5784 6fc2 b006 da3f 25c1 6860 0e47 d53f
00000070: bc40 8781 12a6 d2bf 9e1d 719d 9316 e03f
00000080: 3bb6 9a9c 574b cbbf a4cd 8dc8 5042 b9bf
00000090: 106e d85f 25ea cd3f 6f21 641a 00f4 c33f
000000a0: d231 ed55 54f8 e13f 6997 7622 9520 e8bf
000000b0: 9366 0d95 7b47 db3f a0b4 25c9 f5dc bb3f
000000c0: 4cf9 190f b399 d9bf bbc4 fade 2557 b73f
000000d0: 9d3f 14bd 3037 e8bf 3453 e21e 4adf e2bf
000000e0: 9b1a b384 93d6 a2bf e28f a001 9f54 dd3f
000000f0: 7957 05c0 7cae d0bf bfc5 a524 02fc c9bf
00000100: 2ac5 9f05 3375 c1bf b8d9 c901 a5e6 dbbf
00000110: ccd1 b9be 2faa aabf 7b60 b039 8e75 e5bf
00000120: 4342 91c8 4d77 b6bf 8a09 6ffc 9835 a3bf
00000130: 28f8 0c4a d620 e1bf 409a cb13 1407 d0bf
00000140: 9bd3 8cf6 48d8 d9bf 723c 9047 ebd7 e43f
00000150: ecf2 5fa6 8903 e0bf 2276 76b9 7773 c9bf
00000160: 4378 1d76 80d4 ce3f 22c6 fe50 d715 d0bf
00000170: bbaf 6a67 de9e ca3f 18d6 c605 50f6 dd3f
00000180: 038a 772e 96f0 e2bf 6b74 9762 011f e6bf
00000190: e5ec ec4f 49cc bd3f b602 cf18 1339 d4bf
000001a0: e86b bbc2 281a ca3f 85e7 71ab 1462 d3bf
000001b0: 715a 1853 7d02 e1bf 433b 1748 53a6 883f
000001c0: 9f2d 0481 2d11 e0bf 08d7 789c 51e1 dbbf
000001d0: 17ae 6319 899b d13f 1bdd 1d4c bd45 a23f
000001e0: 89f5 aa61 c46a e4bf 08c4 a8a2 cf58 eb3f
000001f0: 6b09 4e03 1ffd cabf b246 2400 9f75 e4bf
00000200: 3d80 2b90 3536 dd3f c370 0d36 8fa0 c4bf
00000210: 747a 4049 fe44 e73f 3c98 3aed 130f c93f
00000220: 5197 1baf c50d bdbf a7a8 ff85 94cc e7bf
00000230: faac 17d9 659b e5bf 72d0 0106 9af0 bcbf
00000240: 24ac 8e64 e09e c8bf d95e 59c3 5f32 d7bf
00000250: 6009 4dd8 9a8a d23f 37a6 234a d404 8fbf
00000260: 9384 c583 3b8a d63f 9cc2 77ec c82c c23f
00000270: 92e4 4fb1 01fe c8bf 6657 9d5c 48a0 bdbf
00000280: afd1 60b3 d978 d83f 7ba5 a75b 31df dabf
00000290: 1b5f d7c0 c0a7 9c3f f736 2af7 3540 be3f
000002a0: 204c 4c8a 8ce8 d3bf 85b2 2807 ef52 bfbf
000002b0: cac5 89c8 6ea6 e1bf c313 5fc7 95be cdbf
000002c0: 931d 806d fabd bdbf c475 f6a9 2163 cb3f
000002d0: 5605 d44b 540b d63f 2fc8 a18e 2cac e5bf
000002e0: 3278 b7d0 90f1 c4bf fc26 5069 a43c d33f
000002f0: b2b1 5260 6d44 e0bf d443 4491 306f cf3f
00000300: f859 dc2d fe8a d2bf 6454 6463 e254 b7bf
00000310: bd6d 9718 0ae3 aabf 8921 a194 370f bb3f

W_xh f8 [10, 82]
0.4959528555184728 0.36483822191236653 -0.46834940353178667 0.1183421324853372 0.1328463380129574 0.07373877441537656 0.5580467043700805 0.1303425061308358
0.351498413859654 0.581917284723417 -0.11586315362726306 -0.16702521284314384 0.4892331253463879 -0.29241572386638814 0.09691880566368062 -0.49772039019354797
-0.10095267464264977 -0.6768107112212522 -0.3239248843748365 -0.21255831046951712 0.21585595806683136 -0.21331683776905577 0.3040784431160449 -0.3453122024820371
0.16627703706497082 0.5924589654370163 0.1995727068735172 0.5161752697119643 -0.24905031567463023 0.2102553045667197 -0.039828419808493415 0.5932217637495134
0.131216779558717 0.13517264559449702 0.17780668101017016 0.3810549115360348 -0.4845343694284578 0.4341844282455919 -0.018013870763117005 0.02705305979029431
-0.4734348775829602 0.2815277398180857 0.11603618333535219 0.007692609478116431 0.17606356646886473 0.14670047471173217 0.09906567024794027 0.21099172435320243
-0.3528583408965347 -0.3247983501231473 0.4741590331708536 -0.4218660762140155 -0.073188646084489 0.4926676875015071 0.17688218154927265 -0.4504693981913893
-0.20900339888245817 -0.32920311591333484 -0.03918653098889203 0.13793265269631322 -0.06345790002883384 -0.30979130657591936 0.47945413111243407 -0.2834548741922146
-0.594494464977993 -0.11229948663036055 -0.6568389268026065 0.4706249025845994 -0.5632061036601602 -0.34078644348237874 0.2087003826904979 -0.003110715788468234
0.36513108138288014 0.29317887904651596 0.39582221968515474 0.4221385679278313 0.5949067660040911 0.4739832345243822 0.49630498326309125 0.26645273196506275
-0.016996237810728378 -0.4665319308472139 -0.14049271264942237 -1.0154406623579633 0.7383508440935392 -0.10516377182791996 -0.8098270887502361 -0.15634792695872154
-0.2570223312521215 -0.8240536895827435 -0.6606381449480045 -1.4178055112455425 -0.19366444416656692 0.016623027206593786 -0.7682208557258218 0.08925388598442865
-0.36456107904156687 0.15586102770075652 0.19777468118527292 1.053220451440136 -0.1091977922093265 1.0971901825201165 -0.2745252253520602 0.1823140212218835
-0.40677443283721043 0.46117142838199965 -0.4173110376842615 -0.693251859559329 0.07971524136880048 -0.959087180580235 0.5162057143810769 -0.09434010538062265
-0.9812913011256404 0.11750219022405103 -0.20379757529106812 -1.0037228857040141 -0.10438123792461237 -0.6068729985687384 0.19540320838743555 -0.3601646942247533
-0.45727257494968077 0.42426326169704026 -0.007846793266881915 0.09405401077437857 0.3522730550725719 0.3534873287027197 0.24157709282589052 0.31454371957611854
0.20097943126078782 -0.13965218415301528 0.18871439968002254 0.43126097082654663 -0.42627433908420315 0.3497395642249028 -0.37150636393737824 -0.7585913510348455
-0.7778896750005495 0.3857851940133786 0.16189612711381166 -0.3471381965524901 0.15970673188142612 -0.8191651363431409 -0.19242511308777374 -0.20692641873093406
-0.485771362614373 0.4997597055469884 0.48838545297899294 -0.3378120921857553 1.0893874886872639 -0.8268867720083944 0.9058976476913725 -0.00953790140735496
-0.6415028321093388 -0.40591296096251805 -0.9355240762364928 -0.321304918835831 -0.7648074178994362 -0.6862415738581453 -0.9554854703952699 -1.0575586950700155
-0.520360736512699 -0.1218022487586497 0.3354167774683775 0.15394181101879081 0.09180330778494843 0.3875950330608951 -0.5193794268150819 -0.0999851677069101
0.3733879462966923 0.16131260888588583 0.08478114789065545 0.08790084428767539 0.4460197183379565 0.41395832068207233 -0.10753810010366065 0.10175852573486786
0.36244218517245436 -0.3778297358838533 0.06913145486825775 0.0659196491893138 0.05261779378183913 -0.009991016598489284 0.024244438544169283 0.24648971022834074
0.2418098448515613 0.05763700645624014 0.42224514948726305 -0.37885425129438854 0.2001434617674753 -0.19427210854278731 -0.11667758827466079 0.28324025725357344
-0.16388854149220056 -0.02814198718558434 -0.05819099772658205 -0.0042983711790445574 0.08563284942591982 -0.022865135409027085 -0.042709855627879684 0.4678204125514826
-0.10910284351283933 -0.02315774087154271 0.13855718157267324 0.14328105159906895 0.09289339457010717 0.48075579687746567 0.010344236600102466 0.10056918515714741
0.23596716107306254 0.32159013491370303 0.04776982751659213 0.053025243936350656 -0.4596599067719114 -0.43644759695537233 -0.010585865956777237 0.06040767576828875
0.4347582744869849 -0.028268120370253613 0.4489079520688682 -0.020473793060850995 0.048040660353598615 0.16063000918569312 -0.061879859607842425 0.27048304625878405
-0.04429509495815017 -0.12647358151362975 0.3790671789961657 -0.35689262232106356 -0.44653517371915447 0.22841807726329416 -0.2426785874698977 0.3093060159119455
-0.20645863997975805 -0.5462276256948246 -0.05806720119088647 0.11037229421159346 0.10593351941791894 -0.10990559569391659 0.4410990644719058 0.3671053611941141
0.37554168351332234 0.5849606843979701 0.5185390905002794 0.12009193012173308 -0.4341753233123408 0.025245704731010815 0.08380861587942647 0.7992178850461461
-0.36339292013557833 0.02074325999719935 0.47860458416378665 0.21427006919143085 0.28276354807895815 0.5281672722247801 0.4902903269600364 0.7436829609415426
00000000: 5ed1 b30b b1bd df3f 2171 dc69 8259 d73f
00000010: d249 d1c6 6ff9 ddbf a86f c384 ab4b be3f
00000020: 8f5a 94da 1b01 c13f 6fa8 8f58 8be0 b23f
00000030: 581f 1dc3 84db e13f c628 8e30 10af c03f
00000040: a9e0 0734 f37e d63f 7fa7 5bff 109f e23f
00000050: 07f9 a327 35a9 bdbf 2366 6209 1561 c5bf
00000060: ffe2 5e74 984f df3f 4ee8 b570 f0b6 d2bf
00000070: 1961 b1bc abcf b83f e2c0 9b9f a6da dfbf
00000080: 47ae 08d4 08d8 b9bf 90e3 c8ef 6ea8 e5bf
00000090: 4308 3070 2fbb d4bf dcd3 fa57 1c35 cbbf
000000a0: d99a 4504 2ba1 cb3f e1bd f354 f74d cbbf
000000b0: 5287 266e 0576 d33f 2e7c 245a 9819 d6bf
000000c0: c689 22e2 9048 c53f 70c4 1881 6cf5 e23f
000000d0: ea14 9934 998b c93f f756 cdff 8184 e03f
000000e0: 09c5 7078 e1e0 cfbf a858 7654 a5e9 ca3f
000000f0: d4c3 0e01 6464 a4bf 128c 5235 acfb e23f
00000100: 9310 7220 b6cb c03f 6732 1256 564d c13f
00000110: 5878 f98b 5ec2 c63f 9fc1 c123 3463 d83f
00000120: e3ec 9e71 9c02 dfbf 5ed3 ef7b adc9 db3f
00000130: 8134 3567 3a72 92bf 4d64 391c ccb3 9b3f
00000140: 004b 00cd c14c debf d3de dbec 8c04 d23f
00000150: abf7 931c 8cb4 bd3f e80f 1222 4982 7f3f
00000160: 5e1d 003e 4089 c63f 7fe7 98c6 14c7 c23f
00000170: 8408 df25 5e5c b93f 676d e9dd c601 cb3f
00000180: 345f 9126 3b95 d6bf 18b7 e404 7fc9 d4bf
00000190: 4c98 2421 9f58 de3f f662 2892 daff dabf
000001a0: fc13 5fb9 7dbc b2bf dd5a 670d de87 df3f
000001b0: c6e7 7f48 13a4 c63f 222c 4599 7dd4 dcbf
000001c0: eefb 7995 9fc0 cabf 54b3 25f2 a911 d5bf
000001d0: 91fb 14ca 4110 a4bf e2ca 30f4 c6a7 c13f
000001e0: 24f3 4be5 c63e b0bf 2609 95ea 9ed3 d3bf
000001f0: 0cd7 4361 60af de3f e207 a3e9 1f24 d2bf
00000200: cf78 9741 1906 e3bf 5c5b 6fbe a8bf bcbf
00000210: fe6b ab11 d304 e5bf b72d 52e9 b71e de3f
00000220: 5d18 84ce c805 e2bf 7653 6bf1 71cf d5bf
00000230: 72c0 28b3 b1b6 ca3f 1d12 84d2 a47b 69bf
00000240: b5b9 52c1 4e5e d73f 947e 5858 71c3 d23f
00000250: c6fb 24b8 2655 d93f ff56 e87b 5104 db3f
00000260: a703 05ea 7909 e33f f89b c8c6 bd55 de3f
00000270: 483c fdf9 75c3 df3f 2d11 6ec2 8f0d d13f
00000280: 2a5e 3536 7667 91bf 3ad3 61be a8db ddbf
00000290: 86ea 134b aafb c1bf 4db2 3db5 3e3f f0bf
000002a0: 4562 0bf3 91a0 e73f 8394 b950 03ec babf
000002b0: e21b b37f 1aea e9bf bfe4 8a78 3503 c4bf
000002c0: 5a73 c4ca 0d73 d0bf 1cfe dcd7 a55e eabf
000002d0: 5256 619b f223 e5bf ed35 eed4 54af f6bf
000002e0: 48f5 0b1b ffc9 c8bf 59f2 d978 a005 913f
000002f0: 3d52 6ee7 4395 e8bf 9a12 58b9 57d9 b63f
00000300: 2a31 f8fd f754 d7bf ad0c 5910 41f3 c33f
00000310: 0e73 d545 ae50 c93f ae9e 26b0 fdd9 f03f
00000320: 3b9f 55f2 62f4 bbbf a3a8 f64a 178e f13f
00000330: af1a 3440 d291 d1bf da07 60db 1056 c73f
00000340: 07a0 78a1 9708 dabf d404 b02a d583 dd3f
00000350: 4c47 c75a 39b5 dabf 235a 1686 1e2f e6bf
00000360: 70f7 abd2 3768 b43f cc5b 5399 d7b0 eebf
00000370: 25cd a8d8 c184 e03f 989b 4f53 ac26 b8bf
00000380: 9fe2 c503 bd66 efbf d67d 38a0 9f14 be3f
00000390: c88a 70f8 0916 cabf 1d87 85ba 3f0f f0bf
000003a0: b6c3 3393 bab8 babf b4b3 35ec 806b e3bf
000003b0: 715c c7ea f802 c93f 3ea0 b737 f00c d7bf
000003c0: c60f b130 f443 ddbf 5784 7818 2127 db3f
000003d0: 5b87 adc3 fa11 80bf ff65 5574 ec13 b83f
000003e0: f41d b348 a48b d63f 8207 1551 899f d63f
000003f0: c231 9388 ffeb ce3f c576 2ffb 7b21 d43f
00000400: 9285 37aa b1b9 c93f 1c47 e06d 1fe0 c1bf
00000410: e379 741f cb27 c83f 4770 6f9d c799 db3f
00000420: 1767 5f2a 1448 dbbf e0a5 9d0d 2262 d63f
00000430: 827b d7a0 c2c6 d7bf c723 775e 6146 e8bf
00000440: eebf 40e3 78e4 e8bf e961 e461 b4b0 d83f
00000450: c5c4 a625 03b9 c43f d2a9 5820 8337 d6bf
00000460: b3dd 302b 4571 c43f debf d3cd 9936 eabf
00000470: 3b0f d2d7 62a1 c8bf 8f5a 909c 907c cabf
00000480: 11c6 f0c4 e016 dfbf b7b4 cb21 10fc df3f
00000490: 4ec3 180f b541 df3f dd64 089c b69e d5bf
000004a0: 7a55 4993 216e f13f 8bac 683f db75 eabf
000004b0: e472 4b10 1dfd ec3f 2abe ef74 9b88 83bf
000004c0: 806e 86f2 3087 e4bf 8cd1 165b 7afa d9bf
000004d0: 99cd 0130 d0ef edbf b067 9c81 4290 d4bf
000004e0: 98b8 f367 4d79 e8bf ac0a 9ce3 b0f5 e5bf
000004f0: d9d3 e443 5693 eebf 86d1 8eaa c2eb f0bf
00000500: 7839 2e8f cba6 e0bf 7466 ffa2 6e2e bfbf
00000510: b668 70ee 7777 d53f 2d07 e881 5db4 c33f
00000520: 8bd9 99ec 6b80 b73f 59ab c565 5bce d83f
00000530: 215a 8c9a c19e e0bf 8ee1 62c1 a098 b9bf
00000540: 4927 848e 96e5 d73f f074 cc3d e4a5 c43f
00000550: edf8 81a1 37b4 b53f 6ea0 8173 ab80 b63f
00000560: 6a7d e849 968b dc3f 2524 4f0a 4b7e da3f
00000570: 13ea 04ef 9d87 bbbf 9fd4 1ec4 d80c ba3f
00000580: f769 00b5 4032 d73f 3bf5 c4c5 5c2e d8bf
00000590: 9eb8 c859 99b2 b13f b790 6e31 1ce0 b03f
000005a0: 8a1a f62e b8f0 aa3f 64bc 5a8c 2b76 84bf
000005b0: ebdb a0ba 88d3 983f 4799 1d8e f98c cf3f
000005c0: 4780 beff 9ff3 ce3f 3fac 8903 9982 ad3f
000005d0: b550 fc84 1006 db3f 42a3 d0e6 253f d8bf
000005e0: 1757 660b 4d9e c93f 8cad 5b90 e8dd c8bf
000005f0: a8d9 d019 95de bdbf 7324 74be 9b20 d23f
00000600: 44f6 f2ba 4cfa c4bf ba17 6dca 40d1 9cbf
00000610: 0a87 50e0 35cb adbf 26b5 3d3a 2b9b 71bf
00000620: e563 bfcf 08ec b53f 9497 3343 f569 97bf
00000630: d4f9 46f2 10de a5bf 83d4 1307 c5f0 dd3f
00000640: ccca c9f8 29ee bbbf 9023 c5ae a9b6 97bf
00000650: 2b83 bde1 3dbc c13f 1e93 6093 0857 c23f
00000660: b26a b18b dcc7 b73f 61df 3cf6 b3c4 de3f
00000670: db3a 32ef 5b2f 853f b83d 3cf1 e6be b93f
00000680: f28f de03 2c34 ce3f d2ea 0aca ee94 d43f
00000690: a6b1 d66d 4975 a83f 4f5a 23f1 1f26 ab3f
000006a0: 8489 b762 116b ddbf cdd4 d5e6 c1ee dbbf
000006b0: fe6f ace0 0aae 85bf df4f b43f c1ed ae3f
000006c0: 4491 a55e 14d3 db3f a0dc 0972 51f2 9cbf
000006d0: 3d35 436b e8ba dc3f 4c57 7cfe 14f7 94bf
000006e0: 69a3 3112 c998 a83f b7b7 1a2e 868f c43f
000006f0: 38f0 978a b7ae afbf a273 731f 984f d13f
00000700: 3bdb 6fc0 d8ad a6bf 185b 344c 4930 c0bf
00000710: f4a1 31fc a242 d83f 945e 4327 54d7 d6bf
00000720: efcb e843 0894 dcbf 469d d4b5 cd3c cd3f
00000730: 2db4 4f8a 1710 cfbf 2a10 b375 abcb d33f
00000740: 0e48 5899 3c6d cabf f6fd 905b b27a e1bf
00000750: 7e93 2bf4 fbba adbf f1f5 05d2 5b41 bc3f
00000760: 8f3c 7389 751e bb3f f21b 27eb c522 bcbf
00000770: 75fe 0c92 f73a dc3f 8ef5 207c a77e d73f
00000780: 3d5e 3efc df08 d83f 01ec 1d78 ffb7 e23f
00000790: 5cae 6c4a df97 e03f 8ce8 6240 58be be3f
000007a0: abd4 964b 87c9 dbbf 7895 bc90 02da 993f
000007b0: e13d 5340 7b74 b53f f7d8 d462 3193 e93f
000007c0: cc22 e560 d441 d7bf 149b 339d b83d 953f
000007d0: c3be 2c1f 75a1 de3f 532c d89d 336d cb3f
000007e0: cd00 e047 cc18 d23f 16bc 200d bfe6 e03f
000007f0: 0aaa f5ad ea60 df3f 8dc3 7a35 40cc e73f

W_hy f8 [10]
-0.10681847685533763 0.09554936145001879 0.18432088858535473 -0.12665930095708838 -0.1776375513633275 0.02895661847359997 -0.2653376551930672 -0.10344590402656263
0.0791692561287428 0.09483826678351111
00000000: e8c3 b3a8 7458 bbbf 17de 9446 ec75 b83f
00000010: 12cd 38ae d397 c73f 3626 ac39 5f36 c0bf
00000020: 49d1 d2c8 d3bc c6bf 9d2f 63c5 cda6 9d3f
00000030: 2ae6 dcc9 4afb d0bf 7901 b346 6e7b babf
00000040: d7ed ebb5 6f44 b43f c597 3e16 5247 b83f

b f8 [10]
-0.10460314059193582 -0.31697650181932063 0.026465565524270398 -0.025042490775968727 0.2806427935220402 -0.0916641098870583 -0.05351783024021003 0.11162586769741789
-0.13034581214159832 -0.3287828449933591
00000000: 9cb8 e67b 45c7 babf 9f86 3acf 5749 d4bf
00000010: 6769 9609 ca19 9b3f 769a 921b bda4 99bf
00000020: 6d41 0231 0df6 d13f bf8e 2e92 4c77 b7bf
00000030: ebe7 4465 b066 abbf 78e5 254b 8393 bc3f
00000040: f7cb 28ec 2baf c0bf 3ede ae33 c70a d5bf
