models/FINAL/vanilla_I/vanilla_vs_hardt_final_low_scale_mid_lr0/0.6/non_strategic/model.pt (torch, 1215 bytes, 2 tensors)

w f8 [15]
-1.212481131252174 3.686796458289841 -2.6461141194675033 -2.638748970988618 -2.24352715294881 -2.177133894207063 0.09772126671200729 0.4667390623965347
1.0776662942665198 -0.5520029126299335 -0.9192264820025972 -0.23072695692483006 -1.8268671584706626 5.442456345209245 -0.502802556979198
00000000: 38ec 5b9d 5266 f3bf 70e8 3a24 8f7e 0d40
00000010: 2cc6 24e1 3d2b 05c0 86ff a56b 281c 05c0
00000020: 35d3 2c5d bef2 01c0 470f d52c c56a 01c0
00000030: 0eda a6cc 4204 b93f 8190 3084 0ddf dd3f
00000040: fa04 1e03 1f3e f13f 9a5a 2103 02aa e1bf
00000050: 692f baa7 4d6a edbf 891c 26ff 7588 cdbf
00000060: 8149 bc0e d93a fdbf 5953 b246 13c5 1540
00000070: 4144 5263 f516 e0bf

b f8 [1]
-0.547686872806632
00000000: 58e5 e49e a686 e1bf
