models/FINAL/rnn/rnn___9/5/non_strategic/model.pt (torch, 9103 bytes, 4 tensors)

W_hh f8 [10, 10]
0	0xbfce34d515069eba	-0.2359873154321031
1	0xbfbc3244865e996b	-0.11014202385431353
2	0x3fb465558e9ddb43	0.07967123729563945
3	0xbfcddb7e950852ef	-0.2332609393785314
4	0xbfb0dbf3d57239ed	-0.06585620843018321
5	0xbfbfb166c9014e66	-0.12380068213797699
6	0x3fcb6e6b1fe1f5b6	0.21430720383425034
7	0x3fc01b38f1d18746	0.12583076293509005
8	0x3f379f0dfe320876	0.00036043254494456196
9	0x3fc9331b53a9dba5	0.1968721540940496
10	0xbf9830554985dd0a	-0.023621876347047745
11	0x3fc90419c5735d7d	0.19543764248986042
12	0x3fa7045c43aab8dc	0.044955142269246656
13	0xbfb9d9a3ea379a85	-0.10097717731660268
14	0xbf64318bb96a516e	-0.0024650315275015966
15	0xbf8fc2018b5cb1e1	-0.015506755891316839
16	0x3fac92bb87ec09fe	0.05580698045925557
17	0x3fc4c584fda5341e	0.16227781662965496
18	0xbfc30a4a729fa08a	-0.14875155064442352
19	0xbfce3baa784acb0e	-0.23619585870400112
20	0x3fce70190f50bf4d	0.2377959561140365
21	0xbfb9a3c5e3cf4c3a	-0.10015522777330058
22	0x3fd2c84a5c002e7d	0.293474759907191
23	0x3f821894f1910865	0.008835948583627304
24	0x3fc849497d3a3d43	0.1897365437948598
25	0x3f91262a7166b93d	0.016747153445686214
26	0xbfabee98fa388be4	-0.054554729980985234
27	0xbfb7c127ddb29e12	-0.09279107248823262
28	0xbfbc604d1a253cf2	-0.11084443939511227
29	0x3fcd39375d9ebe1b	0.22830860205930112
30	0xbfc866c1adaf8d2f	-0.19063588124036232
31	0x3f80425e59c99458	0.007939087977499579
32	0x3fcccc20226f5655	0.22497941666977064
33	0x3fd291829d2283d2	0.290131238414742
34	0x3fb81fc10136b2da	0.09423452643995792
35	0xbfd01acc6e985f59	-0.2516356544524477
36	0x3fb4d64e332a3f4e	0.08139504193445399
37	0x3fbc3c4b1831f42e	0.11029500332547634
38	0xbfc3245f27720359	-0.1495474760631861
39	0x3fb79ce90e8f313b	0.09223801236584432
40	0x3fb3c4f75cef4824	0.07722421664155427
41	0x3fd0eaa23fc2e6fe	0.26432090975468714
42	0xbfcbb51e920ab77d	-0.21646482592535313
43	0x3fafeed47092941a	0.06236900209595593
44	0xbfabdab046f10f60	-0.054402836475246685
45	0xbfa6aea9425b77ab	-0.04430130896592684
46	0xbfcf62f125449215	-0.24520696944922862
47	0x3fd04a680f8c5ed9	0.2545414115752301
48	0xbfd7c6851457472c	-0.37149168955248757
49	0xbfd3bbf95ea03ee0	-0.3083480285722384
50	0xbfbd8bc757afc310	-0.11541410342011837
51	0x3fc3b920a75c19a7	0.1540871445833549
52	0x3fce6d37ffc98f67	0.23770809163681436
53	0xbfd2ae078a8813e0	-0.29187191513511657
54	0xbfc5e02ec934af8d	-0.1709040148210729
55	0x3fc1887a5030905b	0.13697747149956538
56	0xbfabbf3b9090c2b5	-0.054193364522125455
57	0xbfc2052994ce769d	-0.14078254476492172
58	0x3fd68f636c487092	0.3525017316294533
59	0xbf535443b739306c	-0.0011797581945698589
60	0xbfbc3f94dc30b239	-0.11034517646539478
61	0x3fd0dee6ef0264ac	0.2636048635554953
62	0x3fc3ddbd517dbb6c	0.15520445326861976
63	0xbfd66cdd2af7b872	-0.35039452739773147
64	0xbfb736866b2fb41f	-0.09067573658803994
65	0x3fc41f725922ca0d	0.15720967628801966
66	0x3facb84080b3e41c	0.056093230925348986
67	0xbfd0c7b0e6b7d2e1	-0.26218817263661093
68	0x3fc85a9781ac0b81	0.19026464301722615
69	0xbfd0d7efdcc79934	-0.2631797462512566
70	0xbfd03e9117cae319	-0.2538187725399879
71	0xbfcc6584dcc5b708	-0.22184811382197034
72	0xbf749da817bee302	-0.0050331655619906285
73	0xbfc7caacae95370f	-0.18587263607553736
74	0x3fd159bbaf06c313	0.2711018761865926
75	0x3fb5886ea23011be	0.08411303958570834
76	0x3fc634136103f220	0.1734642242153237
77	0x3fc5e6b9d6f9cf21	0.17110369679323248
78	0xbfae25a526c4f881	-0.05888095949420436
79	0x3fc2b861b000f474	0.14625187963420994
80	0x3fcc4ca8432f589e	0.22108939438357295
81	0x3fafd63b6cae4820	0.06218133641881729
82	0x3fbf1faf11cc8254	0.12157720741789407
83	0x3fcc1505d25901e6	0.21939156313784663
84	0x3fb2fb94f63f8dce	0.07415133487625455
85	0x3fa36377d38acb6b	0.03786825616170727
86	0xbfb3769ccfe981b6	-0.07602863384227629
87	0x3fb61ed5a72bab00	0.08640799838364543
88	0x3f8f3ffddaaf3ae9	0.015258773075314607
89	0x3fcf0163837646f8	0.24222988051456418
90	0x3fb9f30930b9c6e9	0.10136468352882456
91	0xbfcac73b832258a3	-0.20920509245906257
92	0xbfcbd86f857bd953	-0.21754259126437123
93	0x3fd47c6f02556ec9	0.320094826010728
94	0xbfbba570e4bdfc7f	-0.10799317917370564
95	0x3fd0b1974ea9b1a7	0.26083929712219817
96	0x3fcada93f60d7a3b	0.209795470374006
97	0x3fcd5dfe242db0aa	0.22943093077208704
98	0xbfaea0088af90ec3	-0.059814707722151826
99	0xbf8f3bdb0499dec5	-0.015250884130395001

W_xh f8 [10, 82]
0	0x3fca704c441c7d14	0.20655206037279383
1	0x3fb0efd8821be113	0.06615975548254864
2	0xbfcafadc2de5b3d1	-0.21078064194753535
3	0x3fc0a7989d93836f	0.13011462873603416
4	0x3fc39f021105a750	0.15329004126697976
5	0x3fa18b25ce642a22	0.03426473755287797
6	0x3fc152f2f32e448f	0.13534390329417476
7	0xbfbd8045e85ebe9d	-0.11523854182336853
8	0x3fb54a0816525051	0.08316088242492127
9	0x3fd05d1c66c483bf	0.2556830409612835
10	0xbfb0828865a0aeab	-0.06449177247184916
11	0x3fabfcb439c6b7a8	0.054662353565944344
12	0x3fc5046b8f251972	0.16419739236352943
13	0xbfb6466f410bfdde	-0.08701224649484327
14	0xbf8776d180669174	-0.011457096796967582
15	0x3fbcf87f8f3c3891	0.11316678282693916
16	0x3fa786f853212304	0.04595161452068022
17	0x3fb1652f39a43295	0.06795020253430047
18	0xbfbb982ffbd874cc	-0.1077909459931618
19	0x3fc15a189d86a5ed	0.13556201640794488
20	0x3fc9edcb05c13549	0.2025693681811538
21	0xbf90ebfba56ef583	-0.016525203678374744
22	0x3fce2ee168c97e72	0.23580567947918812
23	0xbfcdf5c6917e3928	-0.2340629778304415
24	0x3fd01f7420f075fb	0.2519197770760397
25	0x3fbb2f2cb3e0ceeb	0.10618857757145476
26	0x3fb1403781f934a5	0.06738612101726689
27	0xbf8e4abe6ff3176e	-0.014791000167303028
28	0xbfb1002610259144	-0.06640851873595915
29	0x3fc44973f71cb2db	0.15849160734196385
30	0xbf8e0edf62576220	-0.014676804722442205
31	0x3fb28b19864dc32e	0.07243499306583764
32	0x3fc390d0aa7252a6	0.15285690615259745
33	0xbfa419cef870b77b	-0.03925940306395056
34	0x3fa0ce6fd76009bd	0.03282498840418977
35	0x3fcf43df651d8a22	0.24425880849146703
36	0xbfbd57078b500a5e	-0.1146092143172068
37	0xbfb1685c1ba44933	-0.0679986541256639
38	0xbf9fb08cab6f4ff9	-0.030946920360136663
39	0xbf84ac021d00f627	-0.01009370471012534
40	0x3fa2b7bbd76cbd24	0.03655802731224814
41	0x3fb346736eff2b2e	0.07529374561196953
42	0x3fb97a3a0d4dc136	0.09952128243253786
43	0x3fb50106c1ef7965	0.08204691157104589
44	0x3fca23936631b071	0.20421068658777444
45	0x3fc2fc6c8b5fbe9a	0.14832836919184872
46	0x3fb966e697a53ea0	0.09922639086038965
47	0x3fce5e6f73b5f6f4	0.23725693845692997
48	0xbfcb61ac118c6b98	-0.21391821724759263
49	0xbfc5a4f5b4ab9a47	-0.16909667321961505
50	0x3fd219416137f4fd	0.28279146665575167
51	0xbfb4aee386989ce5	-0.08079359088934586
52	0x3fac7913a1f1bec3	0.0556112418352064
53	0x3fc0841e04065482	0.12903189846534607
54	0x3fb3e280202cbbc5	0.0776748732139217
55	0xbfba0c75ba5a6dff	-0.10175262260093375
56	0x3f9618e082742a0e	0.02157927318789104
57	0x3fb7c610036dfbc7	0.09286594470721275
58	0xbfa61fa6163dd4d3	-0.04321021100523983
59	0x3fb8ab68cfa94dbb	0.09636550016266814
60	0xbfc5c94db2f6e424	-0.17020579565522198
61	0xbfd2549236cb7b2f	-0.2864118132692281
62	0x3fc1e3c008d39068	0.13976288252809188
63	0xbfc725f7b652c873	-0.18084617998607974
64	0xbfd25e4b688f0b24	-0.28700528345886966
65	0x3fb9452c918e838e	0.09871176293974157
66	0xbfd44170243011d2	-0.3164940217395983
67	0x3fd1a0d4d6ebcec1	0.27544136989966367
68	0xbfb5c456191f4a91	-0.08502710450492602
69	0xbfca22b80512906e	-0.20418453452760182
70	0xbfacd80756ad5591	-0.05633566792554768
71	0xbfba5215374323ac	-0.10281498526741356
72	0xbfc5a9ec0aa911c0	-0.1692481090596072
73	0x3fb26d14b59a0d58	0.0719769423831641
74	0x3fcbe9a768dd5985	0.2180680524858866
75	0x3fc9045e00bce128	0.1954457763292876
76	0x3fd0ecb37962b83f	0.2644470868498309
77	0x3fc607a887b3a2c0	0.17210871339854883
78	0x3fc7bbeaafb5fd2b	0.1854222639048911
79	0x3fd081ddc715b6d7	0.25792641107441966
80	0x3f801768d3da9e44	0.007857150044699009
81	0xbfb34eb61e3c5eb0	-0.07541979063204951
82	0xbfb24e6484841016	-0.07150867686510795
83	0xbfc11c150c68c018	-0.13366950136105582
84	0x3fceaba4fb769619	0.2396131732795517
85	0xbfc31a263b10023d	-0.14923551448738862
86	0xbfd286bf5bf27e05	-0.2894743345186444
87	0xbfb2aee3d48e790f	-0.0729811090409138
88	0xbfb3df0c204cf7a8	-0.07762218273725685
89	0xbfb1616579f9287f	-0.06789240100730075
90	0xbfcd58339b93673d	-0.22925419899439162
91	0xbfd163419ddf2d13	-0.27168312470594563
92	0x3f9049ffaaf4a251	0.015907282647420754
93	0x3fab517715e561ce	0.053355904982428023
94	0xbfcb01058a761dba	-0.21096867810068237
95	0x3fc7efbfb2c3654e	0.1870040533893111
96	0xbfb9b3787972591b	-0.10039475407606739
97	0xbfbb2f90eb5f9df0	-0.10619455095694952
98	0xbfbb9a512ecc377e	-0.10782344238779548
99	0xbfc2c779846de2ad	-0.14671248403808104
100	0x3f9acab316dbc089	0.02616386248604433
101	0xbfa242e21ed2ea14	-0.035666528952294524
102	0xbfcaaa9e39145a77	-0.20833184992871498
103	0xbfbd87b33047c810	-0.11535186699600808
104	0xbfc6c83854739e12	-0.17798523067106992
105	0x3fbbe61d04158dfe	0.10898000096999991
106	0xbfc38b48607f7b89	-0.15268807136359566
107	0xbfc3b25eca4d1006	-0.15388092878322385
108	0xbfc14c61d4b37814	-0.13514349828523164
109	0xbfb962de90ec79ad	-0.09916487730195085
110	0x3fcf3730346a570a	0.2438717132505917
111	0xbf6989f667e18192	-0.003117543469713443
112	0xbfb27bf772ac0e21	-0.07220408010112368
113	0x3faeebc57fbf35df	0.060392543644052436
114	0xbfb80d61274af96b	-0.09395415505693953
115	0x3fa5cc4304065f78	0.042574018708534334
116	0x3fa23a80d2241b3c	0.03560259404371499
117	0xbfc47c7782e08a5d	-0.16004842653736065
118	0x3fbe6f5b1061a318	0.11888665342270277
119	0xbfb851686adb56ae	-0.09499218567665466
120	0x3fbae11915362da3	0.10499722259390025
121	0x3fb7369c53465186	0.09067704232285764
122	0x3f9dfb8a1d297101	0.02927985957136148
123	0xbfb67393376b5f3f	-0.0877010355283092
124	0xbf79650da7cae527	-0.006199887601434007
125	0xbfb7b3bf1b7b9f22	-0.09258646412820018
126	0xbfcaff099bc649ec	-0.21090812784366564
127	0xbfc2e1712ffcb79c	-0.1475049480736147
128	0x3fbe611ca423776e	0.11866930968559838
129	0xbfceb596e245b96d	-0.23991666840033635
130	0x3fd07500393b0584	0.2571411665813559
131	0x3fb6aad1b72cbf9b	0.08854399416008933
132	0xbfc55ba7b65589ac	-0.1668595924666766
133	0xbf9a48c2d338baa9	-0.025668186323111773
134	0xbfcd2800bbaa7874	-0.2277832905137448
135	0xbfcabeac59bd640d	-0.2089438856299072
136	0xbfc076a71ed59efa	-0.12862099652851794
137	0x3fa4982ac74daf4e	0.040223442868266276
138	0xbfa58f81e7c07900	-0.042110499897022535
139	0xbfc760a55af56e58	-0.18263689938872818
140	0x3fabf88194606954	0.05463032661664849
141	0xbfc62da8cb00d232	-0.17326841270700438
142	0x3fc8af2f9848d820	0.19284624992150246
143	0x3fd12a982b8275f4	0.2682247567080076
144	0xbfc5ff34541143f7	-0.1718507204518855
145	0x3fd687d37af64a47	0.35204016693129286
146	0x3fc007f5945c8bf3	0.1252428984090269
147	0x3fa9f95dca2446ab	0.05073063938665475
148	0x3fcc9c5ca641807c	0.2235217868610596
149	0xbfd23524bf362fa8	-0.2844936244298375
150	0x3fd27a41ad13b244	0.2887119474606019
151	0x3fc834b721babc26	0.18910874506897918
152	0x3fbba72f6caa6df3	0.10801979449245618
153	0x3fc7aa25ec4ebf7f	0.18488000906426902
154	0xbf8cdf2fd7356b1e	-0.014097570185801763
155	0xbfd204f5baf6b898	-0.2815527273004448
156	0xbfd75988535ec719	-0.36483963147758086
157	0xbfc566adc36f3068	-0.16719600718204508
158	0xbfc5c5466a344899	-0.1700828569960933
159	0xbfce98327f218a51	-0.23901969153947047
160	0xbfc9c1c8f6efcc85	-0.2012263494249035
161	0xbfc6e406e6bccbd4	-0.17883383051375168
162	0x3f9c76c8d3269980	0.027796876800175507
163	0xbfa45d5cc08d7f48	-0.03977479792115318
164	0x3fa141a0d2764dd8	0.03370382851712933
165	0x3fb19fb67ab62973	0.06884327407730044
166	0xbfd2bba339fc2489	-0.29270249044982016
167	0x3fa32967c26b789f	0.03742527244843185
168	0x3fa4f06a8970dcbb	0.040896729733895985
169	0x3fc0c95d458185a0	0.13114515203328114
170	0x3fade5deab81bece	0.058394392429247696
171	0x3fb59ecc1164fb90	0.08445430206937332
172	0x3fc4a7c3cae8b721	0.1613697758452242
173	0x3fd0008a757b352f	0.2500330111768844
174	0xbfa1b7e3810a385c	-0.03460608434862486
175	0x3fbe0d0212ba3be5	0.11738598782743244
176	0x3fb6a4a3d65a227b	0.08844970687108315
177	0xbfce701af923427b	-0.23779618420532586
178	0x3fba61f6f1007afc	0.1030573213942993
179	0xbf31468f74e78962	-0.0002636051403027887
180	0x3fbb7c958f1b4d42	0.10736975425543441
181	0x3f9b5688bbadae17	0.026697288947088973
182	0xbf8d245dc76099a9	-0.0142295195074212
183	0x3fc79720b134e832	0.18429955151242577
184	0x3fcf6a2e7469a96e	0.24542790111747642
185	0x3fa2a365709128cd	0.036402864447681794
186	0x3fb67c7ac25a477b	0.08783690686166594
187	0xbfca4cebf6ee5b87	-0.20547246510679093
188	0x3fbfb04e4269fa4f	0.12378396150050118
189	0x3fc55ae8657fc75e	0.16683678585064404
190	0xbfb08efd43f1f42e	-0.06468184384171202
191	0x3fa47b435a15b8a4	0.04000292277020037
192	0xbfcc731f2485a23b	-0.22226323397923572
193	0x3f5ba5f938a20c6a	0.0016875203896524978
194	0x3fb99bd008ec209d	0.10003376214820255
195	0x3f8adda9ffe8c965	0.013118103143913993
196	0x3fc5e7f47d19db6d	0.17114120586822015
197	0xbfa3a3fbf5354fad	-0.03836047523751005
198	0xbf96f8c8e20095e7	-0.022433413309178276
199	0x3fba62ec1817b44a	0.10307193363378633
200	0xbfcbd1b2a2c588a2	-0.21733696887810533
201	0x3fa80aa13236cff2	0.04695609796490875
202	0x3f9ffb340db8c81e	0.031231702172768043
203	0x3fb7e63ed2b5bd87	0.09335701603207812
204	0x3fa340a84569e6df	0.03760267112097692
205	0x3fbd41646aa366d4	0.11427905658220122
206	0x3fc558288d46f959	0.16675288103392452
207	0x3fc019b736df362d	0.1257847803048419
208	0x3fcd06c7ef3cd92d	0.22676943952110076
209	0x3fc86345987d09d7	0.19052953668331327
210	0x3fbfe4661f9f8cc2	0.12457884094287677
211	0x3faff399d3aa0216	0.06240540226736273
212	0xbfcfebb4cf6fb7a5	-0.2493806851265933
213	0xbfc38b20f245d511	-0.15268337087369635
214	0x3fcccb2ee4d43492	0.22495065854346713
215	0x3f7a661caf26283e	0.006445037887155945
216	0x3fc674d180fb3ed2	0.1754400138656736
217	0x3fc6fae079fc9475	0.17953115421656532
218	0x3fbddb5ea23adf4f	0.1166285654134047
219	0xbfc5fdb5d6113722	-0.17180512382986374
220	0xbfa09f894631b68d	-0.03246716482031529
221	0x3fc278879759c4b4	0.14430327310723146
222	0x3faa254658c00c80	0.051065634092105405
223	0x3fb9b36097602551	0.1003933305329572
224	0xbfd24091e58431c1	-0.28519103444775956
225	0xbfc23b2f0538667e	-0.14243114237688198
226	0x3fcd7b3761667083	0.23032276397578152
227	0xbfd011471d148225	-0.2510545524583299
228	0xbfcd8ddf14d2b179	-0.23089207188366936
229	0x3fd0d2f06322a7f7	0.26287469559849747
230	0xbfd42b77fa17781d	-0.31515311644568716
231	0x3fbfa97ea1861ee0	0.12368003314451981
232	0xbfc570c96b081699	-0.16750447965766993
233	0xbfc93537ee6cace2	-0.19693659917661593
234	0xbfcb364365a3c506	-0.21259348357083513
235	0xbfb225ecd597a690	-0.07089119162233204
236	0xbfbce27a93815b6d	-0.11283079243854184
237	0x3fc19936ba1b97f0	0.13748821341795248
238	0x3fcef25cfc8c62be	0.2417713387628932
239	0x3fc588e80686c332	0.16824055021927503
240	0x3fcbd429a0cdb2c3	0.21741218902334056
241	0x3fca876d07380998	0.20725787022099662
242	0x3fc413c9e2985140	0.15685390056808934
243	0x3fcd96e32ba4a44c	0.23116721755039504
244	0xbfc2360cbb6617c4	-0.14227446699459112
245	0xbfa21fd963d7066c	-0.03539923995732583
246	0xbf8fee45a44a762f	-0.015591186596164068
247	0xbf8568b6a3295ce6	-0.01045363126210792
248	0x3fb77f5871e60b96	0.09178688793876541
249	0xbfb73f54973545b7	-0.09081009570697672
250	0x3fa4a8bf77592396	0.040349944418785075
251	0xbf97da973ff01d7f	-0.02329479530092504
252	0xbf92c3183423c314	-0.018322351629595238
253	0x3f9190c594a9dc3b	0.01715382308836076
254	0xbf9b821b5ce2c29e	-0.026863505882547593
255	0xbfb6292995b0dd0c	-0.08656558899462058

W_hy f8 [10]
0	0x3fd40c16572e7da1	0.31323774827793655
1	0xbfc4e9f0088b210c	-0.16338920991098183
2	0x3fd44f7746d073c8	0.31735021510558825
3	0xbfce9e9c9edc591d	-0.23921544796821417
4	0xbfdbda474cae77a1	-0.4351976631968402
5	0x3fd10107982ce7cd	0.2656878458107002
6	0xbfe06594f24c3841	-0.5124001247766118
7	0xbfd5b049f1e3e343	-0.33888481733406567
8	0x3fcb94d9b03bfab5	0.21548005204382084
9	0x3fdb51711adfc44d	0.4268458139841343

b f8 [10]
0	0xbfaba94cc04de5b3	-0.05402603003944808
1	0xbfd2a9bda8688ecf	-0.29161015936027196
2	0x3fd107edb25ddc5a	0.26610891741387876
3	0x3fcc335442d4ad93	0.2203164411852013
4	0x3fd109616331fa5b	0.26619753539117647
5	0x3fb5b34460d32d73	0.08476664890183887
6	0xbfc4cd7b425c1674	-0.16252079715939127
7	0x3fc89003430d29e2	0.19189492010111936
8	0x3fb9785442db3e66	0.09949232704388464
9	0xbfc5bf5438e434c0	-0.16990139749433375
