models/FINAL/rnn/rnn___8/4/non_strategic/model.pt (torch, 9103 bytes, 4 tensors)

W_hh f8 [10, 10]
00000000: d8d2 762d 5659 cebf 5dc2 7078 7714 bfbf
00000010: d4a0 92d7 05ba b33f 56f6 126c c658 cebf
00000020: ef87 e015 4742 b3bf dcdc ddf0 d266 bfbf
00000030: 95fb 16fe 7fbb ca3f 0e59 afeb 81ab be3f
00000040: 8eb2 6999 f671 63bf 0d60 4418 cae0 c83f
00000050: d807 0e4e 3bf8 93bf c8ac a551 3af6 cb3f
00000060: d691 394c 5c76 aa3f e468 3fbc 1175 b6bf
00000070: 7eaf ebe2 5abb 913f 0cc6 19b3 aca3 8dbf
00000080: 0575 73c4 4128 b33f fab6 134d eff4 c63f
00000090: 7f13 860e 6513 c2bf da79 551c db80 cdbf
000000a0: 1f22 3d44 6d02 ce3f 640a 84cd 7092 bcbf
000000b0: 8845 5928 9d79 d23f b546 5d6b 3f96 723f
000000c0: aa0e cfee ce0f c73f d07d de4d aa78 8f3f
000000d0: cf28 e003 2a04 afbf f49c c9e0 0a7f b9bf
000000e0: f555 13db f291 bdbf 2035 6748 03a6 cc3f
000000f0: 3238 edc4 fb15 d0bf c093 85ac 498d 99bf
00000100: ccd8 36c4 75e5 c63f e37d 14f4 cd33 cf3f
00000110: 9fe0 1271 70ae ad3f 29db 5bde b9d5 d3bf
00000120: 664b 70b7 e9aa a13f 50f3 c279 d92c b03f
00000130: 1348 c477 6eeb c9bf d85f 856e 1589 a63f
00000140: 1514 15f2 9bf9 b33f 66fb ab5c ce9a d13f
00000150: 313c 5362 465f cbbf 2dd2 8535 4ce0 b03f
00000160: 0dc3 2dc7 7086 a7bf 82c0 d3d2 8427 a7bf
00000170: 7db7 75b4 cbac cebf dff3 3a51 deac d03f
00000180: e4eb 2dc9 549b d7bf c8f3 f612 7a9b d3bf
00000190: bfad a973 b5a7 bfbf f71f 1d59 19ba c03f
000001a0: 1304 df90 0418 cd3f 2a61 c919 9a9d d3bf
000001b0: 5350 3187 149b c8bf 9986 44b7 6ed3 c03f
000001c0: e871 eb34 18f0 b1bf 1ce3 df1f 6721 c4bf
000001d0: 2a8f b500 32e1 d53f 1acb 57db 064e 85bf
000001e0: cb49 1b0e 4d61 bbbf 6b1f b0f1 51aa d13f
000001f0: cc36 bea0 058f c43f 3d2a ebaa d619 d6bf
00000200: 3868 e895 8ba0 b4bf bd4e ffaf 0b5b c43f
00000210: 81af ecb3 5434 b03f 1680 9f44 3248 d0bf
00000220: 0def c96c 5b0b c93f ebb0 bd72 ca8c d0bf
00000230: fd41 f3f5 cd40 d0bf 19e2 d287 135b cbbf
00000240: e45a aa33 bb58 6bbf 3acf 2531 3b90 c7bf
00000250: a523 f029 9dba d13f 5925 30a6 6a2f b53f
00000260: cce7 57b3 df9f c63f 4fe3 b60e 006a c63f
00000270: e5fc 31f6 3d4f adbf fee0 2660 89de c23f
00000280: 58d0 1e08 eaf0 cb3f a262 292f 74ba a93f
00000290: 39dc c191 19f9 bd3f 3a4a 0038 157c cb3f
000002a0: cee2 b86a 516d b03f ba9d f6ae 2003 a33f
000002b0: ce49 4033 be0c b5bf ba71 0d57 9151 b43f
000002c0: 66d3 9a73 e01a 863f 6805 ca1e 1b75 ce3f
000002d0: e81d 1303 9338 b93f 0582 3838 aba5 ccbf
000002e0: 2997 ecbf 046b ccbf ec55 c9ab 1f12 d43f
000002f0: 3858 b4c4 8bd7 bebf a5b1 255d b7a9 d03f
00000300: af9a 40d1 99b2 c93f 0c12 1ee4 b434 cc3f
00000310: 49cf 53ee 2681 b0bf 7fae 7645 9acd 93bf
-0.23710133762292318 -0.12140604677620943 0.07705723298079487 -0.23708420064024222 -0.07523006710155732 -0.12266271954091529 0.2088470450089203 0.11980449680354274
-0.002373677863309282 0.19436002907673391 -0.019501616133773186 0.21845177637746915 0.05168426924209128 -0.0877238354291055 0.01731626520169937 -0.014472340789526882
0.07483302160422418 0.17934981597448268 -0.14121688088576076 -0.23049487002840757 0.23444906074497937 -0.11160950677371201 0.28867272320084014 0.004537818653106808
0.18016993198954384 0.015366869450928272 -0.060578644726847146 -0.09959476459481548 -0.11550824974559488 0.22381630931196472 -0.2513417647468287 -0.02495303264130988
0.17887756424688062 0.24376844804736128 0.05797149067206075 -0.3099198028061659 0.034507087366498365 0.06318434927648053 -0.20249729965195282 0.04401461576588844
0.07802748356068918 0.27507361459713875 -0.21384506035835352 0.06592251116473653 -0.045947574914754076 -0.04522337983678516 -0.23964830695643605 0.2605510514511575
-0.3688556637422933 -0.30636455394761386 -0.12365278314398774 0.13067929126032116 0.22729546617304716 -0.30649426000811053 -0.19223267174914102 0.13145240734688882
-0.07006980220780401 -0.15726937347769698 0.3418698317457137 -0.010402730530562777 -0.10695344538115774 0.27602051355687846 0.16061468457012607 -0.3453270596625407
-0.08057472619876271 0.1590284928666871 0.06329850571336061 -0.254406516089149 0.19565909206345858 -0.25859318928884417 -0.2539553548677132 -0.21371692783374455
-0.003338208797980401 -0.18408908748426162 0.27701500983726596 0.08275476987195897 0.17675396210671435 0.17510987013317922 -0.05724519377053542 0.1474162787906223
0.21828961750509523 0.05025065494254945 0.11708221252944008 0.21472420916014007 0.06416806083224033 0.03713323722632418 -0.08222569228409002 0.0793696248560484
0.010793450859048991 0.23794878962875576 0.09851950478616056 -0.22380581135895752 -0.22201594706819464 0.31360618377706717 -0.1204764704928899 0.2603586587563547
0.20076296536827473 0.22035847796009056 -0.06447070425548164 -0.019338999261590658

W_xh f8 [10, 82]
00000000: 97bd bba5 1dce c33f 2758 8dd6 6a82 b33f
00000010: 5a70 c780 4423 cbbf 5629 f6d9 4e23 c23f
00000020: ed2c 87e5 74ed c53f 1fd1 7e81 52a6 94bf
00000030: ee41 192b b72c bf3f 6cb6 d0e6 8ad3 c1bf
00000040: ee52 4a00 2ac5 b93f 8efd f140 c686 d13f
00000050: c650 19b0 2b5c b7bf 47fa 7651 26e2 ac3f
00000060: af22 3975 d52c c53f 8385 8f71 101b b7bf
00000070: b3ac 4080 9b59 b63f 3d2c ef4b 0e05 c23f
00000080: 5eda 6967 1319 b03f 47e1 3d24 e74a 533f
00000090: b40b 895b 3c72 babf c803 704d 7a3d b33f
000000a0: c044 877a 052f c93f da55 c22d a9e4 babf
000000b0: f1c6 5937 123b d03f aa16 f8e3 b957 cebf
000000c0: 070d 8ecd bfb3 d13f 00d1 e14b f605 c13f
000000d0: a8ab 909a 1288 733f 2417 53ad 6338 b33f
000000e0: 5c46 f462 e0e2 a7bf 91f6 4f9d 3a17 c83f
000000f0: 8124 6a9d bd7b a5bf f4b0 8944 72ea a73f
00000100: 6578 0f52 76dc bf3f 2975 96f6 fdbf 98bf
00000110: f026 52df 0f69 813f 5042 aec5 1186 d03f
00000120: 06ca b1c5 ffa1 b7bf 43c7 dec0 ea07 b8bf
00000130: e6ac fd5b 547a a4bf 04ef b0da 36d6 80bf
00000140: c912 5792 0106 7b3f de80 fc50 8802 a73f
00000150: 80ad e94b efa9 853f 27b6 d49b 122c be3f
00000160: a3d5 93f7 e36d c63f 735e 8cc6 2327 c13f
00000170: 77f4 2a94 1a74 893f 73b0 05c5 963e cf3f
00000180: b94c a1b2 1ea0 ccbf 41b7 dfc2 2fec c7bf
00000190: ae48 159f db47 d43f f95c 5957 460c abbf
000001a0: eb15 9811 6677 af3f 520f 7f8a dfc8 b93f
000001b0: 4883 cf84 ad64 aa3f e497 880e 9593 c1bf
000001c0: df68 dd3d f4f9 a7bf 99e6 b817 3826 b43f
000001d0: afcd 2b4c b069 aabf dddb 6441 ef9e b03f
000001e0: 5a62 fa15 af15 c6bf 8ba0 697d 1e32 d2bf
000001f0: 1241 9995 3156 c03f 7c2b 0534 144a c7bf
00000200: f844 f8ea 8216 d0bf e722 4d44 10ac c33f
00000210: e6e4 b04d 1e2d d4bf cc2e 5c3a ac9b d13f
00000220: d9a9 60db dcf7 b2bf c0ff 3bab a940 c6bf
00000230: bacb d92c 8972 b2bf 7d7f 5a78 8c03 b5bf
00000240: 6ff5 d27e 18fc c4bf 983a b834 8dad 913f
00000250: 4bfa 7c72 4f9d cb3f 2186 2b1c 40c2 c83f
00000260: 55eb e647 a1b3 d03f 38b8 d3ec 1e26 c53f
00000270: 2fb6 cebf b069 c53f 4449 5de1 dc8c d03f
00000280: 0d4e d822 562d a63f f208 0c2b 0320 bebf
00000290: affe 47bb daaa 9bbf c836 abef 6042 c5bf
000002a0: fa3a 9425 98de ce3f 1808 31c2 4897 c4bf
000002b0: 5a29 91da e284 d4bf 74e2 4ff7 dd15 92bf
000002c0: df0c 8f2c 632f b7bf ae90 b842 25f1 adbf
000002d0: b43e 197f 4254 d0bf 6f75 5aef d567 d3bf
000002e0: bc29 4ca4 44e1 b33f a485 b422 b412 b13f
000002f0: e0fb e953 fa33 cbbf 4db0 8cda b59f c83f
00000300: fe1b 301f 81b3 c2bf 2690 c089 1ec2 bebf
00000310: 0948 f279 37d6 bebf 915e a459 9f27 b9bf
00000320: ee94 f9a0 e49f 893f c02f 2dc1 aed8 85bf
00000330: 4982 d078 1b00 ccbf 7bbd 40b4 4e1e 96bf
00000340: fff7 c666 9ab9 c7bf ad2f 347a 161d be3f
00000350: 765e ae85 3731 c4bf 60ed c333 a7c9 c8bf
00000360: 337c e9fa 4fc6 abbf 95b5 8a44 e278 bebf
00000370: aee6 989a f51b ca3f a072 a6b8 1bf9 95bf
00000380: 797b d91e 7a95 c0bf bc3a 6cf6 4276 b23f
00000390: 908c 33a6 f083 a8bf d15c b93c f16e a03f
000003a0: f97d 6772 91c3 a83f 3136 b4ee 4641 c9bf
000003b0: 9fc9 aca0 2b52 b53f ad68 a5f2 f561 b5bf
000003c0: 097a 278e 11f8 b93f 6bf4 04eb 8a36 b33f
000003d0: d71a 8c0e 63dd a83f 37c5 cdaf 207e bebf
000003e0: 9c33 6c66 cfa4 9c3f 080c cb02 d7e2 c1bf
000003f0: 5e3c 70db 1f30 cbbf ea1c c16d c8f2 c3bf
00000400: c904 59b0 0c2a bb3f 5665 547f d7ec cdbf
00000410: 2bc5 1c58 eaa9 d13f c1ad cc9e 938d b83f
00000420: f4c5 c354 57f0 cbbf c925 9395 ce7e a4bf
00000430: 888b 182e bf65 d1bf 60e9 1d14 337b c8bf
00000440: a2d6 5baf 6771 babf 2020 1f4b aae3 bf3f
00000450: 920f 0063 37a4 ab3f 4ede 5967 5f52 c7bf
00000460: 95aa 9548 ef5e a73f 28f2 a4b8 0cb4 c7bf
00000470: 931e d76f 9f43 cb3f 818c 01d8 9bc1 d13f
00000480: 73f4 17fb 46b3 c5bf d701 1b62 2cff d63f
00000490: c34e 2f41 ba1f bb3f e87f a343 8295 adbf
000004a0: ad60 bc5a 8d9e cb3f 66f2 08ee e44d d2bf
000004b0: c9c1 c231 498e d13f aab9 60ce 905f c83f
000004c0: 2048 f481 d34c c13f 1c12 4315 46e2 c43f
000004d0: 9485 a232 7735 903f 358e e79d 73af cabf
000004e0: 7633 374a 7842 d7bf 3f40 c642 3055 c5bf
000004f0: a56d c4c9 983e c5bf 1029 3bef a6e1 cdbf
00000500: 52ee bd3c 00cc cabf a88d a99d 285d c8bf
00000510: 30f6 d276 8f8f a6bf 07d5 bd07 72ae 81bf
00000520: 089d b27d 2c12 91bf 2902 ce5a c222 b33f
00000530: b989 23c0 af58 d2bf 60ae c05d d99c a83f
00000540: e6b7 2eb3 12ae ae3f eb1d 9c2d f903 b43f
00000550: f8bd e6ef 822b a43f 3905 c16b f04b b13f
00000560: 0de2 e6dd 3dc6 c53f c82a fe51 fcf7 d03f
00000570: 6ca5 8d16 ef13 a9bf 04a5 44d3 a65d bc3f
00000580: 3055 1e23 d818 b53f b96b 4da9 a1d6 cdbf
00000590: 91b1 d3ce ef04 c93f b726 b5f6 382f 953f
000005a0: 18fb 48df 00d5 c03f c831 c1d7 34ca a4bf
000005b0: e2aa 10f7 cd97 81bf ae39 d02a 03b9 bf3f
000005c0: ad9e 36c9 1c43 ce3f 685c 8a02 6342 9ebf
000005d0: 47a7 eee3 8494 b93f e45f 6207 7fbc c9bf
000005e0: b290 561a 25d1 c23f 99a6 7cda d55e c83f
000005f0: 5ebc e211 640f bdbf 5762 20b9 9b1b bf3f
00000600: 22f7 4975 a7ef c8bf da2e 80f5 504a a13f
00000610: 09ef eb61 d19f b23f 1dac abad ad87 76bf
00000620: ad1c 312c 087f c13f 1767 4d3c b505 91bf
00000630: 7edd f65b 9fcc a2bf 3a46 e991 597a bc3f
00000640: 39e9 764a 1386 c7bf 40f3 f989 11cf 9c3f
00000650: d902 6066 9aa4 943f 487c 03ac 1dc2 b53f
00000660: 2f01 4f44 9827 873f f528 2982 552e b43f
00000670: 01d6 21eb 5fdd b63f d6f1 5708 04b2 c53f
00000680: 511f 0d54 dad4 c83f 97d8 8db6 a66a c63f
00000690: 195d 12dc c529 a53f ab5a 4784 0f27 b13f
000006a0: e9f1 ec8b 611b d0bf 28a7 4a21 1917 c5bf
000006b0: d026 d5ea a56a d03f fc46 3963 c95a 9c3f
000006c0: 1df8 6dc2 a8df c73f cd94 10c2 bd16 c33f
000006d0: 8d3e 502b f906 b93f 2c40 b25e 0789 cabf
000006e0: 7607 d05c 8309 babf e39c 2673 b979 be3f
000006f0: 8bc2 15c8 2168 a93f 5198 1382 8753 b13f
00000700: e0de 6bee 48f9 d1bf 820e 7e77 d266 c1bf
00000710: 0c26 cc44 ae77 cc3f 7d68 23e6 9de3 cfbf
00000720: 4272 d8b9 c665 c5bf 2db8 3a33 bbb5 d33f
00000730: 15f9 39cf a03c d4bf 139a 423f 0b2f bf3f
00000740: f0d3 49ab 82c3 c3bf e025 5730 1a31 c5bf
00000750: 30c3 ee95 4c70 ccbf 88f4 7b8a c080 a8bf
00000760: 2ec2 aa34 6180 b9bf f2e8 7491 32b7 b63f
00000770: 2750 c870 0276 ce3f f4ff e8f1 c410 c53f
00000780: a1b2 9ad0 cc08 cb3f c062 4e42 ba67 c93f
00000790: 3b2c 35fe b79d c13f 16c4 f032 dad3 cd3f
000007a0: 3e2b 1daf 9724 bbbf 4545 b84c 452b b4bf
000007b0: e211 b7e2 0cba 65bf fd02 554f cb61 a4bf
000007c0: f46d 9508 1ff1 c03f 5883 bd41 a966 a5bf
000007d0: 0a8c 4255 8b90 a53f 7ef9 e6ab b1a2 84bf
000007e0: 50df 4814 e03f acbf 66ee 3580 9db4 a4bf
000007f0: 3d53 be08 ed52 afbf 2100 1cf4 9bc7 c4bf
0.1547276553387575 0.07620876062478087 -0.21201378143348643 0.1417025150552244 0.17130910117553047 -0.020165719178934723 0.12177605440343317 -0.13926826734807507
0.1006647349079903 0.273850978301163 -0.09125016259469296 0.05641288513605907 0.16543071960247377 -0.09025671741939871 0.08730480080764629 0.14077929218032806
0.06288262629264227 0.0011775262109648564 -0.10330559954404245 0.0751568259293115 0.19674747927505187 -0.10505158774534298 0.2536054173025227 -0.23705218917182452
0.2765960223552643 0.1329944487112087 0.004768440886475135 0.07507918340260439 -0.04665280540406222 0.18820889168994318 -0.041959691491748614 0.0467105587639213
0.12445773604801642 -0.024169891524811114 0.00850117111464807 0.2581829481578426 -0.09231566025281532 -0.09387080391641427 -0.03999580023704556 -0.008221081303524176
0.006597524775717908 0.04494119633295822 0.010578031067061344 0.11785999588456574 0.17522859181160041 0.13400695032827378 0.012428481718752089 0.2440975629828049
-0.2236364719597981 -0.18689534201933536 0.316885857920293 -0.052828024065712804 0.0614578148343233 0.10072133189447399 0.051549360716086456 -0.1373163529362379
-0.04682887320696393 0.0787081773677535 -0.05158759050200545 0.06492514940769874 -0.1725367410006296 -0.2843090271694641 0.12763042263623753 -0.18194820919083188
-0.2513739866854645 0.15368846259141053 -0.3152538069439984 0.27512651156642387 -0.07409458499811396 -0.1738483511071518 -0.07206017823209168 -0.08208539903944075
-0.1639433497675031 0.017263609259368623 0.2157382306122194 0.19342805266846688 0.26096374532396754 0.16522585452861605 0.16728791585539812 0.25859758384935483
0.04331463981011661 -0.11767597008659772 -0.027018945389498835 -0.16608821585253097 0.24116803965485883 -0.16086682779320038 -0.3206107267802928 -0.017661541194657862
-0.09056682432042205 -0.05848041953530135 -0.2551428071210282 -0.3032126271662809 0.07765606890840265 0.06669164511961029 -0.21252373788226375 0.19237397357335553
-0.14610303900573735 -0.12014952529040154 -0.12045618750769917 -0.09826084078337717 0.01251200309998032 -0.010667195577887756 -0.21875327490944788 -0.021599988700641042
-0.18535165804308915 0.11763134463779919 -0.15775198008917685 -0.19365396525959522 -0.05424737871066334 -0.11903204129585838 0.20397825287527865 -0.021458085198548305
-0.12956167703938684 0.07211702839070261 -0.047881622589352024 0.03209642282734538 0.048367066588749404 -0.19730459838358308 0.08328507111290272 -0.08352601217248674
0.10144147606431643 0.07505100477006159 0.048564048314849444 -0.11911205570301751 0.027972450853713235 -0.13973510395416633 -0.21240614142195374 -0.15584664687251087
0.10611037545551762 -0.23379033772725205 0.27599581341481166 0.0959102881139904 -0.21827212942984853 -0.0400299604021473 -0.2718351316599912 -0.19125975115077676
-0.10329292327136355 0.12456764539740606 0.05398724635600084 -0.18220131441533954 0.0456461692909517 -0.18518218055568636 0.21300118409111643 0.2774419412073215
-0.16953360805920034 0.35932454662909435 0.10595287410188363 -0.05778128696124424 0.21577612810574945 -0.28600428815460643 0.2743094430871023 0.1904164321617377
0.13515704961224717 0.16315532720740655 0.015828955140596415 -0.20847935877019244 -0.36343199966068285 -0.1666622472807848 -0.16597280361098146 -0.23344885522085024
-0.2093506142226596 -0.19034297655444488 -0.04406402898301243 -0.008633509503605653 -0.01667089001844338 0.07474913327133294 -0.2866629959445635 0.0480716635650793
0.05992182194982813 0.078185628543103 0.03939446619494541 0.0675649893828635 0.17011235556653084 0.2651358414374667 -0.048980208876694714 0.11080401094354292
0.0824103437174315 -0.23311253325195283 0.19546315764399627 0.020687952096784836 0.13150034811584344 -0.04060521253322552 -0.008590325453118056 0.12391681475876368
0.23642310929175406 -0.029550120382364403 0.09992247166397049 -0.20106494770584427 0.14700759683649306 0.19039414566332338 -0.113516096464751 0.12151501912774997
-0.1948136637401428 0.03377011296114825 0.07275112763084847 -0.005500486785176254 0.13668920667462228 -0.0166233366065632 -0.03671739575969023 0.1112419110516151
-0.18377915512048462 0.02813365368500631 0.020159161089398168 0.08499322366286421 0.011305989822972677 0.07883200099709937 0.08931540957004104 0.16949510962866893
0.19399575332703958 0.1751297370316862 0.041334326853013255 0.06700226764165033 -0.25167120613676147 -0.16476740003172918 0.25650928433297526 0.02769007366288799
0.18651303762084206 0.14913150764292596 0.09776265437562355 -0.20730678676454894 -0.1017076589196487 0.11904486714648814 0.04962258880084843 0.06768080640503739
-0.28084014209114905 -0.1359503825625446 0.22240236624956855 -0.24913381325933762 -0.16716846537100777 0.30796699526661336 -0.31620044934233366 0.12181158346593461
-0.15440400470438886 -0.1655609832799163 -0.22217709847384404 -0.04785730066758115 -0.09961516891304065 0.08873287249744857 0.23797636515576068 0.1645742589189464
0.21120605645900972 0.19847801435095924 0.13762569344030048 0.23302772033051217 -0.1060271074795027 -0.07878525851289904 -0.002652192275237151 -0.03980861037644521
0.13235843581320206 -0.0417988674878475 0.04211841026087633 -0.010075939234295058 -0.05517482993712852 -0.04044048490592615 -0.061179549519840816 -0.1623415891590421

W_hy f8 [10]
00000000: 89fd 4e1b d705 d43f a2a7 31bb 6f10 c6bf
00000010: d76b 7835 e289 d43f 7997 5261 bb49 cabf
00000020: 991f 8530 8f50 dbbf 11b4 25eb 979e d03f
00000030: ac24 55f8 bc3a e0bf a440 26e1 d3e2 d5bf
00000040: c07e 5ee8 4a56 cc3f c334 800e e2b3 da3f
0.31285646120883165 -0.17237660065012245 0.32091574880331336 -0.20537512065964927 -0.4267919515445953 0.2596797748909135 -0.5071701860662379 -0.3419694613194315
0.22138344141148103 0.4172291890725541

b f8 [10]
00000000: badc 0cfd fe12 aebf 366b e50e c2df d1bf
00000010: 6d17 789b 4fa2 d03f 744e b02a e4d1 c63f
00000020: 27ff 83d3 6d54 d13f 1a5e e7d1 cf1f b23f
00000030: ab42 fb4c 7fef c3bf ff8e cd2d d0f2 c83f
00000040: 7816 6731 8ced b73f 39d5 bbc3 fcac c6bf
-0.058738678350374454 -0.27928210692123245 0.25990667517213845 0.17828037342461622 0.27077813773938647 0.07079790949443812 -0.15574637659894583 0.19491007076714337
0.09346843916054037 -0.17715415532408388
